p3_collab-compet/actor.pth (torch_old, 53441 bytes, 18 tensors)

bn0.weight f4 [24]
0	0x3edd6a5a	0.43245202
1	0x3e904353	0.28176364
2	0x3eda75db	0.42668042
3	0x3eb7b488	0.35879922
4	0x3f766ce6	0.96259916
5	0x3dec2973	0.11531343
6	0x3e96402f	0.29345843
7	0x3f6b1d68	0.91841745
8	0x3f153808	0.5828862
9	0x3e09dff4	0.13464338
10	0x3f2c3a2f	0.6727628
11	0x3dcceeef	0.100065105
12	0x3f47cd0c	0.7804725
13	0x3f0e61c7	0.55617946
14	0x3eec8c41	0.46200755
15	0x3e694864	0.22781521
16	0x3e6a895a	0.22903958
17	0x3eac5456	0.33658093
18	0x3eeae16b	0.45875105
19	0x3e8321be	0.2561168
20	0x3f20ca70	0.62808895
21	0x3e356295	0.17713387
22	0x3ea005cb	0.3125442
23	0x3e480937	0.19534765

bn0.bias f4 [24]
0	0xb1904700	-4.1990234e-09
1	0x31f22fe1	7.04857e-09
2	0x3220936b	9.346745e-09
3	0xb21b601d	-9.044041e-09
4	0x31bac38b	5.435543e-09
5	0x312ecb72	2.5435978e-09
6	0x318897fc	3.9753996e-09
7	0x31e0bc5a	6.540671e-09
8	0x323eb507	1.1100616e-08
9	0xb14efffa	-3.0122451e-09
10	0xb22bc854	-9.999059e-09
11	0x3131bfae	2.5865847e-09
12	0xb183bb0c	-3.8338666e-09
13	0xaf9472bf	-2.7002575e-10
14	0x31fefd44	7.421166e-09
15	0xb15d5ffc	-3.2214293e-09
16	0xaeb5bbb0	-8.264267e-11
17	0xb10992b4	-2.0019515e-09
18	0x317825ce	3.611024e-09
19	0xb2509a6e	-1.2142307e-08
20	0xb1f80f90	-7.219519e-09
21	0x30e5f30a	1.6731019e-09
22	0xb247e32b	-1.16349765e-08
23	0x31d1c4e0	6.1050827e-09

bn0.running_mean f4 [24]
0	0xc0467d76	-3.1014075
1	0xbf8b49b4	-1.0881867
2	0x40ed50e0	7.4161224
3	0x3f3b83b5	0.73247844
4	0xbabc6bb2	-0.0014375357
5	0x4043fcb3	3.0622985
6	0x40ed50e0	7.4161224
7	0x3f3b83b5	0.73247844
8	0xc048d8a1	-3.138222
9	0xbf8d4731	-1.1037351
10	0x4108ec46	8.557684
11	0x3f51c33e	0.8193854
12	0x3c905cc4	0.01762236
13	0x403d2b18	2.9557552
14	0x4108ec46	8.557684
15	0x3f51c33e	0.8193854
16	0xc04be67b	-3.1859424
17	0xbf8f3704	-1.1188664
18	0x411bca90	9.736954
19	0x3f599ca4	0.8500464
20	0x3d3e871b	0.046515565
21	0x40331353	2.7980545
22	0x411bca90	9.736954
23	0x3f599ca4	0.8500464

bn0.running_var f4 [24]
0	0x40dd9c9a	6.9253664
1	0x3f582b9a	0.8444153
2	0x41fd2bbe	31.646358
3	0x408c8148	4.3907814
4	0x4239c4c4	46.442154
5	0x40af5396	5.4789534
6	0x41fd2bbe	31.646358
7	0x408c8148	4.3907814
8	0x40d44b36	6.634181
9	0x3f696279	0.9116588
10	0x41fefb4a	31.8727
11	0x409876dd	4.7645097
12	0x4248de32	50.216988
13	0x40c6673b	6.2001014
14	0x41fefb4a	31.8727
15	0x409876dd	4.7645097
16	0x40c9e53c	6.3092327
17	0x3f7b260b	0.98104924
18	0x41efc3af	29.970549
19	0x409dac47	4.92728
20	0x425859cc	54.087692
21	0x40f021a1	7.504105
22	0x41efc3af	29.970549
23	0x409dac47	4.92728

fc1.weight f4 [96, 24]
0	0xbdc0759d	-0.09397433
1	0x3d9f50f0	0.077791095
2	0xbda4c48f	-0.08045303
3	0xbd6c4df7	-0.05769154
4	0xbd5a23e4	-0.053256884
5	0xbd1039ed	-0.035211492
6	0xbc86d4f9	-0.016458975
7	0x3cbc9c1e	0.023023661
8	0xbd65eef4	-0.056136087
9	0x3dc1933f	0.09451913
10	0x3d458cd6	0.048230015
11	0xbc55ebe6	-0.013056731
12	0x3cbe9d28	0.023268297
13	0xbd55b2b2	-0.05217237
14	0xbd6701e3	-0.056398284
15	0xbc53afc7	-0.012920327
16	0xbdb12653	-0.08649888
17	0xbc50a2e5	-0.01273415
18	0x3c859329	0.016305523
19	0xbd5e7834	-0.054313853
20	0x3d8a2c6d	0.06746755
21	0x3d9ee2c1	0.077580936
22	0xbd09d05b	-0.03364597
23	0xbdbb69ed	-0.09151063
24	0xbd47f81c	-0.0488206
25	0x3cb6ed47	0.02232994
26	0xbc900cab	-0.017584166
27	0x3da584c5	0.080819644
28	0xbd765007	-0.060134914
29	0x3db36dcb	0.08761176
30	0x3d9f7fb3	0.077880286
31	0xbcb3f49b	-0.021967223
32	0x3d9e1b3e	0.0772004
33	0xbdb23a0e	-0.08702479
34	0x3c183c6e	0.009291751
35	0xbc98d098	-0.018654153
36	0xbc38ef25	-0.011287485
37	0xbc3698fa	-0.011144871
38	0xbd45fc19	-0.048336122
39	0xbd9f68cf	-0.077836625
40	0x3b58eee5	0.0033101377
41	0xbd305412	-0.043048926
42	0x3bbb1dd8	0.0057103448
43	0xbd8b9546	-0.06815581
44	0x3d658117	0.056031313
45	0xbdb5efa6	-0.088836
46	0x3dacc024	0.084350854
47	0x3c2755c6	0.010213321
48	0x3d60be0a	0.054868735
49	0x3abba4ca	0.0014316079
50	0x3d1214f1	0.035664503
51	0xbcaeedbb	-0.021353593
52	0x3c20b226	0.009808099
53	0xbc805fe6	-0.015670728
54	0xbdad73d1	-0.08469356
55	0xbd2aa07d	-0.04165696
56	0x3bdee31b	0.0068019754
57	0x3d2484e8	0.04016581
58	0x3cc601a4	0.024170704
59	0x3ca2e0b9	0.019882547
60	0x3c876403	0.016527181
61	0xbd08a543	-0.03336073
62	0xbd0f8c90	-0.03504616
63	0x3d21fee4	0.039549723
64	0xbc29ab95	-0.01035585
65	0x3bd34af1	0.0064481427
66	0xbda11a72	-0.07866372
67	0xbd54bf7f	-0.051940437
68	0x3d48b40c	0.04899983
69	0xbd85d21f	-0.06534218
70	0x3d3296a2	0.043600686
71	0xbcf29883	-0.029613739
72	0x3c04aa38	0.008097224
73	0xbdb4d8e0	-0.08830428
74	0x3d90081a	0.07032795
75	0x3dc1220d	0.09430323
76	0xbaeeb11f	-0.0018210745
77	0x3d3b787f	0.04576921
78	0x3bd7b731	0.0065831174
79	0x3d7bc083	0.06146289
80	0x3db07684	0.08616355
81	0xbdaf9fa2	-0.085753694
82	0x3d3a2ba5	0.04545178
83	0x3c2e9d49	0.010657617
84	0x3d5af2e7	0.053454306
85	0x3d3c0597	0.04590377
86	0x3db13d45	0.08654264
87	0xbcdf934e	-0.02729192
88	0x3d0c91c4	0.0343187
89	0xbce79c4e	-0.028272774
90	0xbc6ba729	-0.014383116
91	0xbd869228	-0.06570846
92	0x3d1e2512	0.03860957
93	0x3d8ee6f4	0.069776446
94	0xbc8978b6	-0.016781192
95	0x3d94c761	0.07264591
96	0x3d90a0b5	0.070619024
97	0xbd5adb0b	-0.053431552
98	0x3d24ca71	0.040232126
99	0xbc7e2e54	-0.015513975
100	0xbc13b8ec	-0.009016257
101	0xbdc519eb	-0.09624084
102	0xbd830053	-0.06396546
103	0x3ad8184b	0.0016486732
104	0x3dbd0735	0.0922989
105	0xbd7b0678	-0.061285466
106	0xbdb8d016	-0.09024064
107	0x3c1679b0	0.009184286
108	0xbd6ccdab	-0.057813328
109	0xbd02fcc2	-0.03197933
110	0xbdb159fd	-0.08659742
111	0x3d9ee1f0	0.07757938
112	0xbdb27535	-0.08713762
113	0x3d4fe337	0.0507538
114	0x3d6460fb	0.05575655
115	0x3b0e75f0	0.0021737777
116	0x3dbb19c4	0.09135774
117	0xbd86391a	-0.0655386
118	0x3d597b74	0.05309625
119	0xbdc07c91	-0.09398759
120	0xbb5321b4	-0.0032216134
121	0xbd6ba34f	-0.05752879
122	0xbcab3f0d	-0.020904088
123	0xbd4103bf	-0.047122713
124	0xbd23cbb0	-0.039989173
125	0x3da4b06c	0.08041462
126	0xbc6390ae	-0.013889475
127	0xbcf193a7	-0.029489351
128	0xbdb8e0ce	-0.09027253
129	0xbd37fa4f	-0.044916447
130	0x3d04c4ee	0.03241437
131	0x3c8807a5	0.016605208
132	0x3be8648b	0.007092064
133	0xbcdccb92	-0.026952539
134	0xba521109	-0.00080134027
135	0xbdb1a240	-0.08673525
136	0x3c941c3f	0.018079875
137	0x3c75548a	0.014973769
138	0xbc3deabe	-0.011591611
139	0xbdcf49da	-0.10121508
140	0x3d3e29d0	0.046426594
141	0xbdb37cc6	-0.08764033
142	0xbdbbca30	-0.091694236
143	0xbd789610	-0.060689986
144	0x3d1e1d24	0.03860201
145	0x3db29969	0.08720667
146	0x3b9f8edb	0.0048693246
147	0xbdc42749	-0.095778055
148	0x3daab0a8	0.08334476
149	0xbd4831d6	-0.048875652
150	0xbc84d55b	-0.016215017
151	0x3cb82ac4	0.02248133
152	0x3dc90671	0.09815682
153	0xbb6e8d4e	-0.0036400142
154	0x3d75ad95	0.059979994
155	0x3ae09d50	0.0017136727
156	0x3da466bf	0.0802741
157	0xbd74a1d2	-0.059724636
158	0xbd8c73f3	-0.06858053
159	0x3d077581	0.033071045
160	0x3d221157	0.039567318
161	0xbd110d19	-0.03541288
162	0xbc849d56	-0.016188305
163	0xbba825d9	-0.005131465
164	0x3d11d65f	0.03560483
165	0x3ba4858c	0.005020803
166	0x3c5e0333	0.013550567
167	0x3d0f936a	0.035052694
168	0xbd9b092d	-0.075701095
169	0x3bb0424b	0.0053789965
170	0x3dbe0503	0.092783
171	0x3cb6c355	0.022309938
172	0xbd98dd56	-0.074640915
173	0x3db7788d	0.0895854
174	0xbcf485e4	-0.029849
175	0xbd4546d0	-0.048163235
176	0x3d822ada	0.063558295
177	0x3d3a95f1	0.04555315
178	0x3daf9ce5	0.08574847
179	0x3bf3e93e	0.007443576
180	0x3c7f3066	0.015575504
181	0x3d1526a2	0.036413796
182	0xbdc05dec	-0.09392914
183	0xbdd16c30	-0.10225713
184	0xbc416f63	-0.011806342
185	0x3d8cb5dd	0.06870625
186	0x3d952348	0.0728212
187	0x3d927a47	0.07152229
188	0x3dd033d7	0.10166138
189	0xbd8278f4	-0.06370726
190	0x3dbc3e9b	0.091916285
191	0xbcd87b2d	-0.026425922
192	0xbd99b593	-0.07505336
193	0xbbf4aa74	-0.0074666087
194	0xbdb8b5f3	-0.09019079
195	0xbd4be2e8	-0.04977694
196	0x3db59e4d	0.08868084
197	0x3c5c0712	0.01342942
198	0xbdbf756c	-0.09348568
199	0x3d2dbf91	0.04241902
200	0xbd033d12	-0.032040663
201	0xbdb14f14	-0.08657661
202	0xbdad3ea5	-0.08459214
203	0x3dd0dabd	0.10197971
204	0x3dc6335c	0.09677765
205	0xbd9ab354	-0.075537354
206	0xbdb8f35a	-0.090307906
207	0x3cd1a846	0.025592934
208	0x3d5e932f	0.054339584
209	0xbc99807c	-0.018738024
210	0xbd8d0459	-0.06885595
211	0xbd919c84	-0.07109931
212	0xbd5fb195	-0.054612715
213	0xbc365f6c	-0.011131149
214	0x3d50753d	0.050893057
215	0x3c4112fc	0.011784311
216	0xbcf2ce83	-0.029639488
217	0xbbbf13df	-0.0058312262
218	0x3cab48db	0.020908764
219	0x3c914eb7	0.01773773
220	0xbdac354f	-0.08408605
221	0x3cf10691	0.029422076
222	0x3d6e52e9	0.058184538
223	0x3c8d3d54	0.017241158
224	0x3cae7d60	0.021300018
225	0x3b883537	0.0041567343
226	0x3d0129db	0.031534057
227	0xbd5c16fa	-0.05373285
228	0xbc5cdbae	-0.01348011
229	0xbdb019b1	-0.0859865
230	0xbcd47b40	-0.025937676
231	0x3d1d6aa9	0.038431797
232	0x3d683931	0.056695167
233	0xbd6fcda1	-0.058545712
234	0xbd16d5c1	-0.036824945
235	0x3c8a0024	0.01684577
236	0x3dd18581	0.10230542
237	0xbb14def2	-0.0022715894
238	0xbcf37365	-0.02971811
239	0x3d178ec9	0.037001405
240	0xbd9351bf	-0.07193326
241	0xbc550172	-0.013000833
242	0xbcde3c1f	-0.027128277
243	0xbd115738	-0.03548357
244	0xbd186d90	-0.037213862
245	0x3da662a8	0.08124286
246	0xbd633b9a	-0.055476762
247	0xbd6a5a45	-0.057214994
248	0x3c896115	0.016769925
249	0xbcb19034	-0.021675207
250	0x3dcc2467	0.09967881
251	0x3d04b76f	0.0324015
252	0xbd839d6a	-0.06426509
253	0xbdb9fc02	-0.0908127
254	0xbc57d4b6	-0.013173273
255	0xbc247c36	-0.01003938

fc1.bias f4 [96]
0	0x3d17d770	0.03707069
1	0x3e37f98e	0.17966291
2	0xbe25f6db	-0.16207449
3	0x3e493bfe	0.19651791
4	0xbe029500	-0.12752151
5	0xbe3607c4	-0.177764
6	0xbe2a56b0	-0.16634631
7	0x3e2103be	0.15724084
8	0x3df86ff0	0.121307254
9	0xbc101780	-0.008794665
10	0x3e11b72a	0.14230028
11	0x3e22352a	0.15840593
12	0xbdc11cff	-0.09429359
13	0xbd3e9874	-0.04653211
14	0x3e4cc9ce	0.19998857
15	0x3d6187c8	0.05506113
16	0xbd3932cc	-0.04521446
17	0x3cdffbd0	0.027341753
18	0xbd48021e	-0.048830144
19	0xbe12939a	-0.14314118
20	0xbd96aff4	-0.07357779
21	0x3ce197f8	0.027538285
22	0x3e243b80	0.16038322
23	0x3d8c0354	0.06836572
24	0xbcefcf6b	-0.02927371
25	0xbd40fc44	-0.04711558
26	0xbdba513f	-0.09097528
27	0xbe1d1494	-0.15339881
28	0x3d912174	0.07086459
29	0x3dff2d28	0.12459785
30	0xbcae0d70	-0.021246642
31	0xbdddc309	-0.10828216
32	0xbd676854	-0.05649598
33	0x3b78f4bc	0.003798767
34	0x3e0c9828	0.13729918
35	0xbe46daa5	-0.19419344
36	0x3ddd7760	0.108137846
37	0xbe31a229	-0.17347015
38	0xbdb0b03e	-0.086273655
39	0xbe19943b	-0.14997952
40	0x3e02bcb4	0.12767297
41	0x3d1ca79c	0.038245782
42	0x3e21dee2	0.1580768
43	0xbb3de2db	-0.0028974328
44	0xbd02dbe8	-0.031948
45	0xbe4f94ca	-0.20271602
46	0x3dbcb5fc	0.09214398
47	0x3d14345c	0.036182746
48	0x3e11fb62	0.14256051
49	0x3d8341bc	0.06409022
50	0xbda8e22f	-0.08246266
51	0xbdfca50f	-0.1233617
52	0xbdc9c92a	-0.09852822
53	0x3de64bbc	0.11244914
54	0xbd0549a0	-0.032540917
55	0x3dc70c2c	0.097191185
56	0x3dd60978	0.10451025
57	0xbe0e95e0	-0.1392436
58	0x3d90e950	0.07075751
59	0xbd2a8e1c	-0.041639432
60	0x3d97fc20	0.07421136
61	0x3dfe17c8	0.1240688
62	0xbe1f9548	-0.1558429
63	0x3e2218e0	0.15829802
64	0xbdefc102	-0.11706735
65	0xbe4d60d3	-0.20056467
66	0xbe484462	-0.19557336
67	0xbe0d648c	-0.13807887
68	0x3df120a8	0.11773807
69	0xbe061808	-0.13095105
70	0xbde14ad8	-0.110006034
71	0xbe3aeafb	-0.182537
72	0xbe0d6cd8	-0.13811052
73	0xbe3a5cee	-0.18199512
74	0x3d8e7c24	0.06957272
75	0x3b9458e9	0.0045272005
76	0x3e40481e	0.1877751
77	0xbd56263c	-0.052282557
78	0xbde0911e	-0.10965179
79	0xbd5825c4	-0.05277039
80	0xbe2c5d6a	-0.1683251
81	0x3e1b07a2	0.1513963
82	0xbdad6ff0	-0.08468616
83	0x3bef59df	0.0073044146
84	0xbd9382ac	-0.07202658
85	0xbe339a79	-0.17539395
86	0x3e1939a6	0.14963397
87	0x3e3d275e	0.18472049
88	0x3d380280	0.04492426
89	0xbcf613f8	-0.030038819
90	0x3e4f383a	0.20236292
91	0x3db8f928	0.09031898
92	0x3dd35254	0.10318437
93	0x3d2654fc	0.04060839
94	0x3e3d192a	0.1846663
95	0xbdf3c4bc	-0.119027585

bn1.weight f4 [96]
0	0x3f2bb980	0.67079926
1	0x3f4f7bce	0.81048286
2	0x3e70cbb1	0.23515202
3	0x3e45d2fe	0.19318768
4	0x3e9b063c	0.30278194
5	0x3ebbd45e	0.3668546
6	0x3f572b3d	0.8405035
7	0x3f69b7a4	0.9129584
8	0x3db39e88	0.08770472
9	0x3e13be7d	0.14428134
10	0x3e2f1aa1	0.17100002
11	0x3e73594f	0.23764537
12	0x3f243414	0.64141965
13	0x3f513461	0.8172055
14	0x3ed6741f	0.41885468
15	0x3ebf7d53	0.37400302
16	0x3ef6d7c2	0.48211485
17	0x3ee7882c	0.45221078
18	0x3f77c6f1	0.96787935
19	0x3f55bca0	0.83490944
20	0x3edd1cea	0.43186122
21	0x3e5b0af9	0.21390904
22	0x3e9036a5	0.2816669
23	0x3ed26f71	0.41100648
24	0x3f792c94	0.97333646
25	0x3b823ebc	0.0039747637
26	0x3f246b66	0.64226377
27	0x3d9ec72e	0.07752834
28	0x3de7c859	0.1131751
29	0x3f21898c	0.63100505
30	0x3dfedebb	0.12444826
31	0x3f161d54	0.586385
32	0x3f363134	0.7116883
33	0x3f1b7c79	0.60736805
34	0x3d1f2e46	0.03886249
35	0x3f428334	0.7598145
36	0x3f073552	0.52815735
37	0x3ede75a1	0.4344912
38	0x3f631172	0.88698494
39	0x3e74a246	0.23890027
40	0x3f2df4b6	0.67951524
41	0x3eb6d212	0.35707146
42	0x3e5599ef	0.20859502
43	0x3f5195e0	0.81869316
44	0x3eadfb40	0.3398075
45	0x3f2c2681	0.6724625
46	0x3f3f36d3	0.7469303
47	0x3e70daab	0.23520915
48	0x3e8b419c	0.27198493
49	0x3f35fdc5	0.71090347
50	0x3e17e51a	0.14833489
51	0x3efed42f	0.49771258
52	0x3e0ba7ed	0.13638277
53	0x3e9555b8	0.2916696
54	0x3e8af277	0.2713811
55	0x3d6b35c1	0.05742431
56	0x3ed22061	0.41040328
57	0x3f0c7291	0.54862314
58	0x3e031419	0.12800635
59	0x3eb41e78	0.35179496
60	0x3f5edf11	0.8705912
61	0x3d061ff0	0.0327453
62	0x3f2b6568	0.6695161
63	0x3f09e71c	0.5386827
64	0x3f3ac000	0.7294922
65	0x3e1791d9	0.1480173
66	0x3f43897b	0.76381654
67	0x3f26b320	0.65117073
68	0x3f226590	0.6343622
69	0x3f59293d	0.8482855
70	0x3f09e0dc	0.53858733
71	0x3ee95c6a	0.4557832
72	0x3ee4e1f8	0.4470365
73	0x3e1d3641	0.15352727
74	0x3f77126b	0.9651248
75	0x3eb971c7	0.36219618
76	0x3f56c9fb	0.8390195
77	0x3ed7f9ba	0.42182714
78	0x3f4ba002	0.7954103
79	0x3e4ee56e	0.20204708
80	0x3eb3e665	0.35136715
81	0x3f6b78ff	0.919815
82	0x3f28301e	0.6569842
83	0x3f052aa3	0.52018183
84	0x3efc286c	0.4924959
85	0x3f265705	0.6497653
86	0x3e5ec90c	0.21756381
87	0x3e3a2645	0.18178661
88	0x3f18cb36	0.59685075
89	0x3f365e19	0.7123733
90	0x3f00adba	0.50265086
91	0x3f4725e4	0.7779219
92	0x3b1185ff	0.0022205112
93	0x3e2d66f5	0.16933806
94	0x3ed52e88	0.41637063
95	0x3e91b156	0.2845561

bn1.bias f4 [96]
0	0xba80bb8e	-0.0009821521
1	0xbba36a2d	-0.0049870224
2	0xbbdb7fa8	-0.0066985674
3	0xb9bcdfb4	-0.00036024826
4	0x3b8b9e62	0.004260824
5	0xbb4030e3	-0.0029326014
6	0xbb5e55bd	-0.0033925616
7	0xbaa5a90a	-0.0012638879
8	0x3ba16dfd	0.0049264417
9	0xba360c4e	-0.00069445826
10	0x3b5fe8e5	0.0034165916
11	0x3909ea1f	0.00013152555
12	0xbb2eac71	-0.0026653076
13	0xbbc0ee60	-0.0058877915
14	0x3bd0c918	0.0063716285
15	0xbaf23a54	-0.0018480518
16	0x3b03d2de	0.00201147
17	0x3b278fdd	0.0025567927
18	0x3ae42342	0.0017405527
19	0x3b7384c9	0.0037158004
20	0xba356c0c	-0.0006920702
21	0x3a2527a4	0.00063001574
22	0x3b28312b	0.0025664072
23	0xba9319d4	-0.0011222907
24	0x3b82ee58	0.003995698
25	0xbb903124	-0.0044003893
26	0xbbf5f83c	-0.0075063985
27	0x3b5786f8	0.0032886844
28	0xbb8d1b0e	-0.0043062037
29	0xbaef0fde	-0.0018238982
30	0x3bcd4e82	0.0062654624
31	0xbb9b40bf	-0.004737943
32	0x3bd35943	0.00644985
33	0xbb348405	-0.002754451
34	0xbbb21319	-0.0054344055
35	0xb9cd687c	-0.00039178494
36	0xbadd7932	-0.0016897081
37	0x39d2054b	0.00040058265
38	0x3a0fb775	0.00054823543
39	0x3b665be3	0.0035149984
40	0xba8e31fc	-0.0010848637
41	0xbb4f8139	-0.0031662716
42	0xbb9d366c	-0.0047977474
43	0x3b97e4f0	0.004635446
44	0x3ba4871f	0.0050209905
45	0xbbae5f02	-0.0053213844
46	0xbb41f663	-0.002959632
47	0xba1397b1	-0.0005630209
48	0x3bf991a3	0.007616238
49	0xbbfbd980	-0.00768584
50	0x3be8efe3	0.007108675
51	0x3a9ce74c	0.0011970787
52	0xb9dd0ba2	-0.00042161072
53	0x3ae6392c	0.0017564646
54	0x3b4e99e8	0.003152484
55	0x3a1d9650	0.0006011473
56	0x3b7cb1c1	0.0038558098
57	0x3a661fd0	0.0008778544
58	0xb947311b	-0.00018996412
59	0x3bdcdaa9	0.0067399335
60	0xbbc7fb17	-0.0061029303
61	0xbbdf1ca2	-0.006808833
62	0x3750f3e8	1.2454555e-05
63	0x3a20c7a0	0.0006133262
64	0x3b8ff4d9	0.004393202
65	0x3b2cca68	0.002636576
66	0xbb88351f	-0.004156723
67	0x3bce7e73	0.006301695
68	0x3baa8349	0.0052036387
69	0x3b046cfa	0.0020206557
70	0x3ad95c4f	0.0016583296
71	0x3b163206	0.0022918
72	0x3b6f69e5	0.0036531624
73	0xbbb965d4	-0.005657891
74	0xbbb813f1	-0.0056176116
75	0x3b89860b	0.0041968874
76	0xbb6fa484	-0.0036566565
77	0x3bebf69f	0.0072010304
78	0x3a4c3140	0.0007789321
79	0x3bcac140	0.006187588
80	0x3bfef577	0.0077807265
81	0xbb9a8032	-0.004714989
82	0xbb55712e	-0.003256868
83	0x3b8f0a2a	0.0043652253
84	0xbbd55226	-0.006510037
85	0x3bb2742f	0.005445979
86	0xbb748a29	-0.0037313795
87	0xbbbd22b8	-0.005771961
88	0x3abfdf32	0.0014638661
89	0x3b25ebb1	0.0025317485
90	0xba455e3f	-0.00075289974
91	0x3aaf0041	0.0013351516
92	0x3aec10d8	0.0018010391
93	0xbba73605	-0.005102875
94	0xbb26cd03	-0.0025451786
95	0x3ba668dc	0.005078418

bn1.running_mean f4 [96]
0	0x3d17bf14	0.03704746
1	0x3e37dc0a	0.17955032
2	0xbe25dc3b	-0.16197293
3	0x3e491bb6	0.19639477
4	0xbe02800e	-0.12744161
5	0xbe35ea92	-0.17765263
6	0xbe2a3b5d	-0.16624208
7	0x3e20e9ea	0.15714231
8	0x3df84817	0.12123125
9	0xbc100063	-0.008789155
10	0x3e119fcb	0.14221112
11	0x3e221b24	0.15830666
12	0xbdc0fe06	-0.09423451
13	0xbd3e79e2	-0.046502955
14	0x3e4ca8f4	0.19986326
15	0x3d61639c	0.055026636
16	0xbd391518	-0.045186132
17	0x3cdfd7e2	0.02732462
18	0xbd47e209	-0.04879955
19	0xbe127c17	-0.14305149
20	0xbd9697c8	-0.07353169
21	0x3ce173ca	0.027521033
22	0x3e242128	0.16028273
23	0x3d8becdf	0.06832289
24	0xbcefa8f0	-0.02925536
25	0xbd40dd50	-0.04708606
26	0xbdba335c	-0.09091827
27	0xbe1cfb62	-0.1533027
28	0x3d910a2c	0.07082018
29	0x3dff0439	0.12451977
30	0xbcadf184	-0.021233328
31	0xbddd9f77	-0.10821431
32	0xbd674335	-0.056460578
33	0x3b78ccc5	0.003796385
34	0x3e0c819b	0.13721316
35	0xbe46babf	-0.19407175
36	0x3ddd53da	0.10807009
37	0xbe3185aa	-0.17336145
38	0xbdb093e7	-0.0862196
39	0xbe197b99	-0.14988555
40	0x3e02a7bc	0.12759298
41	0x3d1c8e7b	0.038221817
42	0x3e21c4ec	0.15797776
43	0xbb3dc497	-0.0028956288
44	0xbd02c6ea	-0.03192798
45	0xbe4f737d	-0.20258899
46	0x3dbc97b7	0.09208625
47	0x3d141c97	0.036160078
48	0x3e11e3f6	0.14247116
49	0x3d832cad	0.064050056
50	0xbda8c718	-0.08241099
51	0xbdfc7c89	-0.12328441
52	0xbdc9a8cc	-0.098466486
53	0x3de626cc	0.11237869
54	0xbd05343e	-0.032520525
55	0x3dc6ec3f	0.09713029
56	0x3dd5e724	0.10444477
57	0xbe0e7f01	-0.13915636
58	0x3d90d212	0.07071318
59	0xbd2a72c0	-0.04161334
60	0x3d97e3be	0.07416485
61	0x3dfdef04	0.12399104
62	0xbe1f7bae	-0.15574524
63	0x3e21fee0	0.15819883
64	0xbdef9a8d	-0.116994
65	0xbe4d3fe1	-0.20043899
66	0xbe482442	-0.19545081
67	0xbe0d4dde	-0.13799235
68	0x3df0f9fa	0.11766429
69	0xbe060285	-0.13086899
70	0xbde126b5	-0.10993711
71	0xbe3acd00	-0.18242264
72	0xbe0d5628	-0.13802397
73	0xbe3a3f0b	-0.18188111
74	0x3d8e6548	0.069529116
75	0x3b944118	0.0045243613
76	0x3e402946	0.18765745
77	0xbd5603e3	-0.0522498
78	0xbde06d19	-0.10958309
79	0xbd580318	-0.052737325
80	0xbe2c41c5	-0.16821964
81	0x3e1aeec4	0.15130144
82	0xbdad541e	-0.0846331
83	0x3bef338b	0.0072998456
84	0xbd936b03	-0.07198145
85	0xbe337daa	-0.17528406
86	0x3e192112	0.14954022
87	0x3e3d0906	0.18460473
88	0x3d37e4fc	0.04489611
89	0xbcf5ec7f	-0.030019997
90	0x3e4f16fc	0.20223612
91	0x3db8db7d	0.09026239
92	0x3dd3306e	0.103119716
93	0x3d263a4e	0.040582947
94	0x3e3cfad5	0.1845506
95	0xbdf39da2	-0.118953004

bn1.running_var f4 [96]
0	0x3c58e514	0.01323821
1	0x3bb2d50c	0.005457526
2	0x3bf8511c	0.0075780284
3	0x3cd4b59d	0.025965506
4	0x3c0684b8	0.008210354
5	0x3c7518f1	0.01495956
6	0x3d23d81b	0.040001016
7	0x3c8519c7	0.016247643
8	0x3d362749	0.04447106
9	0x3bf00c16	0.0073256595
10	0x3cd09430	0.025461286
11	0x3c5a24a1	0.013314397
12	0x3ca822b4	0.02052436
13	0x3c715ae5	0.014731144
14	0x3c8b41ef	0.016999213
15	0x3ba7ad69	0.0051171076
16	0x3d161c00	0.036647797
17	0x3c9f5c78	0.019453272
18	0x3c7b479a	0.015336895
19	0x3cc799e6	0.024365377
20	0x3cf61282	0.030038122
21	0x3bd42c53	0.0064750104
22	0x3c633b80	0.013869166
23	0x3ca02577	0.019549115
24	0x3c540fa6	0.012943184
25	0x3c93c726	0.018039297
26	0x3c31601c	0.010826137
27	0x3c881dbd	0.016615743
28	0x3c467702	0.012113335
29	0x3cdb7e85	0.026793728
30	0x3c22db5c	0.009939995
31	0x3c3b855f	0.011445372
32	0x3c87c490	0.01657322
33	0x3c676c7f	0.014124989
34	0x3d0c85ef	0.034307417
35	0x3cc9bbfd	0.024625773
36	0x3bea5131	0.007150792
37	0x3cbe6b85	0.023244629
38	0x3c296c87	0.010340816
39	0x3c0c0eaa	0.008548418
40	0x3ce5a280	0.028031588
41	0x3d2df95f	0.042474147
42	0x3d186c66	0.03721275
43	0x3c504aaf	0.012713118
44	0x3ba4f7b1	0.00503441
45	0x3cd9083c	0.026493184
46	0x3c1130e3	0.008861753
47	0x3c97aa50	0.018513829
48	0x3d19b235	0.037523467
49	0x3d69b7b3	0.057059955
50	0x3cfd7f9c	0.030944638
51	0x3c1218c2	0.008917036
52	0x3cf370a1	0.029716792
53	0x3c310c75	0.010806193
54	0x3cabc93c	0.02096998
55	0x3c84ce5f	0.016211687
56	0x3ce1742b	0.027521214
57	0x3c478a09	0.012178906
58	0x3d4c731d	0.049914468
59	0x3c006d81	0.007838608
60	0x3c01fe16	0.007934114
61	0x3c7a1eb0	0.0152661055
62	0x3c682453	0.014168817
63	0x3c2cda0f	0.010550036
64	0x3c19af97	0.009380243
65	0x3cd87048	0.026420727
66	0x3b87cfd6	0.004144649
67	0x3c0cca5e	0.00859317
68	0x3bbf3a0b	0.0058357767
69	0x3c5423d5	0.012947996
70	0x3c348b85	0.011019592
71	0x3c79e116	0.015251419
72	0x3d006bdb	0.03135286
73	0x3b69a17f	0.0035649238
74	0x3d4d2218	0.050081342
75	0x3ccda71f	0.025104104
76	0x3c190698	0.009339951
77	0x3d8849e2	0.06654717
78	0x3c669f1a	0.014076019
79	0x3c2b94b4	0.010472465
80	0x3cf9fd8e	0.030516412
81	0x3cabd12a	0.02097376
82	0x3d09a455	0.033603985
83	0x3bb04f3c	0.005380539
84	0x3c0060d0	0.007835582
85	0x3d4c1cdb	0.049832206
86	0x3c3b4be9	0.011431673
87	0x3cae8529	0.02130373
88	0x3c8669f4	0.016407944
89	0x3cc5d2f8	0.02414845
90	0x3cc36688	0.023852602
91	0x3cd22efb	0.025657168
92	0x3bc8b0fd	0.0061246143
93	0x3b8712b3	0.004122102
94	0x3bf7fcf8	0.007567998
95	0x3ce0ba25	0.02743251

fc2.weight f4 [96, 96]
0	0x3d34f2ac	0.044176742
1	0x3c481d2f	0.012213989
2	0x3d526d4e	0.051373772
3	0xbdb0ef72	-0.086394206
4	0x3d83d9ed	0.064380504
5	0x3da1898d	0.07887564
6	0x3d6504fa	0.05591295
7	0x3d4c0e0c	0.049818084
8	0xbd2e2f28	-0.04252544
9	0xbdb1130d	-0.08646212
10	0x3cadb181	0.021202805
11	0x3d5a5ff0	0.05331415
12	0x3d0f4b34	0.03498383
13	0xbd821748	-0.06352097
14	0x3dcfc873	0.101456545
15	0xbc1f1f50	-0.009712055
16	0x3d89f0a8	0.06735355
17	0xbca30267	-0.019898606
18	0x3d7f60c1	0.06234813
19	0xbdbbdf38	-0.09173435
20	0x3c88e103	0.016708856
21	0xbd4c7618	-0.04991731
22	0xbd79d808	-0.06099704
23	0x3d2c5ef9	0.04208276
24	0x3d34315a	0.043992378
25	0x3d809a45	0.062794246
26	0x3b5db208	0.0033828039
27	0xbd837281	-0.06418324
28	0xbda81ff5	-0.0820922
29	0xbc93bccf	-0.018034367
30	0x3da6b256	0.08139484
31	0x3d1664f9	0.03671739
32	0x3dbb4a3b	0.09145018
33	0xbcd82e76	-0.026389342
34	0x3d840456	0.064461395
35	0xbca69030	-0.020332426
36	0x3c425b31	0.011862562
37	0xbd81500f	-0.06314098
38	0xbda8fffe	-0.08251952
39	0x3cc0360f	0.023463277
40	0x3bbf20c5	0.005832764
41	0x3cf95d22	0.030439917
42	0x3d0ab210	0.03386122
43	0x3d962f58	0.07333249
44	0xbd34852a	-0.044072308
45	0x3db308fe	0.087419495
46	0x3caae9d1	0.020863445
47	0xbdb5cbbd	-0.088767506
48	0x3d5d98c6	0.054100774
49	0xbc9e2712	-0.01930574
50	0x3c905407	0.017618192
51	0xbb63384c	-0.0034671007
52	0x3cb3ca3a	0.021947015
53	0x3c0e70be	0.008693872
54	0xbd52efaa	-0.051498093
55	0xbb934fb1	-0.004495584
56	0xbcee69c5	-0.02910317
57	0x3dcbe17f	0.09955119
58	0xbd50c433	-0.05096836
59	0x3da13b91	0.078726895
60	0x3cac8b31	0.021062465
61	0xbdb7aa73	-0.089680575
62	0x3dd35b66	0.10320167
63	0xbd94a368	-0.0725773
64	0xbd05dcf0	-0.032681406
65	0xbdacb095	-0.08432118
66	0x3d94757e	0.07248972
67	0x3ce883fc	0.028383248
68	0xb9839952	-0.000251005
69	0x3d04d0aa	0.03242556
70	0xbc03d691	-0.008046762
71	0x3d893e37	0.0670132
72	0xbc4fd344	-0.012684647
73	0xbdb67fb3	-0.089110754
74	0xbbfeec61	-0.0077796434
75	0xbd0a58fe	-0.033776276
76	0x3c81cee3	0.015845722
77	0xbd167232	-0.03673
78	0x3d357d7d	0.044309128
79	0xbd0af1df	-0.033922072
80	0x3d0201db	0.03174005
81	0xbdbc7765	-0.0920246
82	0xbd8777bd	-0.06614635
83	0x3d414c40	0.04719186
84	0x3da7ea07	0.08198934
85	0xbcd3e629	-0.025866585
86	0xbc8c2763	-0.017108625
87	0x3dca4be3	0.098777555
88	0xbd9fde1c	-0.07806036
89	0xbd8a830f	-0.06763279
90	0x3c156074	0.0091172345
91	0x3d9ce012	0.076599255
92	0xbda4924d	-0.08035717
93	0x3c635ca3	0.013877067
94	0x3d3e6b1f	0.046488877
95	0xbb31c4cf	-0.0027125364
96	0xbdbaacec	-0.091150135
97	0x3d499b8d	0.04922061
98	0xbcfc8b51	-0.03082815
99	0xbdc6bd63	-0.097040914
100	0x3d678bd2	0.056529827
101	0x3d646260	0.05575788
102	0xbd6d22bc	-0.057894453
103	0xbdb71a84	-0.08940604
104	0x3b2ac674	0.0026058229
105	0x3bf9c4b8	0.0076223277
106	0xbd30cbd5	-0.04316314
107	0x3d11709e	0.03550779
108	0xbdb5adee	-0.08871065
109	0x3d99b509	0.07505233
110	0x3cf8e223	0.030381268
111	0xbda33898	-0.07969779
112	0x3d6cffb9	0.057861064
113	0xbc91f87e	-0.017818686
114	0xbdc9bf92	-0.09850992
115	0x3d5a4476	0.053287946
116	0xbc03d60f	-0.008046641
117	0xbcc8968e	-0.024485853
118	0xbd41fad0	-0.047358334
119	0xbd75138f	-0.059833106
120	0xbd24635f	-0.04013383
121	0xbd0e59c8	-0.03475359
122	0x3ce8a86d	0.028400624
123	0x3ca98b33	0.020696258
124	0x3d1916eb	0.037375372
125	0xbc741b40	-0.014899075
126	0x3c2ed546	0.010670966
127	0xbd89bbf5	-0.06725303
128	0xbdbd3302	-0.092382446
129	0xbd2371c4	-0.039903417
130	0xbd8419ba	-0.064502195
131	0xbd8461f7	-0.06463998
132	0x3d313026	0.04325881
133	0xbd8fae89	-0.07015712
134	0xbce1eefc	-0.027579777
135	0xbd15aa8f	-0.03653961
136	0x3d4710ba	0.048599936
137	0xbbf76308	-0.0075496472
138	0x3cd6f377	0.02623914
139	0x3d9de6da	0.07710047
140	0xbd2fa609	-0.042882953
141	0x3c5c526d	0.013447386
142	0x3d142ee1	0.03617752
143	0xbcf3b749	-0.029750483
144	0x3ce70fb9	0.02820574
145	0x3d4700f6	0.0485849
146	0x3d27d522	0.040974744
147	0x3d57af8d	0.052657653
148	0x3d19c864	0.037544623
149	0x3db2ca67	0.087300114
150	0xbcbe7cfe	-0.02325296
151	0xbd8fa74f	-0.070143335
152	0x3a5ce9e6	0.00084271876
153	0xbdc0e2d3	-0.09418263
154	0x3d1d30c3	0.03837658
155	0xbdc138d4	-0.09434667
156	0x3da22398	0.07916945
157	0xbcad7262	-0.021172706
158	0xbdc9baa8	-0.09850055
159	0xbd0ed25c	-0.034868583
160	0xbc27e01f	-0.010246306
161	0xbc4afbf5	-0.012389173
162	0x3d9ef3be	0.07761334
163	0x3dc98e3d	0.09841583
164	0xbd7da65f	-0.061926242
165	0x3d9ce15d	0.07660172
166	0x3dc643f7	0.09680932
167	0xbdaccc6b	-0.08437427
168	0x3beb849c	0.007187439
169	0xbdbbe0b5	-0.09173719
170	0xbdc3e250	-0.0956465
171	0x3d125cc1	0.03573299
172	0xbcb9b72d	-0.022670353
173	0xbd5b0c60	-0.0534786
174	0x3d6d9a08	0.058008224
175	0x3dbe2cf6	0.09285919
176	0x3d8f23c7	0.06989246
177	0x3cadd0d0	0.021217734
178	0xbdcc5891	-0.0997783
179	0xbd3db3b3	-0.046313953
180	0xbdb75b12	-0.08952917
181	0x3dc07033	0.093964
182	0xbd8a78bd	-0.0676131
183	0xbd913a33	-0.07091179
184	0x3c8b0720	0.01697117
185	0xbd9be850	-0.076126695
186	0xbd427e45	-0.0474837
187	0xbdc4d50e	-0.096109495
188	0xbd623e75	-0.055235345
189	0xbd95d3ad	-0.073157646
190	0xbd2ab0c9	-0.0416725
191	0x3d1a362f	0.03764933
192	0x3d8de459	0.069283195
193	0x3d82e0a4	0.06390503
194	0x3daf2392	0.085517064
195	0xbd60f162	-0.0549177
196	0xbd922844	-0.07136586
197	0xbcf1d5fc	-0.029520981
198	0x3dc1e9bc	0.094684094
199	0xbd1de48f	-0.03854805
200	0x3d811615	0.0630304
201	0xbdc2eed4	-0.09518209
202	0x3d81ecb5	0.063439764
203	0xbda3cdee	-0.07998262
204	0xbd2e18f3	-0.042504262
205	0xbbfa46bf	-0.007637828
206	0x3d08525d	0.033281673
207	0xbcfae778	-0.030627951
208	0x3c9903fe	0.018678661
209	0x3d44e7cc	0.04807262
210	0x3d5f7e9f	0.054564115
211	0x3dc17eed	0.09448037
212	0x3cdc63c2	0.026903037
213	0x3dc69020	0.096954584
214	0xbccf8e2d	-0.02533635
215	0x3d280c91	0.04102761
216	0xbd28b41b	-0.041187387
217	0xbdbdb980	-0.09263897
218	0xbce40cf3	-0.027838206
219	0x3af09513	0.0018354974
220	0xbd62bd2d	-0.055356193
221	0x3d2bf3a6	0.041980408
222	0x3ce00ee2	0.027350847
223	0x3d470e8f	0.04859787
224	0x3d01ff8e	0.031737857
225	0x3c8961aa	0.016770203
226	0xbd8e1c7e	-0.06939028
227	0xbdb640e6	-0.08899097
228	0x3dc23caa	0.09484227
229	0xbd7dacad	-0.061932255
230	0xbd111ade	-0.035426013
231	0xbdbbb422	-0.09165217
232	0x3c9627ac	0.018329464
233	0x3dc4f6d9	0.09617395
234	0xbd81f596	-0.0634567
235	0x3daf0b91	0.08547128
236	0xbda62241	-0.08112002
237	0xbd5b987e	-0.053612225
238	0x3d0fc57d	0.03510045
239	0xbd1fbb22	-0.038996823
240	0xbd751f8a	-0.05984453
241	0x3dc1d448	0.094643176
242	0x3d2903d7	0.041263428
243	0x3c686bfb	0.014185901
244	0x3d617c54	0.05505021
245	0x3dc5aa92	0.09651674
246	0xbc69be90	-0.014266625
247	0x3c99576f	0.01871845
248	0xbc7bb7fe	-0.015363691
249	0xbc23f6bb	-0.010007556
250	0xbb5c55ce	-0.003362048
251	0xbdc3013a	-0.09521718
252	0x3d914554	0.070933014
253	0x3d334ded	0.043775488
254	0x3dc77bac	0.097403854
255	0x3d883b8a	0.06651981

fc2.bias f4 [96]
0	0x3cb44288	0.02200438
1	0x39c9f1df	0.00038517916
2	0x3d1c85e0	0.03821361
3	0x3d4d53c4	0.050128713
4	0x3b9ae9c0	0.004727572
5	0xbd943840	-0.07237291
6	0x3c814434	0.015779592
7	0xbda111dc	-0.078647345
8	0xbdacc185	-0.084353484
9	0x3ca02e30	0.019553274
10	0x3d074a74	0.03302999
11	0xbca200f8	-0.019775853
12	0xbd45b7c9	-0.048270974
13	0x3dada500	0.08478737
14	0xbc5d3201	-0.013500691
15	0x3ccfeff0	0.025382966
16	0xba8eca42	-0.0010894018
17	0xbdbbf18e	-0.09176932
18	0xbdbd64af	-0.092477195
19	0xbd999fb2	-0.075011626
20	0xb9f263f2	-0.00046232302
21	0x3db36d74	0.08761111
22	0x3da1eff6	0.07907097
23	0xbd8ad8d4	-0.06779638
24	0xbdb5a2fe	-0.08868979
25	0x3d46e488	0.048557788
26	0xbdaaf516	-0.08347528
27	0x3c0ff978	0.008787505
28	0x3d5a3b58	0.05327925
29	0xbd224ccc	-0.03962402
30	0x3d9e2d88	0.07723528
31	0x3db943da	0.09046145
32	0xbd5590e2	-0.052140124
33	0xbc938bf5	-0.018011073
34	0xbd8bd5c6	-0.068278834
35	0x3db05c58	0.08611363
36	0xbdc17e7d	-0.09447954
37	0x3da5c240	0.08093691
38	0x3b82ae70	0.0039880797
39	0xbd373983	-0.04473258
40	0xbd30e730	-0.043189228
41	0xbd737bf7	-0.059444394
42	0x3c5cbb08	0.013472326
43	0xbd8f5b16	-0.06999795
44	0xbae025a0	-0.0017101057
45	0x3d34d558	0.044148773
46	0xbdbac812	-0.09120192
47	0xbd806dfc	-0.06270978
48	0xbd56017e	-0.052247517
49	0xbd78c3c3	-0.060733568
50	0xbce084e4	-0.027407117
51	0xbd158464	-0.03650321
52	0x3d918702	0.07105829
53	0xbd3d8103	-0.046265613
54	0x3d8908f2	0.06691159
55	0xbd7ed3f9	-0.06221387
56	0x3d9e0ac2	0.07716896
57	0x3dc7ba1a	0.09752293
58	0xbd85707a	-0.06515594
59	0xbc803ea2	-0.015654866
60	0x3c183ac8	0.009291358
61	0x3c488623	0.012239012
62	0xbd850024	-0.064941674
63	0x3d8d7108	0.069063246
64	0x3d6b7d34	0.05749245
65	0xbcd504f8	-0.026003346
66	0xbda5dda8	-0.08098918
67	0xbd904f83	-0.07046416
68	0xbda4ec60	-0.080528975
69	0xbd6d896a	-0.057992376
70	0x3dd08c18	0.10182971
71	0xbd441cf9	-0.047879193
72	0xbdbee010	-0.0932008
73	0xbd31fe88	-0.04345563
74	0xbda750df	-0.08169722
75	0xbd0f5f5c	-0.03500305
76	0x3cbeae70	0.023276538
77	0xbd0bc2e2	-0.0341214
78	0xbdb9a31c	-0.09064314
79	0xbdb323ba	-0.08747049
80	0xbda2332a	-0.07919915
81	0xbdcee0cf	-0.101014726
82	0x3dc7fe0c	0.097652525
83	0xbdc411e6	-0.09573726
84	0xbc1e9ea0	-0.009681374
85	0xbdbeca09	-0.09315879
86	0x3d8c60fc	0.06854436
87	0xbc5d30d0	-0.013500407
88	0xbda3cfb8	-0.079986036
89	0xbd878d8f	-0.06618797
90	0xbdbfbff3	-0.09362783
91	0x3d12f8f8	0.035881966
92	0xbacabc94	-0.0015467578
93	0x3da355b0	0.07975328
94	0x3d5fc88c	0.054634616
95	0xbcd76f70	-0.026298255

bn2.weight f4 [96]
0	0x3cf03d80	0.0293262
1	0x3f5e7a78	0.8690562
2	0x3f32ef9f	0.6989688
3	0x3cc47acf	0.023984341
4	0x3dd270e9	0.10275442
5	0x3f7146f8	0.94248915
6	0x3d455907	0.048180606
7	0x3f7fa282	0.9985734
8	0x3f0ede3a	0.5580784
9	0x3ea91aac	0.33028162
10	0x3e76ab8d	0.24088879
11	0x3df0a29a	0.11749764
12	0x3db221df	0.08697867
13	0x3efc58ff	0.4928665
14	0x3f1c4030	0.6103544
15	0x3f735fe5	0.950682
16	0x3ee17585	0.44034973
17	0x3f1e1b65	0.6176055
18	0x3e7847c4	0.24246126
19	0x3edb9e9a	0.4289444
20	0x3dcf8dbf	0.10134458
21	0x3f7239ac	0.9461925
22	0x3ec2918f	0.38001677
23	0x3f2d0bcf	0.67596143
24	0x3ea9c041	0.3315449
25	0x3e835580	0.2565117
26	0x3f427702	0.7596284
27	0x3d25cecb	0.040480416
28	0x3f6f3ae5	0.9344924
29	0x3ef91b60	0.48653698
30	0x3d0364e4	0.03207864
31	0x3dce19f7	0.10063546
32	0x3f33cb24	0.70231843
33	0x3f34780c	0.70495677
34	0x3f30cbcd	0.69060975
35	0x3f33cafd	0.7023161
36	0x3e766a9e	0.24064109
37	0x3f45aab0	0.77213573
38	0x3f54dbee	0.83148086
39	0x3f21625e	0.6304072
40	0x3ea0bd52	0.3139444
41	0x3f53fd80	0.82808685
42	0x3f63bc4b	0.8895919
43	0x3bd309c8	0.006440375
44	0x3e6762c6	0.22596273
45	0x3f74e2ef	0.95658773
46	0x3f113ae9	0.56730515
47	0x3e99855b	0.29984555
48	0x3e4461d6	0.19177946
49	0x3f70cde7	0.9406418
50	0x3d952579	0.07282538
51	0x3e82ddfa	0.2555998
52	0x3f25ef0f	0.648179
53	0x3e1ea2eb	0.15491836
54	0x3f6171f6	0.88064516
55	0x3e8e73f6	0.27822846
56	0x3e2b7e58	0.16747415
57	0x3f476966	0.778952
58	0x3f722693	0.9459011
59	0x3f267bbf	0.6503257
60	0x3e9a0209	0.30079678
61	0x3f6b539c	0.9192445
62	0x3ef9db18	0.48799968
63	0x3f7a901b	0.9787614
64	0x3eac9584	0.3370782
65	0x3f0bdb23	0.5463125
66	0x3ec01046	0.37512416
67	0x3de160da	0.11004801
68	0x3e2ea2b4	0.17054254
69	0x3f150d62	0.58223546
70	0x3eac4b91	0.33651403
71	0x3e41c2ea	0.1892201
72	0x3f125510	0.57161045
73	0x3f7ced36	0.98799455
74	0x3e9556b7	0.2916772
75	0x3f445eab	0.7670695
76	0x3f4d7195	0.8025144
77	0x3ea4ea71	0.32210115
78	0x3f6a87b4	0.91613317
79	0x3e77145a	0.24128857
80	0x3f0643cf	0.5244722
81	0x3eb256ca	0.3483184
82	0x3dd4c753	0.103895806
83	0x3effee23	0.4998637
84	0x3e4b1699	0.19832839
85	0x3ec48105	0.38379684
86	0x3f264d1c	0.6496141
87	0x3dad2b2b	0.08455499
88	0x3f5fce53	0.874242
89	0x3f43d421	0.7649556
90	0x3dc35af0	0.09538829
91	0x3e343a6c	0.17600411
92	0x3ea24a55	0.31697336
93	0x3c00123d	0.007816848
94	0x3f2a20d9	0.6645637
95	0x3f4a4d77	0.7902445

bn2.bias f4 [96]
0	0x3bd0c92a	0.006371637
1	0x3b37c568	0.0028041247
2	0x3bb3cedf	0.0054873074
3	0x3b8fec87	0.00439221
4	0x38a6ee0e	7.959838e-05
5	0x3b2710cb	0.0025492187
6	0x3983d066	0.00025141536
7	0x3be1f58c	0.0068957265
8	0x3b60c395	0.0034296263
9	0x3ade5270	0.0016961824
10	0x3a87abcf	0.0010350886
11	0xbb0be8ee	-0.0021348554
12	0x3bcd79fc	0.006270645
13	0x39c7b226	0.0003808897
14	0xbbbbd72f	-0.005732439
15	0xbb17fdb2	-0.0023191986
16	0x3be93e77	0.007118042
17	0xbb46dbf7	-0.0030343512
18	0x37e46e74	2.7231152e-05
19	0x3a30db79	0.0006746571
20	0xbaf491da	-0.001865919
21	0x3bbb97d9	0.0057248888
22	0x3b8ae400	0.0042386055
23	0x3aaced17	0.0013193217
24	0x3ba5d66f	0.005060963
25	0x3bea5311	0.0071510156
26	0x3a95e855	0.0011437038
27	0x3b89855b	0.0041968054
28	0xb943e586	-0.00018682153
29	0x3b94cbd7	0.004540901
30	0xbb133aa5	-0.0022465375
31	0x3b35c330	0.002773475
32	0x3bae8784	0.0053262133
33	0x3b3f12bf	0.002915546
34	0x3b836bfb	0.004010675
35	0xbb03b09b	-0.0020094279
36	0x3b7d5b66	0.0038659214
37	0xb9eee380	-0.00045564398
38	0x3b772bdc	0.0037715351
39	0xbb18e774	-0.0023331316
40	0x3b562d94	0.0032680975
41	0x3bb18f8a	0.0054187225
42	0x3bc14050	0.005897559
43	0x3b9ae218	0.0047266595
44	0x3a7f1ccc	0.0009731769
45	0xb8f03af6	-0.00011455074
46	0xb9d38ffa	-0.00040352327
47	0x3b5b22ec	0.0033437563
48	0xba75ddde	-0.0009379069
49	0x3b6608e7	0.003510052
50	0x3ad07765	0.0015904723
51	0x3b54bb36	0.003246022
52	0x3bbfce7a	0.0058534713
53	0x3bb59b2c	0.0055421796
54	0x3b8219c3	0.003970356
55	0xb99905a2	-0.0002918663
56	0x3b997bc9	0.004683946
57	0xbb16eb20	-0.002302833
58	0x3b0010d6	0.0019541285
59	0x3b7b0890	0.0038304664
60	0xb798f138	-1.8232138e-05
61	0x3bc7b70c	0.006094819
62	0xbb0a44eb	-0.0021098207
63	0xba8b58be	-0.0010631306
64	0xba81a9da	-0.0009892539
65	0xbab2b946	-0.0013635538
66	0x3ba246a0	0.004952267
67	0x3ac24b13	0.0014823399
68	0x3ac68cdd	0.0015148182
69	0x3b9ca282	0.0047801146
70	0x3b7ee8a3	0.0038895987
71	0x3b9aa7e6	0.004719722
72	0x3b85c9ae	0.00408288
73	0x3b58fdf7	0.003311036
74	0x3ba567c9	0.0050477725
75	0x3a3bcea9	0.00071642786
76	0x3b634d2d	0.0034683452
77	0xbb1b8356	-0.0023729405
78	0xbb3b4d2a	-0.002857993
79	0x3b88078d	0.0041512907
80	0x3b9bb794	0.004752109
81	0x3b50206e	0.003175761
82	0x3b8700cf	0.0041199694
83	0x3a828799	0.0009958624
84	0xbb740223	-0.003723272
85	0x3bb556de	0.005534037
86	0x3b694b82	0.0035597985
87	0xbb191cb1	-0.0023363049
88	0x3bdd2c92	0.006749698
89	0x3baeebcd	0.0053381682
90	0xba4d7542	-0.0007837602
91	0xbb03b1c5	-0.0020094973
92	0x3b5be6a6	0.0033554225
93	0xbb26bc9a	-0.0025442005
94	0x3b14c678	0.0022701304
95	0x3bcf2bd9	0.0063223657

bn2.running_mean f4 [96]
0	0x3e455488	0.19270527
1	0xbe5c6d93	-0.21526174
2	0x3e5b5cfd	0.21422191
3	0x3d9df2b7	0.0771231
4	0xbdd037e0	-0.10166907
5	0x3e1d3529	0.1535231
6	0xbb4857e7	-0.0030569972
7	0x3e1397fa	0.14413443
8	0x3e2025a3	0.15639357
9	0xbd22a291	-0.039705817
10	0x3defbc2c	0.11705813
11	0xbde06ba2	-0.10958029
12	0x3b2f56e3	0.002675467
13	0x3e01df3d	0.12682815
14	0x3e6f31f4	0.233589
15	0x3dddf7fd	0.10838316
16	0x3d44fd4f	0.048093136
17	0xbe153561	-0.14571144
18	0xbe8393c2	-0.25698668
19	0xbd97a222	-0.07403971
20	0x3db02b23	0.08601978
21	0x3e5bb4fb	0.21455757
22	0x3eb8c832	0.36090237
23	0xbe5b8410	-0.21437097
24	0x3d8cd55a	0.06876631
25	0x3d4b3331	0.049609367
26	0x3b3c086a	0.0028691539
27	0x3e8b9d81	0.27268603
28	0x3d712454	0.058872536
29	0x3d834a31	0.06410635
30	0xbc98bac6	-0.018643748
31	0x3e79a1e1	0.24378158
32	0xbdf8cc5d	-0.12148354
33	0x3e22909a	0.15875474
34	0xbe247660	-0.16060781
35	0x3d6bf5e7	0.057607558
36	0xbdb20584	-0.08692458
37	0x3d9296df	0.071576826
38	0x3e18c79a	0.14919892
39	0xbd9279f1	-0.07152165
40	0xbd08ce16	-0.033399664
41	0xbded952f	-0.1160072
42	0xbdde3db9	-0.108516164
43	0x3e0f6293	0.14002447
44	0x3e3c69b3	0.18399696
45	0x3d8f05b3	0.06983509
46	0xbe2308a0	-0.15921259
47	0x3d8adb3a	0.067800954
48	0xbe2e831a	-0.17042199
49	0x3dd02be6	0.10164623
50	0xbd1094ef	-0.035298284
51	0x3a6fb1cb	0.00091436197
52	0xbe2312e8	-0.15925181
53	0x3db82255	0.08990923
54	0x3d0d45e0	0.034490466
55	0xbea2b80f	-0.3178105
56	0x3d0d28eb	0.03446285
57	0x3d7891ae	0.060685806
58	0xbea42faa	-0.32067615
59	0x3e87105f	0.26379678
60	0xbdb973c9	-0.090552874
61	0x3d1ad7e8	0.03780356
62	0x3e41930a	0.18903747
63	0x3e8eaee0	0.27867794
64	0xbc0fc364	-0.008774612
65	0x3d2110d7	0.0393227
66	0x3d580603	0.05274011
67	0xbd269316	-0.040667616
68	0x3e7e8239	0.24854364
69	0x3cb85c7c	0.022505037
70	0x3e163f17	0.14672504
71	0x3d50d59b	0.05098496
72	0xbe0ee218	-0.13953435
73	0x3c8feeb4	0.017569877
74	0xbe0c0194	-0.13672477
75	0x3db1b3cc	0.08676872
76	0xbc1cd463	-0.009572121
77	0xbd917a53	-0.071034096
78	0x3d20f5ec	0.03929703
79	0x3e67eac3	0.22648148
80	0xbd99b63d	-0.07505462
81	0xbe8deb2d	-0.27718487
82	0xbc89b30c	-0.016809009
83	0xbe2cd336	-0.16877446
84	0xbe4d2a92	-0.2003577
85	0xbdc9638e	-0.09833442
86	0x3db8c0c4	0.09021142
87	0xbdff8106	-0.12475781
88	0xbd36824a	-0.044557847
89	0x3d8b2c6d	0.06795583
90	0xbdef172f	-0.11674344
91	0xbdf6731f	-0.12033676
92	0x3d99a43d	0.07502029
93	0x3bfeb025	0.007772463
94	0x3dbfb65f	0.093609564
95	0x3c495e94	0.012290616

bn2.running_var f4 [96]
0	0x3c92e8e9	0.017933326
1	0x3d7375f3	0.059438657
2	0x3cf39db2	0.02973828
3	0x3d69e3aa	0.057101883
4	0x3cce3449	0.025171416
5	0x3d708b6e	0.05872672
6	0x3d2654b4	0.040608123
7	0x3d373b5f	0.044734355
8	0x3cf45af9	0.029828535
9	0x3d17326b	0.036913317
10	0x3cddb858	0.027065441
11	0x3cc0063f	0.023440478
12	0x3cfd4436	0.030916315
13	0x3d128f57	0.03578123
14	0x3c440e91	0.0119663635
15	0x3ca31729	0.019908505
16	0x3d2e55fe	0.042562477
17	0x3cba49b9	0.022740232
18	0x3c6881d1	0.014191107
19	0x3d141d8b	0.036160987
20	0x3cefdb87	0.029279483
21	0x3da63c25	0.081169404
22	0x3cbbc5c0	0.022921443
23	0x3c8f73df	0.017511306
24	0x3cc52ff6	0.024070721
25	0x3d448148	0.047974855
26	0x3dc335e9	0.09531767
27	0x3c80e7d4	0.015735544
28	0x3c9e3d0a	0.019316215
29	0x3cc0c18c	0.02352979
30	0x3cf9e937	0.030506713
31	0x3d1c5074	0.038162664
32	0x3d34a0d4	0.04409869
33	0x3c266398	0.010155581
34	0x3d190058	0.037353843
35	0x3caf728f	0.02141693
36	0x3d11536c	0.035479948
37	0x3cb64056	0.022247475
38	0x3cf4cb6d	0.029882157
39	0x3cc64c62	0.024206344
40	0x3cff36a3	0.031153983
41	0x3cb2621e	0.021775302
42	0x3d469eaf	0.048491176
43	0x3d0b6f2c	0.03404157
44	0x3d2a37b5	0.041557033
45	0x3d3f634d	0.04672556
46	0x3cdfd78a	0.027324457
47	0x3ccf2c70	0.025289744
48	0x3c2c0d36	0.010501197
49	0x3ca9ecc6	0.020742785
50	0x3cbcdca6	0.023054432
51	0x3d1df007	0.038558986
52	0x3ccb53f3	0.024820304
53	0x3c5bfd42	0.013427081
54	0x3d01e53b	0.03171275
55	0x3d0e20d9	0.034699295
56	0x3d7e7885	0.062126655
57	0x3c5c25eb	0.013436775
58	0x3d03b987	0.032159355
59	0x3cc6f5f8	0.024287209
60	0x3cdd031f	0.026979027
61	0x3cacc27b	0.02108883
62	0x3cd52ed8	0.026023313
63	0x3c9d7b81	0.01922393
64	0x3d381cfd	0.04494952
65	0x3c3aa9c1	0.011393012
66	0x3da934ec	0.08262047
67	0x3d0bf703	0.034171116
68	0x3cee8d4f	0.029120116
69	0x3d089ef2	0.033354707
70	0x3cc2a1a9	0.023758726
71	0x3d852887	0.065018706
72	0x3d7833d0	0.060596287
73	0x3cb958ba	0.022625316
74	0x3d41ebe5	0.047344107
75	0x3cf2c75e	0.029636081
76	0x3ccc2764	0.024921127
77	0x3ca026a6	0.019549679
78	0x3c6caf5f	0.014446109
79	0x3c900ac4	0.017583258
80	0x3d32b76a	0.04363195
81	0x3d419d54	0.04726918
82	0x3d4e3481	0.05034304
83	0x3cb5d221	0.022194924
84	0x3d8a78ec	0.06761345
85	0x3d536484	0.05160953
86	0x3cce8ed7	0.025214596
87	0x3c488b67	0.012240267
88	0x3cbe8c0a	0.023260135
89	0x3d998620	0.074962854
90	0x3c93c0f3	0.018036341
91	0x3cd88985	0.026432762
92	0x3da8669f	0.082226984
93	0x3cf050ec	0.029335462
94	0x3c8baf99	0.017051505
95	0x3cec5aee	0.028851952

fc3.weight f4 [2, 96]
0	0x3b34dbe4	0.0027596885
1	0x3b8aa446	0.0042310087
2	0x3ab9257b	0.001412555
3	0x3b3dc27b	0.002895503
4	0x399b9072	0.00029671524
5	0xb9a445ce	-0.00031332526
6	0x3ba2984b	0.0049620024
7	0x3ac919fb	0.0015342826
8	0xbb886b2b	-0.004163166
9	0x3bb82a52	0.0056202793
10	0x3b43b9a1	0.0029865282
11	0xba3a8df5	-0.000711649
12	0x3a00a76c	0.00049077603
13	0xba9da8cc	-0.0012028455
14	0x39a52f43	0.00031506465
15	0xbb81baff	-0.0039590592
16	0x3b4a7c3e	0.0030896808
17	0x3a5b1179	0.00083567906
18	0xbb62917a	-0.0034571574
19	0xbab9eaea	-0.001418439
20	0x3af57ca1	0.0018729159
21	0x3b091c6d	0.0020921484
22	0x3bc49285	0.005998912
23	0x3b3f837a	0.0029222653
24	0x3ac234ac	0.0014816723
25	0x3b6f24d6	0.0036490462
26	0xbae55023	-0.0017495196
27	0xbabd4a76	-0.0014441747
28	0xbadbc7e4	-0.0016767946
29	0x3b6110d1	0.0034342299
30	0x39dee24b	0.0004251174
31	0x3b5c1fb2	0.0033588228
32	0x3b425231	0.002965104
33	0x3be700da	0.007049662
34	0xbb1b4e3e	-0.002369776
35	0xb9d1bfb2	-0.0004000641
36	0x3b01d701	0.001981199
37	0x3b2bf9cd	0.0026241422
38	0xbb2510f6	-0.0025187111
39	0xba59ec82	-0.00083131355
40	0xbaece56d	-0.0018073745
41	0x3b4bf0da	0.00311189
42	0x3a459f59	0.0007538698
43	0x3a49a08b	0.0007691464
44	0xbb6292c1	-0.0034572335
45	0x3b28d43e	0.0025761272
46	0x3b7292c8	0.0037013758
47	0xbb7316e7	-0.0037092508
48	0x3919e34c	0.00014675892
49	0x3aa48934	0.0012553097
50	0xb9af96e9	-0.00033491038
51	0x3af0f4d8	0.0018383516
52	0x3a55dfe4	0.00081586675
53	0x3a9f79df	0.0012167058
54	0x3b8f0045	0.004364046
55	0x3a9df88b	0.0012052221
56	0x3aa23a03	0.0012376908
57	0x3b882022	0.004154221
58	0xb9961667	-0.0002862692
59	0x3bb91dbb	0.005649296
60	0x3b5f7b74	0.0034100683
61	0x3a73958e	0.0009292
62	0x3ae20a60	0.0017245524
63	0xbb42c598	-0.0029719826
64	0xba9a5189	-0.0011773567
65	0xbb27e54c	-0.002561885
66	0x3baf158d	0.005343145
67	0xb9abfca8	-0.00032803905
68	0x3ab230af	0.0013594831
69	0x3ba8c346	0.0051502315
70	0xbac24f42	-0.0014824646
71	0x3b48e39c	0.0030653244
72	0x3bf0b1d2	0.0073454166
73	0x3ad978c0	0.0016591772
74	0x38c9f3ea	9.6298594e-05
75	0xbb513501	-0.0031922462
76	0x3b8a2857	0.0042162347
77	0xb9689018	-0.00022178923
78	0xb99ba354	-0.00029685593
79	0x3acee323	0.0015784245
80	0xba502534	-0.0007940114
81	0x3aea5847	0.0017879092
82	0x3c037136	0.008022597
83	0x3a9ca099	0.0011949717
84	0xb98ad277	-0.0002647822
85	0x3b235036	0.0024919636
86	0x3ba12b3f	0.0049184854
87	0x3aebecd6	0.001799966
88	0x3b1bb95e	0.002376161
89	0xb9bfc6c4	-0.0003657845
90	0x3abab0a7	0.001424332
91	0xbb3e9eb3	-0.0029086291
92	0xbad12a50	-0.0015958045
93	0x387c27f6	6.01187e-05
94	0xbaf1417a	-0.0018406354
95	0x3b676ba7	0.0035311969
96	0x3be73140	0.0070554316
97	0x3bc8a861	0.006123588
98	0x3bdddd6b	0.00677078
99	0x3c0aaeba	0.00846451
100	0x3bb180f4	0.0054169837
101	0x3c1ddd9d	0.009635356
102	0x3b4aca5c	0.003094337
103	0x3c185ff7	0.009300224
104	0x3c06d6a4	0.008229885
105	0x3b70177f	0.0036635099
106	0x3b80d994	0.0039321873
107	0x3b8c8c70	0.0042892024
108	0x3c043a33	0.008070516
109	0x3baa58f4	0.0051985923
110	0x3b5f8490	0.0034106113
111	0x3a7aa56c	0.0009561393
112	0x3bda34e4	0.006659137
113	0x3aa09f94	0.0012254589
114	0x3b93f9cd	0.0045158626
115	0x3b899214	0.004198322
116	0x3b48d4ba	0.0030644373
117	0x3c2017cb	0.009771298
118	0x3bf97a7c	0.007613478
119	0x3b7c0158	0.003845295
120	0x3bdca8af	0.006733976
121	0x3c071c11	0.008246438
122	0x3bbd236d	0.0057720453
123	0x3c0aa3db	0.008461918
124	0x3b9cfe87	0.004791084
125	0x3c157e8d	0.00912441
126	0x3b57705d	0.003287337
127	0x3bc217a6	0.0059232293
128	0x3c1460cf	0.009056284
129	0x3b566ca4	0.0032718563
130	0x3c13339a	0.008984471
131	0x3b82c88b	0.0039911917
132	0x3c09f1a0	0.008419424
133	0x3b707348	0.0036689807
134	0x3bd731ef	0.006567232
135	0x3b28c3b5	0.0025751416
136	0x3bf4f63c	0.0074756425
137	0x3c029037	0.007968954
138	0x3c1cdd7d	0.009574291
139	0x3be354dd	0.0069376067
140	0x3bb831a4	0.005621152
141	0x3b4d3bc7	0.0031316148
142	0x3b57250e	0.0032828483
143	0x3c08a52f	0.008340164
144	0x3b9796fc	0.004626153
145	0x3bbcb8b7	0.0057593244
146	0x3ba9d38c	0.005182689
147	0x3bb8a0f7	0.005634423
148	0x3c030113	0.007995862
149	0x3bd7a84a	0.006581341
150	0x3c086f67	0.008327342
151	0x3b8acc08	0.004235748
152	0x3be88ec6	0.007097098
153	0xb9320c1b	-0.00016979912
154	0x3bb50c08	0.005525116
155	0x3ba92328	0.0051616617
156	0x3b3ef9c0	0.0029140562
157	0x3bc85830	0.0061140284
158	0x3b39b894	0.0028338777
159	0x3b44601b	0.002996451
160	0x3b86c1e5	0.0041124695
161	0x3b4b9c64	0.0031068558
162	0x3bcd5e5d	0.0062673525
163	0x3bf0a1ae	0.0073434925
164	0x3bbc4f6c	0.0057467725
165	0x3b7a613f	0.0038204936
166	0x3c00838d	0.007843864
167	0x3be55683	0.0069988384
168	0x3b86da3a	0.00411537
169	0x3bb4d6b0	0.005518757
170	0x3c1f69d5	0.009729822
171	0x3b9c0fb0	0.0047626123
172	0x3c07088e	0.008241786
173	0x3b473f57	0.0030402744
174	0x3b914203	0.004432918
175	0x3bc7f2a9	0.0061019254
176	0x3c0ef6b2	0.008725809
177	0x3b89ac84	0.0042014737
178	0x3c01a0dc	0.007911887
179	0x3ba6a3c4	0.0050854404
180	0x3b0544bc	0.0020335158
181	0x3bcad67c	0.0061901193
182	0x3beca4b9	0.007221785
183	0x3b1c95d6	0.002389302
184	0x3c1df5ab	0.009641091
185	0x3c132310	0.0089805275
186	0x3b2c283f	0.0026269106
187	0x3a3766a0	0.00069961883
188	0x3bfd699e	0.007733538
189	0x3ae52c19	0.0017484456
190	0x3bc64680	0.0060508847
191	0x3bfcdf2a	0.007717033

fc3.bias f4 [2]
0	0xbda129c7	-0.078692965
1	0xbb84173f	-0.0040310915
