p3_collab-compet/actor.pth (torch_old, 85837 bytes, 14 tensors)

fc1.weight f4 [128, 24]
000000 1a fa 08 3c 0b 47 38 3e 7a f9 47 bd a1 06 e6 3b
       0.00836041 0.1799585 -0.048821904 0.007019833
000010 77 1d 32 3e 31 51 32 bf ee bd bd bd 69 8e 9e 3d
       0.17394052 -0.6965514 -0.09264742 0.07742006
000020 6d af 3e 3d f2 59 62 3e 15 86 e0 3d 78 a8 7f 3b
       0.046554018 0.22104624 0.10963074 0.0039010327
000030 8e c2 4c 3e 36 93 64 bf 86 59 d7 3d 2e 47 04 3d
       0.19996092 -0.89287126 0.10515122 0.032294445
000040 48 8a 20 3d c3 71 76 3e 86 94 02 3d 81 7f ae 3d
       0.039194375 0.24066834 0.031879924 0.08520413
000050 d8 2a 4a 3e 3d f1 50 bf 5b 03 e5 3d 52 8c 23 3c
       0.19742906 -0.816181 0.11182281 0.009982185
000060 35 18 8e 3e b9 1b f8 3c 98 bb 3d bd 5b a9 0a 3d
       0.27752843 0.030286657 -0.04632148 0.033852916
000070 d1 e9 9b 3c aa a5 fe be ac d4 f2 3c 75 a1 c3 3d
       0.01903239 -0.49735767 0.029642425 0.0955228
000080 44 7c 78 3e 2e 54 ee 3d d3 08 4b be 9e 5a 8e bc
       0.24266154 0.1163715 -0.19827585 -0.017377194
000090 6b c0 2a 3e 13 72 88 be c5 3a 5c be c3 10 8a 3c
       0.16674964 -0.26649532 -0.21506794 0.016853696
0000a0 90 0d 79 bd fe b0 23 3d 38 40 09 be c5 e2 b9 be
       -0.06080395 0.039963715 -0.13403404 -0.36305824
0000b0 41 17 b1 3e 29 52 10 3d 8a eb a3 bd 6d d2 8a be
       0.34588054 0.035234604 -0.0800391 -0.27113667
0000c0 16 60 af 3e 7a a2 e6 bd bf 87 86 3d af 6e e0 3d
       0.34252995 -0.11261459 0.0656886 0.10958611
0000d0 ba a2 4b be cc dd fe 3e 6d 50 a8 bd 86 e6 ee 3d
       -0.19886294 0.49778593 -0.08218465 0.116650626
0000e0 b6 52 dc 3e c6 b3 9f bc 82 c2 12 bd 6d b8 db 3e
       0.43031853 -0.019494902 -0.03583003 0.42914143
0000f0 13 c6 5b be e1 51 35 be d7 a9 a6 3c af 21 cc 3e
       -0.21462278 -0.17707016 0.020344658 0.3986945
000100 29 35 7c 3e 40 79 03 3e cf 0e 25 bc f6 86 c7 be
       0.24629654 0.12839222 -0.010074331 -0.38970155
000110 84 44 6c be a8 21 03 bf 0d d1 6e 3d ea 95 cf be
       -0.23073012 -0.5122323 0.058304835 -0.40544063
000120 e5 b8 0c 3f cd 7a 15 3e a5 fd 0a bd 91 cf 5b 3e
       0.54969627 0.14597626 -0.0339333 0.21465899
000130 9b 6b 0b bc dd 44 03 bf c3 15 8b bc 44 0c 91 3e
       -0.008509542 -0.5127695 -0.01697815 0.2832967
000140 fc b3 06 3f 44 bc 08 3e a9 f4 c7 bc 05 bb 11 be
       0.52618384 0.13353068 -0.024408655 -0.14231499
000150 5b b3 a5 3d 87 13 aa be 41 c1 e2 bc 0b f4 f6 bd
       0.0809085 -0.33218023 -0.027680041 -0.12058266
000160 e5 aa fe 3d 2e d5 48 be 4f 8e 0a 3d 25 c3 06 be
       0.12434939 -0.19612572 0.033827122 -0.13160379
000170 e0 30 60 be 09 c0 0d 3d 67 61 0d bd 09 51 b9 bd
       -0.21893644 0.034606967 -0.03451672 -0.09048659
000180 09 b7 2d be dc b5 81 3e b7 f9 8c bd 52 af c1 bd
       -0.16964354 0.2533406 -0.06883567 -0.09457268
000190 75 b7 34 bf 29 3c b8 be 4f bd b1 3d d2 46 2a be
       -0.70592433 -0.359834 0.08678686 -0.16628578
0001a0 8a d8 81 bd 22 f3 2e 3e 42 7c f4 bd fa 83 ab be
       -0.0634013 0.17084935 -0.11937763 -0.33499128
0001b0 83 2e ab be 79 81 3e be d8 b6 c3 bd 46 59 a6 be
       -0.33433923 -0.18604077 -0.09556359 -0.32489985
0001c0 89 74 a0 bd 97 56 01 3e 20 80 27 be d3 2d 36 be
       -0.07834727 0.12630688 -0.1635747 -0.17790918
0001d0 0e 52 63 3d 3b 08 b4 be 1f 26 8f bd 15 9a b5 bd
       0.055498175 -0.3516253 -0.06989693 -0.088672794
0001e0 5c d2 96 3c 4d cf 12 be 5f 5c 04 3c bb 1d 67 3e
       0.018410854 -0.14336891 0.008078664 0.22569935
0001f0 d9 6e 9e 3e dd f0 6a bf ce bd 69 bd e2 b3 db 3d
       0.30943945 -0.9177378 -0.057065777 0.10727669
000200 b4 54 fc bd bc b8 db bd f7 bd 87 bc 56 15 cf bd
       -0.12320843 -0.10728595 -0.016570074 -0.101114914
000210 9a ea 88 3e f5 f3 a0 be 1b 72 f7 3c 45 a1 1c be
       0.26741487 -0.31436124 0.030205777 -0.15295894
000220 2e 05 52 be 60 35 2d be 38 69 01 bd d1 75 ac 3d
       -0.20509788 -0.16914892 -0.031594485 0.08420909
000230 8a cc 67 3d 87 0f dc 3e 5d ce eb bd fe 33 e0 3d
       0.056591548 0.42980596 -0.1151397 0.10947417
000240 10 aa fc 3d a9 13 a0 3e 80 53 c2 bd 39 35 13 be
       0.12337124 0.31265 -0.094885826 -0.14375772
000250 ac af 9b 3e f9 0a 22 be c4 1f 5d be b2 d0 39 bc
       0.30407465 -0.15824498 -0.21594149 -0.011341261
000260 7e 9a 3b 3e cc d4 a2 3e fd 18 bd bb a6 3c 06 3e
       0.18320653 0.31802976 -0.005770801 0.13109073
000270 ed 08 b2 3e 1a 4f c2 bb aa 91 30 bd 95 e8 3c 3e
       0.34772435 -0.00592984 -0.043107666 0.18448098
000280 79 14 95 3e 65 0d ae 3e 9b ae 3c be 97 fe e6 bd
       0.29117182 0.33994594 -0.18425982 -0.11279028
000290 38 0d b6 3e ac cd 34 3e 23 ab 6c be 84 1d ff bd
       0.3555696 0.17656583 -0.23112158 -0.124568015
0002a0 9a f6 97 3d 55 ca 03 be 32 cf 82 bc 8f f0 b1 bc
       0.074200824 -0.12870152 -0.015967939 -0.021721153
0002b0 9e 23 39 3f 29 85 a9 3e b4 35 2e 3c 00 91 6c 3d
       0.7231997 0.33109406 0.010632921 0.05775547
0002c0 8b c3 38 3e f7 ca 4e be 36 f1 da bc 18 5b ed bc
       0.18043344 -0.20194612 -0.026726346 -0.028974101
0002d0 01 be 2e bb ea 9d 59 3e b8 02 37 3c b2 90 23 bd
       -0.0026663544 0.21251646 0.011170082 -0.039932914
0002e0 a0 a3 d7 3d 38 b4 72 be 00 95 19 3d 6e 69 26 bc
       0.10529256 -0.2370156 0.037495613 -0.010156972
0002f0 9e f1 8e bf cf d1 d3 3d 8d 82 c5 bc 2d e8 80 ba
       -1.1167486 0.10342752 -0.024110103 -0.0009834819
000300 56 06 84 3d 15 78 c9 3e 2c 45 f9 bc 57 40 1f 3e
       0.06446521 0.39349428 -0.030428492 0.15551887
000310 f2 8b 0e bd bc 79 5f bf 8c 5a 15 bc 39 93 3e 3e
       -0.03480143 -0.87295127 -0.009115826 0.18610848
000320 1c d4 f7 3d 05 54 c6 3e 18 16 63 3c 18 5b ab bb
       0.121010035 0.38735977 0.013860248 -0.005229365
000330 5e c9 09 3d 4e 84 31 be d2 01 c0 bd b7 15 93 3d
       0.033639304 -0.17335626 -0.09375347 0.07181876
000340 8c e7 bb 3c 6d 89 b3 3e df 23 8b bc 59 31 86 bd
       0.022937559 0.35065785 -0.016984878 -0.06552381
000350 31 76 9d 3e 9b 05 42 3f 96 f2 08 3d 59 eb 55 be
       0.30754235 0.75789803 0.033434473 -0.2089056
000360 84 c3 10 be 49 66 3c 3c 13 32 1c 3b c8 10 ec 3d
       -0.14137083 0.011498996 0.0023833557 0.11526638
000370 29 c3 03 3d f5 b9 98 bf b2 f1 38 3b 52 d2 b8 3d
       0.03216854 -1.193175 0.0028220234 0.090244904
000380 81 f7 a2 bd 55 17 e6 3c b5 94 92 bd 3a ba 97 3d
       -0.07957364 0.028087297 -0.0715727 0.07408567
000390 b3 b3 79 3e 45 af 21 bf d8 2f 09 3d cb 5b d0 3c
       0.24384956 -0.63158065 0.033492893 0.025434395
0003a0 3e 18 41 3d 44 64 55 3d 68 88 fd 3c 8f f4 95 bc
       0.04714226 0.052097574 0.030948833 -0.018305091
0003b0 e1 3f b7 3d 0b db 78 3e aa 26 6a 3c c9 9b e3 3b
       0.08947731 0.24302308 0.014291445 0.0069460613
0003c0 a6 59 56 3e 9f 04 ff 3e 7c fd c5 3d 21 16 33 bc
       0.20932636 0.49808213 0.09667489 -0.010930569
0003d0 7b d4 ee 3e 39 cf 00 be 2d 80 4a bd 41 f6 08 3b
       0.46646485 -0.12579049 -0.049438644 0.0020898732
0003e0 92 bd 82 3e c6 11 0d 3f 6b 53 93 3d 68 ff 6b 3d
       0.25535256 0.55105245 0.07193645 0.05761662
0003f0 1d c4 c3 3e 9a fb fd be 47 3b 3f 3e 70 38 18 3d
       0.3823556 -0.4960602 0.18674956 0.037163198

fc1.bias f4 [128]
000000 0b 6e 9c be 90 96 21 3e a2 f5 16 bb 32 37 ac be
       -0.30552706 0.15780091 -0.0023034592 -0.3363586
000010 56 7c d9 be d8 18 48 3e fe 3d e3 be 1c fa f3 bd
       -0.42477673 0.19540727 -0.44383234 -0.11912939
000020 ae 39 7a be 1f 06 c5 bd 57 3c 14 be 5d f4 30 bc
       -0.24436066 -0.09620308 -0.14476143 -0.010800448
000030 8e 21 22 bf db a6 44 be e4 3a a3 3e da 83 a5 be
       -0.6333245 -0.19204275 0.31880867 -0.32327157
000040 c5 d2 ae 3e ea 3f f2 3e cf 8e 33 be 8a 3d 14 bc
       0.3414518 0.47314388 -0.17534946 -0.009047875
000050 85 1a 42 3d f0 ff 08 bf 4c 44 3a be 64 0c 8e bc
       0.047388572 -0.5351553 -0.18190116 -0.017339893
000060 49 51 11 3e b7 a5 22 bd 3a 8b be 3d 14 e5 c4 be
       0.14191164 -0.03970882 0.09303899 -0.38456023
000070 a2 8f d3 3e d6 fe 1c be ea f2 b2 3e 09 de 0c bd
       0.4132052 -0.15331587 0.34950954 -0.034391437
000080 12 3c 6e be d5 0d 42 3e b6 20 54 be 95 3e d6 bd
       -0.23265103 0.18950589 -0.20715603 -0.10461155
000090 82 af a6 3e b2 fb 24 3e 25 bf 2b 3d 3d 3a 16 bd
       0.32555777 0.16111639 0.041930337 -0.036676634
0000a0 ec 99 77 3e cd 1c 43 3d 8c bf a3 bd 57 07 7a be
       0.2417981 0.04763489 -0.07995519 -0.24416862
0000b0 72 db 3c be 74 f2 4d be dd 97 e5 bc a5 4b e1 bd
       -0.18443087 -0.2011202 -0.028026516 -0.11000756
0000c0 4d a8 98 bd 18 03 66 be 80 a5 8f be da 86 93 bd
       -0.07453976 -0.22462118 -0.28055954 -0.07203455
0000d0 83 98 00 be 22 cf 64 bc 40 44 8a 3d e4 1c 97 be
       -0.12558179 -0.0139654 0.06751299 -0.2951423
0000e0 dd d4 47 3e af e7 02 bd 58 97 ab 3d 70 9b 81 3e
       0.19514795 -0.031959232 0.08378476 0.25313902
0000f0 4a f1 bb 3d d2 2b 83 be e0 87 15 bd 2f 7f 65 be
       0.091768816 -0.2561937 -0.036506534 -0.22411798
000100 c2 c4 d0 bd 5e 67 3f 3d 8b b3 a2 bd 96 5f ef 3c
       -0.101937786 0.046729438 -0.07944401 0.029220384
000110 33 ce 7e be 61 8c 3f 3d 0e 92 61 be c8 e5 bf be
       -0.24883346 0.046764735 -0.22028372 -0.37479997
000120 d1 5b 51 be a1 65 66 be b5 36 ec bd ef a2 28 3e
       -0.20445181 -0.22499706 -0.11533872 0.16468404
000130 9b 7a 6e 3e cc f3 d4 bb 96 67 4d be dc 0e 11 3b
       0.23288958 -0.0064987894 -0.20059046 0.00221341
000140 2a 10 07 be 32 6c d9 be 01 f6 e5 bd dd 77 bc bb
       -0.1318976 -0.4246536 -0.11228562 -0.0057515935
000150 6d 8a 49 be 58 1c 80 3d 82 9e 0f be 53 35 9c bd
       -0.19681711 0.06255406 -0.1402531 -0.07627358
000160 df c3 2e be a9 3a 18 3e 92 26 73 be a5 e9 d4 bd
       -0.17066906 0.14866127 -0.23745182 -0.10396127
000170 00 8e 0a bd 19 71 80 be 41 58 3c 3e 20 2d ea bc
       -0.033826828 -0.25086287 0.18393041 -0.02858597
000180 a5 61 72 be 0f 96 03 3f c6 a2 11 be 7c 39 db be
       -0.23670061 0.51400846 -0.1422225 -0.42817295
000190 50 8c 5f 3e 3d 2d ab be 2c b8 c5 3d 3c f2 96 bd
       0.21830869 -0.33432952 0.096542686 -0.07370421
0001a0 dc 7d a8 bd 12 c6 2d bd fd 4a 94 bd 4b 33 d9 be
       -0.08227131 -0.042425223 -0.072408654 -0.42421946
0001b0 79 94 a2 be a1 15 bc 3c cf 26 50 be 37 95 14 3c
       -0.317539 0.022959532 -0.20327304 0.009068779
0001c0 89 47 b9 3e 65 88 57 be 76 79 2f be 97 b7 0a 3e
       0.3618739 -0.21048124 -0.17136177 0.13546596
0001d0 17 71 9f be a3 05 9e be 72 a7 b3 3e 63 46 a8 3d
       -0.31140968 -0.30863675 0.35088688 0.0821655
0001e0 df b2 2b be 8c 02 49 bd 1f 20 b2 3d 85 93 0c bd
       -0.16767453 -0.049074695 0.08697533 -0.034320373
0001f0 c5 82 11 3d bf 6c 9b bd 94 83 39 3d 41 63 ae be
       0.035525102 -0.07589101 0.0452915 -0.340601

bn1.weight f4 [128]
000000 f3 68 69 3e b7 72 ed 3e 2a 72 4c 3f 77 58 ab 3e
       0.22793941 0.46376583 0.798617 0.3346593
000010 fa 22 62 3e 83 d2 d6 3e 61 53 a0 3e 68 c0 75 3f
       0.22083655 0.41957483 0.31313613 0.95996714
000020 5b 90 3e 3f 82 20 3d 3f 98 d3 74 3e 26 89 a3 bd
       0.7443902 0.7387773 0.23908842 -0.07985143
000030 d6 86 94 3e aa f3 48 3f 93 aa fb 3e 4e 4b 8e 3e
       0.29009122 0.784968 0.49153575 0.27791828
000040 6b d9 11 3f e3 62 89 3e 03 02 f6 3e 44 dd 1e 3f
       0.5697238 0.26833257 0.4804841 0.62056375
000050 71 21 6b 3f 48 9f 10 be a1 c3 cc 3e 9e 5e 16 3f
       0.918479 -0.14123261 0.39993003 0.58738124
000060 6f 79 3b 3f cd 7c 6e 3c a2 04 ff bc 69 0a f0 3e
       0.7323217 0.014556122 -0.031130139 0.46882942
000070 ae a6 c4 3e d5 3b 80 bd 3f 5f d0 3e 88 32 87 be
       0.38408417 -0.06261412 0.40697667 -0.2640574
000080 ac 8e 3f 3f 1d f1 8e 3e 39 84 69 3f 2b af b8 3d
       0.74827075 0.2791833 0.9121738 0.09017786
000090 cd 84 39 bc 36 d8 3a 3f 32 0a b2 bd f0 6f 38 3f
       -0.011323166 0.7298616 -0.08693351 0.72045803
0000a0 c4 6f 81 3e 08 12 b8 3e 19 68 51 3f e0 b2 2d 3f
       0.25280583 0.35951257 0.81799465 0.67851067
0000b0 55 e0 6c 3f 06 56 89 3f 7b e7 52 3e 0a fa 51 3f
       0.92529804 1.0729377 0.20596115 0.82022154
0000c0 32 44 23 3f 85 09 9a 3e 53 80 99 3e 6f a9 de 3e
       0.6377593 0.30085388 0.29980716 0.43488643
0000d0 f8 50 37 3f 49 d4 3e 3e 7f 88 5e 3f d9 92 c9 3d
       0.71607924 0.18635668 0.86927027 0.09842462
0000e0 b8 49 11 3f 0c 3c c3 3e 58 54 8c 3e 50 7f 14 3e
       0.5675311 0.3813175 0.274081 0.14501691
0000f0 5e 2e 15 3f 27 5e 16 3f 6d 17 0c 3f 9f ba 44 be
       0.58273876 0.58737415 0.54723245 -0.19211815
000100 45 90 2f 3f ec ad 57 be 6e 21 3f 3f 47 b3 a9 bd
       0.6857951 -0.2106244 0.74660385 -0.082861476
000110 1e fe 97 3f 48 66 90 3e d2 86 42 3f 36 48 52 3f
       1.1874425 0.28203034 0.7598697 0.82141435
000120 26 8c f3 3e 30 0d 4e 3f 6b 46 64 3e 64 53 3f 3a
       0.47567862 0.8048887 0.22292487 0.0007298498
000130 64 2d 1c 3f 64 64 1c 3f b7 38 94 3d d6 c0 22 3f
       0.6100676 0.61090684 0.0723738 0.63575494
000140 d2 76 c4 3e 90 ab b3 3e 3d be 5e 3e 26 37 1b 3f
       0.38371903 0.3509183 0.21752258 0.60631025
000150 83 cc b0 3e 9d 82 2d 3f fd 0e 00 3f ae 7b 62 be
       0.3453103 0.67777425 0.5002287 -0.22117493
000160 2e 85 d1 3e 72 b9 ee 3e 53 90 70 3e ac 37 bf bd
       0.4092192 0.4662586 0.23492555 -0.093367904
000170 84 64 da 3c 7e 3f ff 3e 1b ed 08 3f 9d 51 29 3f
       0.026659258 0.49853128 0.53486794 0.66140157
000180 57 96 20 3f dd f3 ab 3d 73 9a 1e 3f 14 61 0d 3f
       0.627294 0.083961226 0.6195442 0.55226254
000190 8d 98 a1 3e ea 48 35 3e 77 2a 3c 3f d4 1f 59 be
       0.315617 0.17703596 0.73502296 -0.21203548
0001a0 86 bb 21 3f 8f 65 15 3f 18 96 00 3d 59 fe 72 3e
       0.63176763 0.5835809 0.03139314 0.23729838
0001b0 a1 87 9c 3e ec 72 33 3f 16 8c df 3e 9b 9d f9 3e
       0.30572227 0.7009723 0.43661565 0.48753056
0001c0 e5 cc ef 3e 0e a7 87 be 65 70 48 be 79 48 ff 3e
       0.4683601 -0.2649464 -0.19574125 0.4985998
0001d0 cc 2b 06 3e 1b 58 67 3e ca 7f e7 bc fc 02 cc 3e
       0.13102645 0.22592203 -0.028259177 0.39846027
0001e0 23 d9 bd 3e e8 97 16 3f 69 77 ac 3e d2 e1 0c 3f
       0.37079725 0.5882554 0.33684853 0.55032074
0001f0 96 38 d0 3e ae f3 ff 3e 47 d5 89 3f 1b a1 b9 3e
       0.40668172 0.499906 1.0768212 0.36255726

bn1.bias f4 [128]
000000 1f 19 cc bc f2 dc 04 bd d5 24 89 3d 89 76 24 3e
       -0.024914322 -0.032437272 0.06696478 0.16060843
000010 2f 1d bc 3e 9c 7b 23 3d 02 05 4a 3e f3 e6 fb bd
       0.36741015 0.039912805 0.19728473 -0.122999094
000020 b1 eb b4 3e b2 ae 50 3e 87 0a b2 3e 7a 85 8a bd
       0.35336068 0.20379141 0.34773657 -0.0676374
000030 0f 1e 3c 3c f7 b2 85 3e 2b 25 02 3e 27 87 6f 3e
       0.011481776 0.26113102 0.12709491 0.233914
000040 f7 c2 85 be 65 a5 cb bd b7 e6 bf bd d4 1c 34 be
       -0.2612531 -0.09943656 -0.09370177 -0.17589122
000050 89 85 49 3e e5 3a db bd da e3 10 3d 97 80 83 3d
       0.19679846 -0.107045926 0.035373546 0.06421011
000060 49 af 8c 3e 51 77 23 be 82 ba 40 be 79 14 17 3e
       0.27477482 -0.15963484 -0.18821147 0.14753903
000070 e6 a5 ab bb d4 bd ac be e8 28 ac 3e 48 a3 8b be
       -0.0052382825 -0.33738577 0.3362496 -0.2727301
000080 ea 51 c3 3e 62 57 52 3e e0 1a 1a 3b 58 fc 0d 3e
       0.38148433 0.20541146 0.0023514554 0.13865793
000090 70 bc 1f be a2 d1 6d 3e 8c 4b 9c bc 3c 50 29 3e
       -0.15599227 0.232245 -0.019078992 0.16534513
0000a0 89 11 e8 3d b2 85 9f 3e aa 22 3a 3c 5f 1a 42 3e
       0.113314696 0.3115669 0.011360804 0.18955372
0000b0 bd db 39 3e 2b 17 45 be 9a 0d e4 3e 3b e2 f8 3d
       0.1815023 -0.19247119 0.44541627 0.12152525
0000c0 a0 ce 1e 3e cb 9e 4e 3e 3a ed 54 3e a5 bf 31 bd
       0.15508509 0.20177762 0.2079362 -0.043395657
0000d0 4b d7 e1 3d b1 8c 32 be f3 ad ec 3c 26 a9 93 3e
       0.11027392 -0.17436482 0.02889154 0.28839988
0000e0 7d e8 e8 3e 8e 90 bf bd 29 31 ac 3e ea 72 84 be
       0.45489874 -0.093537435 0.33631256 -0.25868922
0000f0 83 e0 ca 3c b4 88 c4 bd 52 d9 77 3d 0e 2c 7b be
       0.024765259 -0.095963866 0.060509987 -0.24528524
000100 09 d1 20 3e bf d3 34 bd b2 df 09 be 02 2d 76 be
       0.1570474 -0.04414725 -0.13464239 -0.24040607
000110 4e a9 0a 3d 36 fa ce 3e cd bf 7a be a1 cc 56 3d
       0.033852868 0.4042527 -0.24487229 0.052441243
000120 52 99 8c 3c 1c 84 90 3e 11 fc 1c be 01 69 f5 bb
       0.017162953 0.2822579 -0.1533053 -0.007489324
000130 22 be 44 bd bf b0 ad 3d e3 15 21 3e e3 82 4e 3d
       -0.048032887 0.08480977 0.15731005 0.050417792
000140 80 1b a0 bc 03 6a b5 3e 54 12 eb 3d e1 be a2 3e
       -0.019544363 0.35432443 0.11478105 0.31786254
000150 b8 88 8f 3e 7f 39 d3 3e cd 83 86 3e 06 4e c3 be
       0.28033996 0.41254804 0.2627243 -0.38145465
000160 b6 50 84 3e 9e e8 a3 3e 87 2f a8 3e c3 b6 bc be
       0.25842828 0.3201341 0.3284876 -0.36858186
000170 00 6e b4 be 62 a2 8c 3e 5f 8a bc 3e d2 ae 84 bd
       -0.35240173 0.27467638 0.3682432 -0.06478657
000180 b1 3b 42 3e 73 22 0d bd 13 f8 be 3e 55 fb 4a 3e
       0.18968083 -0.03445668 0.3729864 0.19822438
000190 5e 1a e0 3e 5e 4f 89 3e d6 47 3a 3d 3c ad e2 be
       0.43770117 0.26818365 0.045478664 -0.44272792
0001a0 68 e8 7a 3e b0 2e 97 bc 8d ea cf be 72 46 a1 3e
       0.24502718 -0.01845488 -0.40608636 0.31499058
0001b0 1d 1a 84 bd c1 e2 d1 3e 8c cd 6e 3e 9d e2 ae 3e
       -0.06450293 0.40993312 0.23320597 0.34157267
0001c0 00 32 99 3e c6 04 35 be 1d 7c 4f be a7 49 42 3e
       0.2992096 -0.17677602 -0.20262189 0.18973409
0001d0 8b ac 0d 3e 34 64 43 3d fe 2d 32 be 33 1b e4 bb
       0.13835351 0.047702983 -0.17400357 -0.00696125
0001e0 f6 3d 96 3e 80 54 5f 3d 22 58 06 bc d0 ea 65 3e
       0.29344147 0.054523945 -0.008199723 0.22452855
0001f0 47 0a 7c 3d cb 42 48 be 6d ff fb 3e b8 2c a1 3c
       0.06153324 -0.1955673 0.49218312 0.019674644

bn1.running_mean f4 [128]
000000 af c4 9b 3e b3 bb 40 3f 58 29 3b 3e b6 6e a4 3b
       0.30423495 0.75286406 0.1827749 0.0050180806
000010 55 6e 10 40 52 46 07 40 3b bb 85 3f 77 01 82 3f
       2.2567341 2.113667 1.0447763 1.0156697
000020 fd 80 35 3e 93 d0 ce 3e 5b 18 08 3f cd 16 68 40
       0.17724986 0.40393505 0.53162163 3.6263916
000030 44 e2 27 38 bb 11 70 3f 50 20 29 41 7f d4 f1 3f
       4.002663e-05 0.93777055 10.570389 1.8892974
000040 2c 23 a5 40 d2 1a e4 40 5c e6 15 3f bb a5 db 3f
       5.1605434 7.128274 0.58554626 1.7159952
000050 b7 57 f6 3f 04 00 00 00 bf 2c 59 40 e6 ee d5 3f
       1.9245518 6e-45 3.393356 1.6713531
000060 15 c6 8c 40 a4 68 b5 40 db ce a0 40 c1 71 7c 40
       4.39918 5.6690235 5.025251 3.944443
000070 8a 62 01 41 e8 76 ad 40 b3 25 b1 40 e4 5d 60 3f
       8.086557 5.420765 5.535852 0.87643266
000080 c4 23 a9 3e 28 53 53 40 6b cc 49 3f c1 20 7a 40
       0.330351 3.3019505 0.7882754 3.9082491
000090 22 4c a9 40 16 a7 59 3f 12 6a b7 3f c9 59 9b 3e
       5.2905436 0.8502058 1.4329245 0.30341938
0000a0 3b 41 76 40 8d fd 06 3f 00 4c 07 40 32 73 80 3d
       3.8477314 0.5273064 2.1140137 0.06271972
0000b0 00 16 bb 40 e4 d7 73 3f 5f 9a b9 3f 29 91 3b 40
       5.8464355 0.952513 1.4500235 2.9307349
0000c0 56 7a df 3f 07 10 0e 3f 86 09 09 40 e1 23 0d 3f
       1.7459209 0.55493206 2.1412063 0.5513287
0000d0 4b e8 92 3f 71 d7 d4 3f 69 22 2d 40 74 43 56 40
       1.147714 1.6628247 2.7052252 3.347867
0000e0 4f 01 9c 40 15 d6 ec 40 26 e8 ec 40 eb 47 0d 41
       4.8751597 7.401133 7.4033384 8.830058
0000f0 da cd ad 3f 41 eb 12 3e dc 21 17 3f 0e a7 e0 3d
       1.3578446 0.14347555 0.5903604 0.10969363
000100 33 04 96 3f 69 56 2d 40 76 ed 21 40 0b 6a 95 40
       1.1720031 2.708399 2.5301185 4.6691947
000110 91 82 27 3f d5 9e 1a 40 70 39 d4 3f d2 04 27 3f
       0.65433604 2.4159443 1.6580029 0.6524173
000120 80 64 12 40 6b 2f ad 3f ee 68 9a 40 08 7e d1 40
       2.287384 1.3530096 4.825309 6.5466347
000130 5f 01 26 41 75 25 c9 3e 70 44 05 40 87 d6 96 3e
       10.375335 0.3928639 2.082302 0.29460546
000140 33 90 b8 3f fb eb 3c 3f cb d5 eb 3f a6 e6 ae 40
       1.4419006 0.7379758 1.842462 5.4656553
000150 45 52 c0 3f d8 f9 6d 40 dc f1 85 40 ed 58 29 40
       1.5025107 3.7183743 4.185774 2.6460526
000160 6e 2a 0a 40 9e a3 c2 3f 6a fe e3 3e f8 5e 86 40
       2.1588397 1.5206182 0.4453004 4.199093
000170 1b a4 81 40 eb 9d 9a 40 96 f7 b4 40 04 3b 2a 41
       4.0512824 4.831777 5.655223 10.639408
000180 46 8c a4 3e d3 5d ef 40 9f 6a eb 3f ad bb 7f 3d
       0.3213827 7.480203 1.8391913 0.06243484
000190 45 85 ce 40 ad b9 35 3f fc dc f0 3f 98 8b 34 40
       6.4537683 0.70986444 1.8817439 2.8210201
0001a0 28 ea f3 3e 19 d7 f3 3e 04 0b 35 40 3f 9f 18 40
       0.47639585 0.47625044 2.8287973 2.3847196
0001b0 fb 9d b4 3f 9a 66 f1 40 ae 76 9f 3f 11 0e 6e 40
       1.4110712 7.5437746 1.2458093 3.7196085
0001c0 09 c9 c9 40 50 b0 87 3f cb d3 e7 3f b3 e7 2a 40
       6.3057904 1.0600681 1.8111509 2.6703918
0001d0 cb 82 40 3e 56 29 0b 40 dd ec da 40 d5 9e 4d 41
       0.18799894 2.174398 6.841414 12.851277
0001e0 47 71 16 3f 69 f6 ad 3e 28 20 31 40 ec 5a 10 40
       0.587666 0.3397706 2.7675877 2.2555494
0001f0 41 fb 9c 3f 09 a4 b4 40 93 ac ca 3f 5f c7 bb 3d
       1.2264177 5.645024 1.5833915 0.091688864

bn1.running_var f4 [128]
000000 b0 31 d5 3f 21 b5 9c 40 8a eb 59 3f a4 65 87 3b
       1.6655788 4.8971105 0.8512503 0.0041319896
000010 77 1f 8e 41 07 ea 03 41 3c 36 01 41 50 50 16 40
       17.765364 8.244636 8.075741 2.348652
000020 89 7d e7 3e 3a 67 b3 3f 66 1f 51 40 27 67 d9 41
       0.45212963 1.4015877 3.2675414 27.175367
000030 2e 6f de 38 fe db 9c 40 c4 b8 ad 41 99 42 40 41
       0.00010606494 4.9018545 21.715218 12.016259
000040 ea 98 b4 40 3c 67 98 41 61 e0 62 40 09 44 cf 40
       5.6436663 19.050407 3.544945 6.477055
000050 91 0e dc 40 04 00 00 00 27 b8 68 42 96 94 1d 41
       6.876778 6e-45 58.179836 9.848776
000060 1e b3 d1 41 41 42 77 41 e5 04 61 42 e1 35 91 41
       26.21246 15.453675 56.25478 18.151308
000070 37 a0 cc 41 aa eb 4b 42 ed 7e 60 42 62 67 b9 40
       25.57823 50.98014 56.12395 5.79387
000080 ab 74 ac 3f 71 4c aa 41 82 51 a7 40 d2 6f d9 41
       1.3473104 21.287325 5.2286997 27.1796
000090 83 fc 5f 42 3b 74 2d 40 06 1f 02 41 f6 11 88 3f
       55.996593 2.7102191 8.132574 1.0630481
0000a0 5f 7e ba 41 0c 1f 1f 40 a0 d7 03 41 bd 68 5c 3e
       23.311705 2.48627 8.240143 0.2152433
0000b0 fe af 3b 41 0d 50 38 40 9f 87 47 41 49 67 e0 40
       11.730467 2.879886 12.470611 7.012608
0000c0 40 81 3c 41 a0 8d ab 40 fb fc 94 41 92 a0 74 40
       11.781555 5.361038 18.623526 3.8223004
0000d0 32 5a 48 41 a1 28 85 40 be 56 2e 41 d4 6b 11 42
       12.52202 4.1612096 10.896177 36.3553
0000e0 66 cb 3d 42 b5 c8 f1 41 73 2a 3f 42 17 50 58 41
       47.44863 30.223001 47.791454 13.519553
0000f0 e3 34 fd 40 68 1b d1 3e 2e 14 87 40 98 db 12 3f
       7.912706 0.40841222 4.2212133 0.57366323
000100 de 25 ce 40 f6 85 a0 41 5b 5d e4 40 c4 5d 1e 42
       6.4421225 20.06541 7.136396 39.591568
000110 71 28 0d 40 95 18 ab 41 23 21 0a 41 21 5a 30 40
       2.2055933 21.387003 8.63309 2.755501
000120 d0 24 4d 41 5e ce 4d 41 ef 94 61 42 5b 3c 92 42
       12.821487 12.862883 56.395443 73.11788
000130 81 86 d4 41 95 27 1c 40 b6 7c ce 41 46 15 97 3f
       26.565676 2.439916 25.810894 1.1803367
000140 00 55 ef 40 f7 f3 c4 40 7c c4 a1 41 a9 be 2f 42
       7.479126 6.154781 20.22094 43.93619
000150 4f c9 4f 41 d6 cc ae 41 c5 8b 20 42 2d 94 36 42
       12.986648 21.850018 40.136494 45.644703
000160 d2 bc 8a 41 4b 60 4f 41 e2 5d 36 40 95 91 f0 41
       17.342197 12.961009 2.8494802 30.071085
000170 7d e8 2d 42 1d 77 83 41 4b 0c 20 42 61 fe 14 42
       43.47704 16.43316 40.012005 37.248417
000180 cc 33 f6 3f a2 38 ff 41 bc 75 62 41 20 be 64 3e
       1.9234557 31.902653 14.153744 0.22338152
000190 f8 f2 c7 41 ec 44 b2 40 82 da f1 40 2d 35 8e 41
       24.993637 5.5709133 7.5579233 17.775965
0001a0 73 2f 44 40 f8 01 6b 40 9b 45 30 42 a6 d7 9a 41
       3.065396 3.6719952 44.067974 19.355297
0001b0 90 fe 33 41 9a 73 0b 42 e9 1b 56 41 e0 68 ba 41
       11.249649 34.862892 13.381814 23.301208
0001c0 5d df 15 42 6f 77 db 40 90 83 5f 41 bd 2c 55 41
       37.46813 6.8583293 13.96962 13.323422
0001d0 41 57 7d 3f 0a 6b 75 41 cc e5 2d 42 89 4b 01 42
       0.98961264 15.338633 43.47441 32.323765
0001e0 05 d9 a3 40 5b be 01 40 2f 2e 93 41 f2 0a 13 41
       5.1202416 2.0272434 18.39755 9.190172
0001f0 45 e7 d5 40 b2 a7 a2 41 f4 c2 a8 40 ea 69 bf 3e
       6.684481 20.331882 5.273798 0.37385494

fc2.weight f4 [128, 128]
000000 b2 25 7f bd 07 c4 7d be 19 4a eb 3e 66 ca 88 3e
       -0.06229181 -0.2478181 0.4595497 0.26716918
000010 72 c4 d9 bd fa 44 2b b9 dd 8a c7 bd aa 06 b1 3e
       -0.10633172 -0.00016333527 -0.09743283 0.34575397
000020 a0 de 8c be 2a ed 43 be 57 6f 5c be f1 2f 2b 3e
       -0.275136 -0.1913344 -0.21526848 0.16717507
000030 f0 73 86 bd 77 5b 31 bc a5 c1 3f 3e d8 5b c6 be
       -0.06565082 -0.01082503 0.18726213 -0.38741946
000040 81 72 1f 3e 8c 4f c1 3d 48 7f da bd 01 84 7d bd
       0.15571024 0.094390005 -0.10668808 -0.061893467
000050 e3 90 a1 be 9a f6 5b 3d 02 26 2d bc da 63 3b be
       -0.31555852 0.053701974 -0.010568144 -0.18299809
000060 b0 eb a7 3d 98 bf 7e 3d a9 87 bf 3e 55 c4 f2 bd
       0.08199251 0.062194437 0.37408188 -0.118538536
000070 2d c6 d1 3c ec 3c 01 3e 23 86 39 3d 69 67 c3 3e
       0.025607193 0.12620896 0.04529394 0.38164833
000080 46 dd f8 be 54 8c 92 be 57 63 0b 3c 6a 93 29 3d
       -0.48606318 -0.28622687 0.008507571 0.04140035
000090 6e 5d aa bd 99 26 b2 be e1 85 76 3d b7 3e 19 bd
       -0.083186015 -0.34795073 0.06018627 -0.037413325
0000a0 00 45 0c bf bf 26 1b be 12 60 92 be 10 6a d9 be
       -0.54792786 -0.15151499 -0.2858892 -0.42463732
0000b0 83 77 05 3e 01 c5 b3 be d8 10 a9 be 1f 4f f9 bd
       0.13033871 -0.3511124 -0.33020663 -0.12173294
0000c0 63 0e 2f bd f6 d5 11 3e c1 18 81 be 29 3e 0e 3e
       -0.04273833 0.14241776 -0.25214198 0.138909
0000d0 a6 20 95 bc 16 84 da 3d bc 79 b9 3d 66 52 cb 3c
       -0.018204045 0.10669725 0.09056422 0.024819564
0000e0 fd 44 74 3e 6f 85 cd 3d 55 6a a8 be e0 5a 8f 3e
       0.23854442 0.10035216 -0.32893625 0.2799902
0000f0 6c b4 9f bc 76 92 78 3e 37 3b 7b 3d 14 e8 2b 3d
       -0.019495212 0.2427462 0.06133577 0.041969374
000100 83 3a 15 be df 70 10 3e 0e d1 37 bd 79 51 b2 3d
       -0.14573102 0.14105557 -0.044877104 0.08706946
000110 a5 ea 61 bd 2c 37 98 bc 3f 55 02 be 50 f3 c9 3c
       -0.055155415 -0.018580996 -0.12727831 0.024652153
000120 7e a5 ed 3d 69 42 82 3e 02 94 2d 3e 52 7b c9 3d
       0.11603831 0.25441292 0.16950992 0.098379746
000130 0f a2 42 3e f1 7c 29 be c4 22 f0 bd 9c aa 8e 3b
       0.19007133 -0.16551568 -0.11725381 0.0043538343
000140 17 3e de 3c 67 4d 77 be 05 5f df bd 40 bb 85 bd
       0.027129216 -0.2415062 -0.109067954 -0.06529856
000150 07 f2 58 bd 8d 9f 82 be f6 db a2 be ee 51 59 3e
       -0.05296519 -0.25512353 -0.31808442 0.2122266
000160 57 c0 04 bf 5b 94 6f 3d 34 6b 9f be 45 87 bd 3d
       -0.5185599 0.058491092 -0.31136477 0.09254316
000170 29 ca f1 3d 82 cf 41 3d 48 aa 59 be 1d e3 25 be
       0.11806137 0.047317035 -0.21256363 -0.16199918
000180 40 37 9d be 55 6d 77 be 4f 20 de bd 5d 6e 3e 3e
       -0.30706215 -0.241628 -0.10846006 0.18596788
000190 ae 48 af be 03 1b 38 3c 36 7a 51 be 57 c0 1a 3e
       -0.34235138 0.011236909 -0.20456776 0.15112434
0001a0 c0 6b b7 bb f9 25 f0 3e 39 b2 e8 3d 5e a5 79 be
       -0.0055975616 0.4690397 0.11362118 -0.24379489
0001b0 2c d3 73 3e 25 70 3f bd 9b e1 fb 3c 07 14 e5 be
       0.23811024 -0.04673781 0.030747226 -0.44741842
0001c0 d9 fc 4f 3e 91 8a 35 3e 8e 80 03 3e dc c8 a4 be
       0.20311297 0.1772864 0.12842008 -0.32184494
0001d0 29 b4 c2 bd e6 63 f9 bd aa 23 04 3d 06 9c 25 3e
       -0.09507019 -0.12177257 0.032260574 0.161728
0001e0 33 1b 69 3b 97 7a f5 3c 2c 6a 5d bd 9f 08 04 3e
       0.003556919 0.029965682 -0.05405633 0.12893914
0001f0 0a 20 8b be 1d 8d b1 bd 2f e6 87 be e3 3d a3 3e
       -0.2717288 -0.08669493 -0.26542804 0.31883153
000200 c6 07 06 3e 14 40 c4 be 4e 92 2d 3f 1d 56 b5 be
       0.13088903 -0.38330138 0.6780137 -0.35417262
000210 6e 19 c2 3e d3 bf 3f be fc 3b aa bd f1 d9 47 bc
       0.37910026 -0.18725519 -0.08312222 -0.012197957
000220 f4 b6 7a 3d eb 6d 95 be 26 d4 95 3c cd b8 29 3e
       0.061209634 -0.29185423 0.018289637 0.16574402
000230 91 11 01 3e 2b 88 54 3d 57 80 1b 3d 9f c5 3d 3e
       0.12604357 0.051887672 0.03796419 0.18532418
000240 1a b6 72 be 89 cf 83 3d 1a 56 ac bd 3d ef 68 bb
       -0.23702279 0.064360686 -0.0841486 -0.0035542988
000250 d4 11 b3 be 8a 90 94 be 88 b2 9c 3e 3d d0 e1 bb
       -0.3497454 -0.29016525 0.3060496 -0.006891279
000260 3d ef e7 3d 93 43 85 3d df af a1 3c 95 75 b2 3e
       0.11324928 0.065070294 0.019737182 0.34855333
000270 77 aa eb 3d f4 e5 93 be ce 6f 3d 3d 9b e1 72 bc
       0.11507123 -0.28886378 0.046249203 -0.014824296
000280 a7 a5 1c be ba b8 03 3c 07 a6 9f 3c 6e 63 34 3e
       -0.15297566 0.008039648 0.019488348 0.17616054
000290 72 7c f9 3c 4d 5d b8 be d0 0e 66 be 93 18 40 3c
       0.030454848 -0.36008683 -0.22466588 0.011724609
0002a0 3a 99 90 3d c7 7b 36 3d 9e 72 99 bd bc 48 31 3d
       0.07060476 0.044551637 -0.074925646 0.043282256
0002b0 e6 8c 07 bc b0 12 39 3e 22 9f e0 bd 40 52 af 3e
       -0.008273339 0.18073535 -0.10967852 0.3424244
0002c0 c9 3b 82 3e ff d6 30 3d 25 41 77 bd 30 f2 82 3e
       0.25436237 0.043173786 -0.06036486 0.255754
0002d0 dc 01 9d 3d 78 86 4a be 63 1a a5 3c 6e da a8 3e
       0.0766637 -0.19777858 0.020154184 0.3297915
0002e0 52 c8 f2 3d 0f 86 d4 3d e6 f4 a2 3c 33 b3 6f be
       0.11854614 0.10377132 0.019892167 -0.23408203
0002f0 19 9d 5c 3e 61 75 5e bd 57 35 23 3f 02 f2 7f be
       0.21544303 -0.05431116 0.63753265 -0.24994662
000300 83 a1 ae bc f7 a9 68 be 97 1f 55 be cf c4 dc bb
       -0.02131725 -0.22721086 -0.20812832 -0.0067373286
000310 d7 75 0a bd 14 3a e9 3d ce c1 81 bd a3 24 f3 3d
       -0.033803787 0.11388031 -0.063357934 0.11872222
000320 3c 6a 20 bd f4 c8 63 be 76 93 6b 3e 7c ec 13 3d
       -0.039163813 -0.22244626 0.2300547 0.0361142
000330 f4 c6 28 3e 04 a7 af bb 44 51 6a 3d 71 88 f9 3c
       0.16482145 -0.005360486 0.057206407 0.030460568
000340 5e 36 96 3e 65 ca 18 3f 87 dd 43 3e 63 54 06 3e
       0.29338354 0.5968383 0.19127475 0.13118128
000350 5b 07 25 3d ea 4e 2d bd 88 45 5b 3e 09 83 bb be
       0.040290218 -0.042311586 0.21413243 -0.3662341
000360 f2 ac a3 3e 5b 05 18 3f 45 dc 29 3e 79 11 94 be
       0.31967884 0.5938317 0.16587932 -0.2891958
000370 85 50 92 be b1 db c8 bc 82 19 40 3e be c9 cd 3c
       -0.28577057 -0.02451882 0.1875973 0.025120612
000380 25 c1 57 3e 81 e4 3a 3e 6e 48 2d 3d b3 2b 8f 3e
       0.21069773 0.1825123 0.042305402 0.27963027
000390 89 65 45 3e 7b e0 77 bd e2 2d 35 be 24 f3 55 be
       0.19277014 -0.060516816 -0.17693284 -0.20893532
0003a0 60 3a 6b 3d d8 09 1b 3f 2a ef ab be 88 13 f1 3e
       0.057428718 0.60561895 -0.33580905 0.47085214
0003b0 d7 15 2b 3d 65 06 d5 3d 2c 3f ef bb 7a c5 5e bd
       0.041768875 0.1040161 -0.007301232 -0.054387547
0003c0 d4 c9 a1 3d 5b 33 61 be 82 71 94 be c4 1e 81 be
       0.07899824 -0.21992247 -0.2899285 -0.25218785
0003d0 48 3c 41 3e 70 7f de 3e a5 72 45 be 48 45 58 bc
       0.18870652 0.43456602 -0.19282015 -0.013200112
0003e0 d1 26 e7 bc 12 48 f6 3d 9c f1 1b 3e 01 22 8e be
       -0.028216751 0.12025465 0.15228885 -0.27760318
0003f0 c9 37 5c 3e 1b db 23 bf 28 9a ac 3e 9d 66 93 3e
       0.21505655 -0.64006203 0.33711362 0.28789225

fc2.bias f4 [128]
000000 3c 04 4d be 9f 45 ad 3d 76 6b 09 be 3c c6 91 be
       -0.20021147 0.08460545 -0.134199 -0.28471553
000010 01 99 34 be d8 f7 6d be 64 c9 18 be 6b aa 3d be
       -0.17636491 -0.23239076 -0.14920574 -0.1852204
000020 ae 49 ee bd a8 84 06 be 2b f8 59 bd d2 bb 8b bc
       -0.11635147 -0.13136542 -0.053215187 -0.017057333
000030 c6 ec 2f be 4c 25 cd bd 86 22 e2 bd 4e d3 10 be
       -0.17180166 -0.100168794 -0.11041741 -0.14143106
000040 1b da 78 be 09 78 02 3e bf c4 05 3d 2f 71 53 be
       -0.2430195 0.12741102 0.032658335 -0.20648645
000050 89 c8 97 be 4d 68 65 3d 35 56 89 be fc 37 6e be
       -0.29645184 0.056007672 -0.26823583 -0.23263544
000060 bf 7e 4d be 32 43 1c be e4 e1 81 be 12 3d 23 be
       -0.20067881 -0.15260008 -0.25367653 -0.15941265
000070 bf 75 8a be 61 b5 0e be f0 69 0a 3e 04 b3 3e be
       -0.27042958 -0.13936378 0.13516974 -0.18622977
000080 fd aa 85 be ba 34 98 be a7 3c 35 be 6e 31 98 3d
       -0.26107016 -0.29727727 -0.17698918 0.07431303
000090 05 08 54 be f8 83 55 be 58 3c 11 be 12 c3 6d 3d
       -0.20706184 -0.20851123 -0.14183176 0.05804736
0000a0 f9 1f 5e be 98 a1 ce bc c6 f6 17 be b9 54 4b be
       -0.21691884 -0.025223538 -0.1484023 -0.19856538
0000b0 f4 d2 76 bc 56 9b 20 be 2e 66 52 3e 3f de 87 bd
       -0.015064944 -0.15684256 0.20546791 -0.06634187
0000c0 28 b6 6d 3e 7a 19 96 bd f9 51 86 be 08 87 20 be
       0.23214018 -0.07329078 -0.26234415 -0.1567651
0000d0 c2 b4 de bd cc 80 46 be 32 a1 88 bd 96 3a 2a be
       -0.108743206 -0.1938507 -0.066713706 -0.16623911
0000e0 02 cd 7a be 7b b1 3d be d3 9f ec bd 3d 83 20 be
       -0.24492267 -0.18524735 -0.115539216 -0.15675063
0000f0 dc f2 52 bd 4c d5 81 be 42 f5 07 be 34 13 50 be
       -0.05150114 -0.25358045 -0.13277152 -0.20319825
000100 37 1b 9b bd ee 8b 17 be 3c 34 5f be 43 a8 d2 bd
       -0.0757355 -0.14799473 -0.2179727 -0.102859996
000110 34 1c d3 bd cc 80 13 be a4 ec 18 be 1e 4b a0 bd
       -0.10308114 -0.14404601 -0.14934021 -0.078268275
000120 52 cb 41 be b7 11 a8 bd e2 a9 19 be 5d 3f 37 bd
       -0.18925217 -0.08206504 -0.15006211 -0.044738162
000130 56 1f 8a bd e6 87 4e be 3e 26 f2 bd 99 6e 42 be
       -0.06744258 -0.20169029 -0.118237 -0.18987502
000140 02 c9 3f be 84 9b 62 be da 1e fc bd 99 f8 ac bd
       -0.18729022 -0.22129637 -0.12310572 -0.08445854
000150 88 1f 13 be 42 bb db bd c3 18 69 be 7b 16 b2 be
       -0.14367497 -0.10729076 -0.22763352 -0.34782776
000160 fa ed 7f be 2e 9a 94 bd 2a 64 7e be 77 83 a1 be
       -0.24993125 -0.0725597 -0.24842897 -0.31545612
000170 a9 aa 5e be 79 86 24 bc 20 cc f4 bd a4 e9 c6 bd
       -0.21744789 -0.010041826 -0.11952996 -0.09712532
000180 78 45 1f bd 1c 5f 01 be 07 73 66 be df 14 10 bd
       -0.03888461 -0.12633938 -0.22504817 -0.035176154
000190 c8 bb 42 3d 85 3d 83 3e 17 f9 38 be a1 da 07 be
       0.047542363 0.25632873 -0.1806377 -0.13266994
0001a0 92 31 a7 be d9 91 48 be e8 5a 2c 3d 91 83 59 be
       -0.32655007 -0.19586886 0.042078882 -0.21241595
0001b0 69 fa 35 be 12 29 04 3f c1 2e aa 3d 12 85 67 be
       -0.17771305 0.5162517 0.08309699 -0.22609356
0001c0 63 f0 be bd 8a 72 5e be 88 c1 e8 3d 36 84 25 be
       -0.09323194 -0.2172338 0.11365038 -0.16163716
0001d0 34 0d 38 be 14 dd 02 bd 57 b0 13 be 9a 49 01 3f
       -0.17973787 -0.031949118 -0.14422737 0.5050293
0001e0 92 d3 1a be c7 a8 51 be 4e 85 1f be 4f fe 0b be
       -0.1511977 -0.2047454 -0.15578195 -0.1367123
0001f0 f2 3e 34 be b7 df 14 be b2 55 6b 3e 06 19 52 be
       -0.17602137 -0.14538465 0.22981909 -0.20517358

bn2.weight f4 [128]
000000 51 f6 9f 3f f8 45 ee 3e 8f 82 ae 3f c9 ca b5 3d
       1.2497045 0.46537757 1.3633593 0.08876569
000010 05 36 8d 3f 2a 53 72 3f e5 c1 5f 3f aa d4 93 3f
       1.103211 0.9465815 0.87405235 1.1549275
000020 76 57 8e 3f 2b 50 75 3f 5b bc 9b 3f 68 ae b9 3f
       1.1120441 0.9582545 1.2166857 1.450635
000030 67 82 de 3f 8d a2 61 3f 39 24 d9 3f c7 0f 28 3f
       1.7383546 0.8813866 1.6964179 0.65649074
000040 fd 8b 1c 3f f6 27 80 3f c8 5e 91 3f ca 60 67 3f
       0.61151105 1.0012195 1.135705 0.90382063
000050 64 7e af 3f 34 d8 af 3f 12 51 2f 3f 06 17 38 3f
       1.3710446 1.3737855 0.6848308 0.7191013
000060 55 e8 29 3f 80 8d 4f 3f 29 15 9a 3e 6f 41 df 3f
       0.66370136 0.81075287 0.3009427 1.7441844
000070 16 64 85 3e 4e 06 90 3f 59 cd 49 3f 29 3e 5e 3f
       0.26052922 1.1251924 0.7882896 0.868136
000080 f8 a7 8a 3f c9 4a 65 3f bc 03 d5 3f 98 45 93 3f
       1.083251 0.8956724 1.6641765 1.1505613
000090 2c 2f 82 3f 1c 64 19 3f eb 8a c9 3f e6 14 99 3f
       1.0170646 0.5991838 1.5745519 1.1959503
0000a0 cc 2c 59 3f 82 ab d5 3f 48 c2 84 3f cd 0f f6 3e
       0.8483398 1.6692965 1.037179 0.4805893
0000b0 53 81 95 3f a6 40 85 3f 98 5a b6 3f 55 d6 c4 3f
       1.1680092 1.0410354 1.4246397 1.5377909
0000c0 1e 8a 8f 3f e5 0e a5 3f 6b 97 9a 3f 4f 63 94 3f
       1.1214025 1.289517 1.2077459 1.1592807
0000d0 b7 ed 8f 3f 6a 01 89 3f e1 a4 b4 3f 37 17 34 3f
       1.124442 1.0703557 1.4112817 0.70347923
0000e0 82 aa 8d 3f f8 8d 84 3f 1c 46 30 3f 5a f1 6d 3f
       1.106766 1.0355825 0.6885698 0.929464
0000f0 b4 7e a7 3f cb 50 62 3f 4a dc ba 3e 60 c0 c4 3f
       1.3085542 0.8840453 0.36496192 1.5371208
000100 4e 40 9e 3f 19 50 91 3f d4 f2 a4 3f df 8e c1 3f
       1.2363374 1.1352569 1.2886605 1.5121726
000110 88 00 76 3f 01 fe ac 3f 68 f9 98 3f 10 99 b8 3f
       0.9609456 1.3515016 1.1951113 1.4421711
000120 f6 0b e8 3f 03 c2 64 3f 66 81 d8 3e cb e4 81 3f
       1.812865 0.8935854 0.42286223 1.0147947
000130 50 3f ac 3e d7 94 60 3f 00 be a0 3f 65 86 5b 3f
       0.33642054 0.8772711 1.2557983 0.85751945
000140 2d 75 68 3f dc 9f 33 3f 90 be 82 3f 5f dc 6c 3f
       0.90803796 0.701658 1.0214405 0.9252376
000150 73 ea ad 3f 55 67 ab 3f 57 c7 60 3f 55 56 6f 3f
       1.3587173 1.339091 0.8780417 0.9349111
000160 00 b3 00 3f eb 1b 24 3f 4c 20 9d 3f 51 53 7a 3f
       0.5027313 0.641051 1.2275481 0.9778338
000170 a1 f0 e7 3f 88 2d e1 3f cc 6f 11 3f 3c 2a 9c 3f
       1.8120309 1.759202 0.56811213 1.2200389
000180 0c 2c ab 3f 14 ce ee 3f 48 e3 f6 3e 94 14 7c 3f
       1.3372817 1.865664 0.48220277 0.984689
000190 35 3b 2b 3f 96 41 40 3f 1b f8 a1 3f 5e a4 19 3f
       0.6688722 0.75100076 1.2653841 0.6001643
0001a0 4b 42 56 3f 90 d1 85 3f 2e 7c bc 3f 6a c8 94 3f
       0.83694905 1.0454578 1.4725397 1.1623662
0001b0 69 14 b6 3f 39 83 84 3f 54 15 2b 3f 77 a6 26 3f
       1.4224979 1.0352546 0.6682942 0.65097755
0001c0 4f 1e d1 3f 72 fe 80 3f 34 c7 b4 3f 9e c7 58 3f
       1.6337374 1.007765 1.4123292 0.8467959
0001d0 92 1e e6 3f d9 2d 06 3f dc fb 82 3f 21 76 16 3f
       1.7978079 0.5241371 1.0233111 0.58774
0001e0 a6 6c 46 3f 22 ce 83 3e 22 70 10 3f 8d 9a 8b 3f
       0.77509534 0.25743204 0.564211 1.090654
0001f0 8a 18 87 3f 0f 89 c8 3c d1 01 7e 3e 3d fd 80 3f
       1.0554364 0.024479417 0.2480538 1.0077282

bn2.bias f4 [128]
000000 24 b6 96 3d 31 c6 b2 3d bc 94 47 3d 3b f8 5a bd
       0.07358959 0.08729208 0.04872583 -0.053459387
000010 86 9f fe 3d cf 2c 1d 3e 01 fc 6c bd c9 3d 01 be
       0.124327704 0.15349124 -0.057857517 -0.12621225
000020 4f c4 bf bd e4 b8 f3 bb 86 ed 71 3d a0 cb 47 be
       -0.09363615 -0.007437812 0.05906441 -0.1951127
000030 12 85 0a bd 40 45 db bd 36 e3 06 be 19 0a ba b9
       -0.033818312 -0.10706568 -0.13172612 -0.00035484208
000040 ae 34 2c be dc 36 0f bc 6f a3 de bd 90 ab f3 3c
       -0.1681697 -0.008741107 -0.10871016 0.029744893
000050 80 cd d7 bc 01 84 a8 3d 2a b3 11 3b c1 52 13 39
       -0.026343107 0.08228303 0.0022232034 0.0001404984
000060 99 12 ea bd 6b 9c 9d bd b6 d1 b9 bb 64 3f e1 bd
       -0.114293285 -0.0769585 -0.0056707514 -0.10998419
000070 77 7b b5 bb d3 a6 0e bc 81 f7 42 be 21 b7 83 be
       -0.0055384 -0.008706766 -0.19039728 -0.25725654
000080 b1 04 ff bc 40 fe 04 be 33 2f 4a 3d f1 9f a0 3d
       -0.031130167 -0.12987614 0.04936142 0.078430064
000090 17 d6 8e bd 3f c8 07 3e 65 c5 00 be 58 19 58 be
       -0.06974428 0.13259982 -0.125753 -0.21103418
0000a0 1b 43 56 bd 73 7d 0a 3e 63 c6 be 3d ea 57 e5 bd
       -0.05231009 0.13524418 0.09315183 -0.11198409
0000b0 7e 0f 4d 3e c6 e8 40 be 5e c2 e3 3d dc a0 f7 3a
       0.20025441 -0.18838796 0.11121057 0.0018892544
0000c0 73 f7 9d bd 0e 4b db 3d 1e 2d c5 bd 22 48 c9 bd
       -0.07713213 0.10707675 -0.09627746 -0.09828211
0000d0 6e b5 c0 3c 19 12 15 3e 8e 85 02 3b 13 fd 80 be
       0.023524012 0.14557685 0.001991603 -0.2519308
0000e0 1c 6d 57 bd 62 f7 61 3d 6e 0b b2 bd f5 5b 04 be
       -0.05259429 0.055167563 -0.08693586 -0.12925704
0000f0 d9 fb 51 3d 9b 21 9c 3d 77 2d 95 3a 9e fc 2f bd
       0.05126557 0.07623597 0.0011381347 -0.042965524
000100 72 fb 0a bd ab dd e7 bd 94 a0 61 be c3 bc 5b 3d
       -0.033931203 -0.11321577 -0.22033912 0.053646814
000110 8b bf b9 3d 6e 2f 52 3e 59 e9 09 be 3b bc f1 bc
       0.09069737 0.20525905 -0.13467921 -0.0295087
000120 8e c6 98 38 7d 42 54 3e 75 73 a5 39 54 aa 9f 3b
       7.2849085e-05 0.20728488 0.00031557275 0.0048725996
000130 c8 e6 1a be 4d 78 83 bc 72 a0 4e 3e 06 1d 62 3e
       -0.15127099 -0.016048575 0.20178393 0.22081384
000140 f7 12 2a be 93 98 e9 bd 6c d8 45 bb 57 b0 f0 ba
       -0.16608797 -0.11406054 -0.0030188812 -0.00183631
000150 6b 0d d1 bd 2d db c0 bd 65 74 e7 bd 0c f1 8f 3c
       -0.102076374 -0.094168045 -0.11301497 0.017570995
000160 83 e6 20 be 2f a9 26 bb df b6 02 be 49 c8 25 3d
       -0.15712933 -0.002543043 -0.12765072 0.04047421
000170 2c af 2a b8 95 45 19 bb 42 a9 32 bd 64 8e 98 3d
       -4.06943e-05 -0.0023387421 -0.043618448 0.07449034
000180 48 92 f3 3a bf cd ce 3d 95 37 f2 bc 94 da 2f be
       0.0018583024 0.10097837 -0.02956752 -0.17173225
000190 9a 61 54 be af d4 08 3e 3c ef 68 3d 74 57 3e be
       -0.20740357 0.13362382 0.056868777 -0.18588048
0001a0 4d 9f 0c 3e 82 c5 2a bb d5 fa 2b 3d 09 bd e2 3d
       0.13732643 -0.0026057665 0.04198726 0.11071212
0001b0 26 f2 2a 3e d0 d3 52 bd 06 fb 6a be 9e 72 b2 bb
       0.16693935 -0.05147153 -0.2294732 -0.0054457923
0001c0 74 08 37 be a5 a4 16 3e 14 34 ca bd 79 e4 cc bc
       -0.17874318 0.14711244 -0.09873214 -0.025011288
0001d0 38 c2 fe 3c 54 e3 a0 bd 5e 2c af bd f5 c4 0b 3d
       0.03109847 -0.078558594 -0.08553384 0.03412338
0001e0 f9 02 5d 3c 3e a3 cd b6 a3 a0 5f bd 81 8c 26 bc
       0.013489478 -6.12848e-06 -0.054596554 -0.010165335
0001f0 40 3f 54 bd c4 47 d5 38 aa f4 05 be 74 6b 51 bd
       -0.051818132 0.00010169999 -0.13081613 -0.051127866

bn2.running_mean f4 [128]
000000 25 c7 dd 3d 5a 95 2f 40 fa 3f 8a 3f 04 00 00 00
       0.108289994 2.7434907 1.0800774 6e-45
000010 c1 b2 86 3e 36 bd 36 3d 04 00 00 00 16 92 4e 3d
       0.26308253 0.04461404 6e-45 0.050432287
000020 04 00 00 00 04 00 00 00 c2 97 d3 3d 7f 13 45 3d
       6e-45 6e-45 0.1033168 0.048114296
000030 4d b5 c7 3e 04 00 00 00 04 00 00 00 04 00 00 00
       0.3900551 6e-45 6e-45 6e-45
000040 04 00 00 00 10 9f dd 3f bd 70 7e 3f 25 c5 85 3e
       6e-45 1.7314167 0.99390775 0.26126972
000050 b9 92 f8 3d a5 61 0f 3f 04 00 00 00 04 00 00 00
       0.1213736 0.5600837 6e-45 6e-45
000060 04 00 00 00 3d 12 84 3f 04 00 00 00 04 45 e0 3d
       6e-45 1.0318066 6e-45 0.10950664
000070 04 00 00 00 04 00 00 00 7a af 9c 3f 16 99 1c 3e
       6e-45 6e-45 1.2241051 0.15292773
000080 04 00 00 00 74 20 9f 32 65 c4 52 3e ca 63 9d 3f
       6e-45 1.8524794e-08 0.20582731 1.2296078
000090 0b d7 c8 3d ba 73 96 3c a6 f4 a3 3d c3 ab 1a 3f
       0.09806641 0.01836573 0.08005647 0.6041834
0000a0 7a 2a 2c 3d cb 18 e4 3e 04 00 00 00 4d 6f aa 3c
       0.042032696 0.44550166 6e-45 0.020805025
0000b0 db 73 f6 3e ed ad be 3d df eb 8d 3f 04 00 00 00
       0.48135266 0.093105175 1.1087607 6e-45
0000c0 a0 3f d1 3f 84 e2 db 3e dc 7e 2b 3b 04 00 00 00
       1.6347542 0.42946255 0.0026168143 6e-45
0000d0 9f 77 92 3f 32 cc 36 3d 85 be 80 3f 39 60 ba 3e
       1.1442755 0.04462833 1.0058142 0.36401537
0000e0 04 00 00 00 33 45 57 3d b6 a7 9f 3e 04 00 00 00
       6e-45 0.052556228 0.3118264 6e-45
0000f0 1a 3c cb 3c b7 f3 83 3a 04 00 00 00 a3 39 2d 2f
       0.024808932 0.001006714 6e-45 1.5754735e-10
000100 8f 70 bd 3d 04 00 00 00 54 37 9a 0a f2 6a e1 3e
       0.092499845 6e-45 1.4850473e-32 0.44026905
000110 b9 70 ce 3d 9b 30 68 3e 04 00 00 00 3b 75 36 3f
       0.10080094 0.22674792 6e-45 0.7127263
000120 04 00 00 00 a1 13 99 3c 04 00 00 00 5e 40 7a 3e
       6e-45 0.018686118 6e-45 0.24438617
000130 04 00 00 00 04 00 00 00 70 44 68 3e 04 00 00 00
       6e-45 6e-45 0.22682357 6e-45
000140 82 9c 82 3d 99 38 c0 3d 04 00 00 00 04 00 00 00
       0.06377508 0.09385795 6e-45 6e-45
000150 e2 16 19 3e 5d 66 1b 37 04 2d 84 3d ff e2 42 3a
       0.14950135 9.262553e-06 0.064538985 0.0007434338
000160 04 00 00 00 98 0d 10 3e e7 4c be 3d cb ca c7 3d
       6e-45 0.14067686 0.09292012 0.097554766
000170 04 00 00 00 2e 6e 6e 3f 04 00 00 00 47 95 6d 3e
       6e-45 0.9313687 6e-45 0.23201476
000180 04 00 00 00 56 9b fa 3d 04 00 00 00 04 00 00 00
       6e-45 0.12236659 6e-45 6e-45
000190 e8 58 a1 3f 29 ca 42 40 04 00 00 00 04 00 00 00
       1.2605257 3.0435889 6e-45 6e-45
0001a0 04 00 00 00 04 00 00 00 70 34 4f 3e 97 fd 75 3e
       6e-45 6e-45 0.20234847 0.24022518
0001b0 67 b3 3a 3e aa 68 23 40 e1 d5 d2 3e 04 00 00 00
       0.18232499 2.5532632 0.41178802 6e-45
0001c0 04 00 00 00 04 00 00 00 93 8a 09 40 04 00 00 00
       6e-45 6e-45 2.149083 6e-45
0001d0 04 00 00 00 82 13 91 3d 04 00 00 00 0e 6e 52 40
       6e-45 0.07083799 6e-45 3.2879672
0001e0 04 00 00 00 04 00 00 00 6e 30 cc 3e 77 30 87 3d
       6e-45 6e-45 0.398807 0.06601041
0001f0 04 00 00 00 04 00 00 00 21 62 d2 3f e5 3f d8 3e
       6e-45 6e-45 1.6436197 0.42236248

bn2.running_var f4 [128]
000000 f4 c9 61 3e 89 d4 7a 40 bf 2e 06 40 04 00 00 00
       0.22049695 3.919222 2.0966032 6e-45
000010 19 17 c5 3e d7 ea df 3d 04 00 00 00 78 52 d4 3d
       0.38494185 0.10933464 6e-45 0.10367292
000020 04 00 00 00 04 00 00 00 21 02 0f 3e b7 f7 35 3d
       6e-45 6e-45 0.13965656 0.044425692
000030 16 c6 3a 3f 04 00 00 00 04 00 00 00 04 00 00 00
       0.72958505 6e-45 6e-45 6e-45
000040 04 00 00 00 f3 82 4f 40 70 8d 36 40 7e 8f d1 3f
       6e-45 3.2423675 2.8523827 1.6371915
000050 bf 40 bd 3e 95 36 94 3f 04 00 00 00 04 00 00 00
       0.3696346 1.1579157 6e-45 6e-45
000060 04 00 00 00 6c 83 1c 40 04 00 00 00 e4 d0 83 3e
       6e-45 2.4455214 6e-45 0.25745308
000070 04 00 00 00 04 00 00 00 20 f5 2b 40 20 90 aa 3e
       6e-45 6e-45 2.6868362 0.33313084
000080 04 00 00 00 fe 4f 53 31 65 46 62 3f a2 1a 77 40
       6e-45 3.0750011e-09 0.88388664 3.8610005
000090 df dc 2b 3e 03 cf bf 3c c2 e3 d1 3d b1 ff 32 3f
       0.16783474 0.02341414 0.102485195 0.69921404
0000a0 5d 27 42 3d 12 51 32 3f 04 00 00 00 90 20 ee 3c
       0.04740082 0.69654953 6e-45 0.029068261
0000b0 09 e1 b4 3f 6f 2a 45 3e 5a 50 b8 3f 04 00 00 00
       1.4131175 0.19254468 1.4399521 6e-45
0000c0 f8 31 3d 40 9a 99 9b 3f f2 9a 25 3b 04 00 00 00
       2.9561749 1.215625 0.0025269357 6e-45
0000d0 ce 38 22 40 ea ad bf 3d 59 29 0b 40 a3 1e 62 3f
       2.534717 0.09359343 2.1743987 0.88328
0000e0 04 00 00 00 98 6e af 3d cd f5 56 3f 04 00 00 00
       6e-45 0.08566016 0.8396881 6e-45
0000f0 91 59 d0 3c ad d6 2c 3a 04 00 00 00 3f e3 09 2e
       0.025433334 0.00065932685 6e-45 3.135203e-11
000100 4f 0c a7 3d 04 00 00 00 9c 61 2c 09 14 94 1c 3f
       0.081566446 6e-45 2.0749643e-33 0.6116345
000110 96 3a 03 3e 55 a2 23 3f 04 00 00 00 1a 36 b7 3f
       0.12815318 0.63919574 6e-45 1.4313385
000120 04 00 00 00 a0 0e b9 3c 04 00 00 00 bf 87 85 3e
       6e-45 0.022589982 6e-45 0.2608013
000130 04 00 00 00 04 00 00 00 c5 22 d3 3e 04 00 00 00
       6e-45 6e-45 0.41237465 6e-45
000140 65 11 ab 3d 12 df 48 3e 04 00 00 00 04 00 00 00
       0.08352927 0.19616345 6e-45 6e-45
000150 5d 51 57 3e 34 7e 53 35 2f 46 5b 3e ad 2f 58 3a
       0.21027131 7.8787275e-07 0.21413492 0.00082468503
000160 04 00 00 00 13 28 66 3e c4 49 38 3e 77 1c 21 3e
       6e-45 0.22476225 0.1799689 0.15733515
000170 04 00 00 00 7d 85 1e 40 04 00 00 00 81 1f 30 3f
       6e-45 2.4768975 6e-45 0.6879807
000180 04 00 00 00 14 fc 14 3e 04 00 00 00 04 00 00 00
       6e-45 0.14549285 6e-45 6e-45
000190 8b c5 dd 3f b2 65 79 40 04 00 00 00 04 00 00 00
       1.732591 3.896832 6e-45 6e-45
0001a0 04 00 00 00 04 00 00 00 c1 5b 31 3e 74 be 26 3f
       6e-45 6e-45 0.17320158 0.6513436
0001b0 33 8f 93 3e 32 b0 8c 40 cb 07 af 3e 04 00 00 00
       0.2882019 4.396508 0.34185633 6e-45
0001c0 04 00 00 00 04 00 00 00 44 5a a9 40 04 00 00 00
       6e-45 6e-45 5.2922688 6e-45
0001d0 04 00 00 00 76 f5 05 3e 04 00 00 00 4e f1 86 40
       6e-45 0.13081917 6e-45 4.216956
0001e0 04 00 00 00 04 00 00 00 2a 33 f2 3e 4f ba be 3d
       6e-45 6e-45 0.4730466 0.09312879
0001f0 04 00 00 00 04 00 00 00 fd 8a 9c 3f bb 6e 8e 3f
       6e-45 6e-45 1.2229916 1.1127542
