p3_collab-compet/actor.pth (torch_old, 19947 bytes, 14 tensors)

fc1.weight f4 [23, 24]
00000000: 28ec 49bd 9783 1c3e ca0b 40be 4d70 253e
00000010: 70a7 41bc cd3f 273e 0acc cbbd fdf9 28be
00000020: ab8e 423e c7ca 533e a051 903c 45d0 43be
00000030: 8050 af3c 4cca 343d aea9 28be 6071 9c3b
00000040: 4436 45bd f163 083e d053 103c 9010 09bd
00000050: 408a 663b a833 0fbe b0bf 943c 7bc6 153e
00000060: 7baa 043e edd8 1d3e a879 9dbd 2cdb 743d
00000070: 099f d1bd 7926 493e 3263 16be ff6f 023e
00000080: 9f45 393e c2a6 ea3d f741 2e3e 5a95 f2bd
00000090: 28fb 04bd c21d e43d 80d4 cb3a 0d7b 3bbe
000000a0: c0a9 98bd ce28 e13d 4045 05bc c456 2fbd
000000b0: 5139 02be e615 c13d 12e2 2cbe 022f 53be
000000c0: faac dfbd fa1b 19be 6da2 423e a038 b3bb
000000d0: f498 7d3d 2dcc 463e 5cf8 563d 3436 573d
000000e0: 8608 8ebd 14d5 7d3d 10f5 f63c 35b8 20be
000000f0: 3f4e 233e 15c3 53be 5e37 cf3d 756a 0f3e
00000100: f76a 0ebe 0fbc b5bd d4a8 6ebd 7fdd 3d3e
00000110: 7439 23bd 592f d8bd 800b 2bbb ffb1 273e
00000120: 2dac 013e 634a 273e 3f3a 3e3e d551 3abe
00000130: 7211 53be c448 703d ba8d ea3d 7120 313e
00000140: dec8 44be 21a5 353e 2c11 263d 702f 303c
00000150: 5ae5 3abe 0c38 06bd 345c 87bd a07c 95bd
00000160: 0c2e 503d a063 b4bc d023 a0bc e001 f63c
00000170: 4b57 023e 3074 933c 0535 513e 8450 b4bd
00000180: a43b 193d 31dc e3bd 80ad 80bd 4583 253e
00000190: 9266 f53d e2bc f7bd 54e5 6a3d a0fb bf3c
000001a0: 3700 143e 0088 cb3c 8852 013d f561 52be
000001b0: aca7 7a3d d1b5 d5bd 4461 283d 6c28 c4bd
000001c0: 630e 4b3e 2eba 18be fc24 20be f4e9 97bd
000001d0: 6767 0c3e f293 d53d 00a4 5039 fc5f 323d
000001e0: 17cb 023e 0024 f43c c905 1dbe f402 2cbd
000001f0: 461a d63d d738 52be 2545 1c3e fb8d 023e
00000200: cf20 bcbd 50ff 03be 8fc8 423e c05a 83bb
00000210: 5429 efbd 9d40 f5bd 14a1 9ebd 3010 493c
00000220: e0a0 c03b c36d 493e 3c23 5bbd 841d 663d
00000230: 305d b63c a108 1abe e43e 443d 1206 f03d
00000240: 3358 243e 602d fe3b 7003 a4bd 0c8b 9fbd
00000250: dcd4 21be 9205 07be a085 fe3c 850e 29be
00000260: d0f8 90bd 9cc8 5fbd 4651 cebd d436 1cbd
00000270: f598 3d3e d99b 003e 11e9 133e c277 1fbe
00000280: 0fb9 27be 5878 38bd 88ed 0fbe 2a88 d2bd
00000290: b78b e9bd aef2 923d c6cb e43d ac4a 2d3d
000002a0: 04c5 18be 9e6e 9c3d f771 283e 708c e8bc
000002b0: 6e47 88bd 65e5 3e3e 00cc 163a 4144 38be
000002c0: 4c41 3c3d d49b 553d c010 713b 7856 b93c
000002d0: 1aff c03d 7c70 38be 001e edb9 58bc 15be
000002e0: 707e 0b3d 3121 3b3e e0b0 d03c c0ed b4bd
000002f0: be6d a0bd fcfa 75bd 801a 8bbb 720e 933d
00000300: aa82 55be e6f2 d13d 76a7 d93d 9d3b 3c3e
00000310: ebea 473e af3a 12be 06b0 9c3d e0f1 3dbc
00000320: cf80 463e d05d d93c a2ee b93d eb97 363e
00000330: fcde 34be e983 e2bd 2e24 f03d 40f4 babc
00000340: 2bdf 273e 0013 cabb 9e6b 813d 60d1 81bd
00000350: d3b8 433e b442 2b3d 1638 bdbd f33c 03be
00000360: 4f0f 48be 0011 943c 761b 3dbe 20cb ecbb
00000370: 8767 3a3e aac3 ba3d 889e eabc 0b48 4dbe
00000380: f9d3 293e b482 1dbd f15a 1ebe 795e 1b3e
00000390: 9ffc 21be ca33 d03d 0b2a 263e 1b87 503e
000003a0: 01f1 2c3e 1062 5a3c 6e8e c6bd 1cc6 79bd
000003b0: 4498 17bd e50b 2e3e 44c9 4f3d 40b8 9dbd
000003c0: 13b3 4a3e c4c3 03bd ea17 19be 69d0 373e
000003d0: 43cd e4bd 47fe 233e 87c7 103e 1a36 893d
000003e0: ca7f d7bd bc86 003d a6da 9a3d 1014 80bc
000003f0: c061 3fbd 211a 343e e654 8cbd 000c 33bb
-0.04929748 0.15284573 -0.18754497 0.1615612 -0.011819705 0.16332932 -0.09951027 -0.16501613
0.18999736 0.20682822 0.017617047 -0.19122417 0.02140069 0.044138238 -0.16470978 0.0047742575
-0.048147455 0.13319375 0.008809045 -0.03346306 0.0035177618 -0.13984549 0.01815781 0.14626496
0.12955658 0.15414782 -0.0768922 0.05977933 -0.10235412 0.19643582 -0.14686278 0.12738036
0.18092965 0.11457588 0.17017351 -0.11844893 -0.032466084 0.11138488 0.0015551001 -0.18308659
-0.07454252 0.10994111 -0.008134186 -0.042807356 -0.12717177 0.09428005 -0.16883114 -0.20623401
-0.109216645 -0.14952078 0.19007273 -0.0054693967 0.061913446 0.19413824 0.052482948 0.052541927
-0.069352195 0.061970785 0.030146152 -0.1569527 0.15947817 -0.20679887 0.10117982 0.14005454
-0.13907991 -0.0887376 -0.058266476 0.18541525 -0.039849713 -0.10555906 -0.0026099384 0.16376494
0.12663336 0.1633697 0.18576907 -0.18195279 -0.20612124 0.058663145 0.114528134 0.17297532
-0.1921725 0.17738773 0.04054372 0.0107534975 -0.18251553 -0.032768294 -0.06609383 -0.07299161
0.050825164 -0.022020161 -0.019548327 0.030030191 0.12728612 0.017999738 0.20430382 -0.0880442
0.037410393 -0.111259826 -0.062830925 0.16163357 0.11982454 -0.120965734 0.05734761 0.023435414
0.14453207 0.024845123 0.03157285 -0.2054518 0.06119506 -0.10435069 0.041108385 -0.09578022
0.19829707 -0.14914772 -0.15639108 -0.0741767 0.1371132 0.10428609 0.0001989752 0.04354857
0.12772785 0.029802322 -0.15334238 -0.041995004 0.1045423 -0.20529495 0.15260752 0.12749474
-0.09185945 -0.12890363 0.1902182 -0.004008621 -0.116778046 -0.11975215 -0.07745567 0.012271926
0.005878553 0.19670777 -0.0535004 0.056180492 0.022261232 -0.15042354 0.04791154 0.11719908
0.1604927 0.007756874 -0.08008468 -0.07790193 -0.15803856 -0.13185719 0.031069577 -0.16509445
-0.07078707 -0.054634675 -0.100740954 -0.038138226 0.1851538 0.12559451 0.14444377 -0.15573028
-0.16379188 -0.045036644 -0.14055455 -0.102798775 -0.114036016 0.07175194 0.11171679 0.04230754
-0.14918905 0.07638286 0.16449724 -0.028387278 -0.06654249 0.18642195 0.0005752444 -0.17994787
0.04596071 0.052150562 0.0036783665 0.02262424 0.09423657 -0.1801166 -0.00045226514 -0.14622629
0.034056127 0.1827438 0.025474966 -0.0883441 -0.07833432 -0.06005381 -0.0042451024 0.071804896
-0.20850626 0.10251407 0.10627644 0.18382116 0.19523208 -0.14280199 0.07650761 -0.011593312
0.19385074 0.026533991 0.09078719 0.1783139 -0.17663187 -0.11060316 0.11725651 -0.022821546
0.16393726 -0.0061668158 0.063193545 -0.06338763 0.19113474 0.04181166 -0.09239213 -0.12816219
-0.1953709 0.018074512 -0.18467507 -0.007226363 0.18203555 0.09119351 -0.028640047 -0.20047013
0.16584767 -0.038454726 -0.15464379 0.15172757 -0.15819024 0.10166128 0.16226976 0.20364039
0.1688881 0.013329044 -0.09695135 -0.060979947 -0.037010446 0.16996725 0.05072905 -0.077011585
0.19794874 -0.03216912 -0.14950529 0.17950596 -0.11171963 0.16014968 0.14138614 0.06699772
-0.10522421 0.031378493 0.07561235 -0.015634567 -0.04672408 0.17588092 -0.068521306 -0.0027320385

fc1.bias f4 [23]
00000000: 21f3 0ebe 20e4 473d d8b2 f4bc 908d c3bc
00000010: 4ce1 fa3d c661 05be 2461 77bd d8de a8bc
00000020: 3893 2e3e c609 14be 20cb d4bc 2d2d 22be
00000030: 0e26 393e b069 673d b443 ac3d 6c12 d23d
00000040: a3d6 e0bd 58df 4d3e 0cf6 f53d c86c 833d
00000050: 00ef 2d3c 300a 943c aa0b 92bd
-0.13959934 0.04880154 -0.029870436 -0.023871213 0.12250003 -0.13025579 -0.060395375 -0.020614073
0.17048347 -0.14456853 -0.025975764 -0.15837546 0.18080923 0.056497276 0.08411351 0.1025742
-0.10978439 0.2010473 0.1200982 0.06417233 0.010616064 0.018071264 -0.07131131

bn1.weight f4 [23]
00000000: 48c0 2e3e 8f24 3a3f 2e16 3a3f 40f8 633d
00000010: 6b15 573f 8886 423e c57f 013f d06b 7a3f
00000020: 7dc4 523f 3ab0 2f3f efac 263f 84e5 c13e
00000030: ecc6 203f 98e0 d23e 32d9 cd3e bf17 723f
00000040: 84e7 f63e 30a8 6f3e 1860 443e 60da 2d3f
00000050: 23d8 3a3f 2f7a 1b3f 00fc a13d
0.17065537 0.72712034 0.72690094 0.05565667 0.84017056 0.18996632 0.50585586 0.9782076
0.8233107 0.68628275 0.65107626 0.3787042 0.6280353 0.41186976 0.4020477 0.94567484
0.48223507 0.23404002 0.19177282 0.6791134 0.7298605 0.6073331 0.07909393

bn1.bias f4 [23]
00000000: 0000 0000 0000 0000 0000 0000 0000 0000
00000010: 0000 0000 0000 0000 0000 0000 0000 0000
00000020: 0000 0000 0000 0000 0000 0000 0000 0000
00000030: 0000 0000 0000 0000 0000 0000 0000 0000
00000040: 0000 0000 0000 0000 0000 0000 0000 0000
00000050: 0000 0000 0000 0000 0000 0000
0.0 0.0 0.0 0.0 0.0 0.0 0.0 0.0
0.0 0.0 0.0 0.0 0.0 0.0 0.0 0.0
0.0 0.0 0.0 0.0 0.0 0.0 0.0

bn1.running_mean f4 [23]
00000000: 0000 0000 0000 0000 0000 0000 0000 0000
00000010: 0000 0000 0000 0000 0000 0000 0000 0000
00000020: 0000 0000 0000 0000 0000 0000 0000 0000
00000030: 0000 0000 0000 0000 0000 0000 0000 0000
00000040: 0000 0000 0000 0000 0000 0000 0000 0000
00000050: 0000 0000 0000 0000 0000 0000
0.0 0.0 0.0 0.0 0.0 0.0 0.0 0.0
0.0 0.0 0.0 0.0 0.0 0.0 0.0 0.0
0.0 0.0 0.0 0.0 0.0 0.0 0.0

bn1.running_var f4 [23]
00000000: 0000 803f 0000 803f 0000 803f 0000 803f
00000010: 0000 803f 0000 803f 0000 803f 0000 803f
00000020: 0000 803f 0000 803f 0000 803f 0000 803f
00000030: 0000 803f 0000 803f 0000 803f 0000 803f
00000040: 0000 803f 0000 803f 0000 803f 0000 803f
00000050: 0000 803f 0000 803f 0000 803f
1.0 1.0 1.0 1.0 1.0 1.0 1.0 1.0
1.0 1.0 1.0 1.0 1.0 1.0 1.0 1.0
1.0 1.0 1.0 1.0 1.0 1.0 1.0

fc2.weight f4 [128, 23]
00000000: 62a1 dabc 8b33 84bd 77e0 17bd e6a6 433d
00000010: 92bb 48bd b5b6 b4bd 69a9 b1bd 449d 88bd
00000020: 208f 39bd 6d63 b33d 3e45 d4bc d2a4 753d
00000030: fe93 6d3d 20c3 013d 8244 733d 2c85 e03c
00000040: 268c 7c3d b9b8 9d3d d062 823b 7999 16bd
00000050: a8f0 5bbd e0c8 74bc 3e69 a7bd 292d b4bd
00000060: 8c67 f93c 78a0 323c d4ee 9abd 9088 d83b
00000070: de2d 88bd 3ced 9bbc c2ed b4bd 89b3 1abd
00000080: adfe a23d fe3b 03bd a8d8 59bc 80b5 d6ba
00000090: 9080 2bbc 2839 5ebc b8d1 e03c 9d7f 56bd
000000a0: 36b6 84bd b063 033c a571 5bbd 65d1 ae3d
000000b0: 0223 29bd f0a2 87bc 81b7 ae3d 6497 0e3d
000000c0: e180 aebd 7aae 84bd 7301 a73d 727d 6d3d
000000d0: a4da 83bc b38f 3fbd 80e8 053a aa75 f4bc
000000e0: d031 d1bc a825 5c3c 5e3a 9abd f04d b83b
000000f0: 76a5 7bbd ba76 88bd f321 8a3d 63fe af3d
00000100: 64f7 ad3c 683e 49bd 3007 bdbc 8bd6 a43d
00000110: b9ff b0bd a6bb 3c3d b00b 983c 8a36 56bd
00000120: 20fc d0bb bbcd a2bd b70c 8bbd 20f4 a2bb
00000130: 09d6 8f3d 29d0 813d a011 a7bd 68d5 2cbc
00000140: e0b7 91bc 96d7 80bd e893 2c3c f098 b83b
00000150: ca87 f7bc 7cf7 053d 606b 143d b3e2 27bd
00000160: cfd4 11bd 8351 a03d e0c4 913c b020 60bd
00000170: 01fc 9b3d 69f4 32bd 48ca 41bd 1ad8 7d3d
00000180: edce 85bd 9036 8ebd 90f1 3dbc 8e75 e4bc
00000190: ef0c 923d c742 ac3d 0832 33bc 9416 df3c
000001a0: 3ce2 89bd 1eb3 323d 3885 0f3c 2602 80bd
000001b0: e745 923d 0bb3 a2bd 89b4 2ebd c61a 8abd
000001c0: 7cf8 f93c 9037 b6bb 2e01 623d 412d 1cbd
000001d0: 8833 22bd be5d 393d 80b1 343a 4089 e6bb
000001e0: 687e 483c 6f12 a83d 9d65 b0bd 1ace 04bd
000001f0: a1d5 a13d dee6 f0bc ae73 523d 5ece 2f3d
00000200: 11c1 a43d 9887 93bd d8a5 61bc 852e 863d
00000210: 40a6 873c 364d 2f3d 0c54 cdbc 8ea5 493d
00000220: 1f94 1fbd f0fa 143c df06 9dbd 4ad0 e7bc
00000230: 2aa1 a2bd e4de 993c 40a4 003d 39eb 943d
00000240: 6359 38bd 01a2 ab3d 6efd a0bd f16e 19bd
00000250: c483 2abd 7f00 b2bd 0098 9f3b 20ff 463c
00000260: 5843 183c 70cd 65bc 10f7 d43b 70eb 9abc
00000270: 8e96 1c3d 6cad 043d 936b b43d 400f a03c
00000280: bb1b 55bd cebc 73bd 0bf0 9b3d 28de ff3c
00000290: 4009 2e3c 1699 7a3d 3c20 6abd 60aa 9f3b
000002a0: 06a9 593d c30e 67bd dc81 0abd 009a de3c
000002b0: dd6d 883d 0ab5 9abd 8a46 663d 98ef 77bc
000002c0: 4820 c3bc f454 17bd d819 e53c 143f 3bbd
000002d0: ec0e 29bd 8050 033a a8a1 903c f647 1a3d
000002e0: 1fe9 92bd bcb6 50bd b53a 91bd 7bf0 afbd
000002f0: 4b27 a03d a1fb 8f3d 357f a43d 493f 963d
00000300: b86a 27bc 31a9 b23d 6c44 e93c 0073 113b
00000310: f830 42bc c938 12bd e0e2 0f3c 8d80 ab3d
00000320: 60fe d03c bcd8 bb3c 2d57 2abd 09b4 b13d
00000330: be01 263d fc93 db3c 782b 103d 9709 8c3d
00000340: 8e9c 383d e994 6abd fa9c 0d3d 23fd 0abd
00000350: 0673 283d 0a17 283d bdc6 823d 77f5 8dbd
00000360: 5afc 203d e4fb c6bc 4089 413b 0543 9c3d
00000370: fbc1 923d a856 03bc 8be7 853d b8cd 66bd
00000380: 9bd1 b0bd 365d a2bd 96f7 053d b4b9 cebc
00000390: e0ed 72bd e892 323c f8f5 12bd 7740 84bd
000003a0: 68f8 4a3c b896 5abc 00e3 b03c 8000 923a
000003b0: c395 b2bd 12c3 643d e0b3 73bd 0060 c9ba
000003c0: 3224 46bd 7212 653d 727d 86bd f98b 05bd
000003d0: 185b 0f3d 7487 8cbd 206e c93b 44f5 90bd
000003e0: d830 23bc 04d1 f73c 8280 9dbd a886 0bbc
000003f0: 0bb6 893d 4031 90bb 8d69 6bbd 917e 9cbd
-0.026688281 -0.064551435 -0.0370793 0.04776659 -0.049007006 -0.08823911 -0.086748905 -0.06670621
-0.04530251 0.08759198 -0.025911923 0.059971638 0.058002464 0.031680226 0.059391506 0.027407251
0.061657093 0.07701249 0.0039790645 -0.036767457 -0.053696305 -0.01494047 -0.0817437 -0.08797676
0.030444883 0.010902517 -0.07565084 0.0066080764 -0.066493735 -0.01903402 -0.08834411 -0.037768874
0.07958732 -0.032039635 -0.013296284 -0.0016380996 -0.010467663 -0.013563432 0.027443752 -0.052367795
-0.064800665 0.008019373 -0.053575177 0.085360326 -0.04129315 -0.016557187 0.08531094 0.034812346
-0.085206755 -0.06478591 0.08154573 0.057980962 -0.016095467 -0.0467679 0.00051081926 -0.029841263
-0.025536448 0.013436712 -0.07530664 0.0056245252 -0.061437093 -0.0666327 0.067447565 0.08593442
0.02123613 -0.04913178 -0.023074716 0.08048733 -0.08642525 0.046077393 0.01856026 -0.052298106
-0.006377712 -0.07949396 -0.067895345 -0.0049729496 0.07023246 0.063385315 -0.081576586 -0.010548927
-0.017787874 -0.0629112 0.0105333105 0.005633466 -0.030216116 0.032706723 0.036235213 -0.04098768
-0.03560334 0.07828047 0.017794073 -0.054718673 0.07616425 -0.04369012 -0.04731205 0.06197367
-0.065336086 -0.06944001 -0.0115932375 -0.027888086 0.07131373 0.08411174 -0.010937221 0.027232446
-0.06732604 0.04362785 0.008759789 -0.0625041 0.07142239 -0.07944306 -0.04265264 -0.06743388
0.030513994 -0.005560823 0.055176906 -0.038129095 -0.039599925 0.045255415 0.00068929046 -0.0070354044
0.012237169 0.08206641 -0.08613131 -0.032423116 0.079020746 -0.029406961 0.051379852 0.042921416
0.08044637 -0.07203597 -0.01377245 0.06551842 0.016558766 0.042798243 -0.02506449 0.04923015
-0.03895962 0.009093031 -0.07667326 -0.028297562 -0.07940896 0.01878304 0.03140664 0.07271428
-0.04500712 0.08380509 -0.07860838 -0.037459318 -0.041629568 -0.08691501 0.0048704147 0.0121457875
0.0092934 -0.014026031 0.0064991787 -0.018911093 0.038229518 0.03239195 0.08809581 0.019538522
-0.0520284 -0.05950623 0.07614144 0.031233862 0.010622323 0.06118115 -0.057159647 0.004872605
0.05313971 -0.056410562 -0.03381525 0.027173042 0.0666158 -0.07554062 0.056219615 -0.015132807
-0.023819104 -0.036946252 0.027966425 -0.045714453 -0.041273996 0.0005009249 0.017655209 0.037666284
-0.071733706 -0.05095552 -0.070912756 -0.0859079 0.078199945 0.07030416 0.08032075 0.073362894
-0.010218315 0.08723677 0.028475009 0.002219379 -0.011852495 -0.035698686 0.008782119 0.083741285
0.02551192 0.022930495 -0.041587044 0.08676917 0.040529005 0.026803963 0.035197705 0.068377666
0.045071177 -0.057270918 0.034573533 -0.033932816 0.04112532 0.041037597 0.063855626 -0.06931584
0.03930316 -0.024290033 0.002953127 0.076299705 0.07165905 -0.008016266 0.06538304 -0.056348532
-0.08633729 -0.07927935 0.03270682 -0.025235035 -0.059308887 0.010899283 -0.035879105 -0.06457608
0.012388326 -0.013341598 0.021592617 0.0011139065 -0.08719971 0.055850096 -0.059497714 -0.0015363693
-0.048374362 0.055925794 -0.065668955 -0.03260419 0.034998983 -0.06861773 0.006147161 -0.07078031
-0.009960376 0.030251034 -0.076905265 -0.008515991 0.06724175 -0.0044004023 -0.057473708 -0.07641328

fc2.bias f4 [128]
00000000: 2bb0 21be 28ec f13c a232 b23d 8659 a43d
00000010: cc17 3b3d cc01 0fbe cd00 253e 9f33 04be
00000020: 867f 1cbe 70c7 0c3c 1fe8 45be aa1e 87bd
00000030: 47ea 3cbe c3f4 ebbd 391c 173e 416c 55be
00000040: a25d 86bd 7ea3 51be 14ca 88bd 76c1 f23d
00000050: 0064 c439 ceb7 853d 83f2 0b3e 7dd1 dabd
00000060: 24b6 0dbd 48f0 b8bc bc7d 09bd 7813 283d
00000070: 8011 4cbe 4633 f6bd e8de cb3c 343a 4a3d
00000080: 6ffa 0e3e fc8e 09bd eada 913d a0a4 613c
00000090: b01d 07be 6409 143d f919 3e3e c4d3 e8bd
000000a0: 9cc8 073d 6721 2cbe 3174 4e3e 41e0 1c3e
000000b0: 1e11 0dbe 49bd c0bd 2918 1fbe 28fa ac3c
000000c0: a89b a1bd f4b7 2f3d 9031 40bd dd9b 093e
000000d0: e035 8b3c cb5a 2fbe 2ad5 3dbe db88 4c3e
000000e0: ac09 1cbd 4ca3 053d 2060 ec3b 09b4 d7bd
000000f0: 2a60 28be 4054 c3bc c561 423e d273 9abd
00000100: 7a09 9abd cab0 f73d 0234 20be 2e86 a53d
00000110: a027 f3bb 71e0 113e 26a0 cd3d 7d85 383e
00000120: 8def 46be c089 8cbc 2cbb 673d 9880 e8bc
00000130: d460 3cbd f8b5 97bd 4207 c9bd 4528 443e
00000140: 834e 293e 2e94 12be 866a 47be 725c 2ebe
00000150: 50ed 4e3c 5a85 86bd 6082 d0bb 3287 c03d
00000160: 28ea cfbd 6835 7abd 0175 033e 0c74 3bbd
00000170: 13dd c8bd 893a 283e b285 00be 5c6b 87bd
00000180: 4991 39be 3852 a43c 7e2d c43d 1da2 433e
00000190: e017 66bc 78ed efbc 2408 a0bd 80d7 f73a
000001a0: 4e56 02be cbc5 d5bd 567f 903d d6ca ab3d
000001b0: c333 4ebe 6e30 93bd f398 303e 7d78 2c3e
000001c0: b8bc a23c 071b 45be 48e4 49bd e6c7 ec3d
000001d0: 549c 693d fdf2 0a3e fb17 033e 6b28 50be
000001e0: e494 22be 7453 253d d4c2 84bd ef2d 4fbe
000001f0: d01c f33c 8c6d 45be 221b 963d 8e02 bd3d
-0.15789859 0.029531553 0.08701064 0.08024888 0.04567699 -0.13965529 0.16113587 -0.12910317
-0.15283021 0.0085924715 -0.19326828 -0.065976456 -0.18448745 -0.11521294 0.1475686 -0.20842077
-0.06560828 -0.20472524 -0.06679168 0.11853306 0.0003745854 0.065291986 0.1366673 -0.10684488
-0.03459753 -0.022575513 -0.033567175 0.04103419 -0.1992855 -0.120214984 0.024886563 0.049371913
0.1396272 -0.033583626 0.07121833 0.01377216 -0.13194919 0.036141768 0.18564595 -0.11368516
0.0331503 -0.16809617 0.20161511 0.15319921 -0.13776061 -0.09411103 -0.1553656 0.021115378
-0.07891017 0.04290004 -0.046922266 0.13438363 0.016993463 -0.17124479 -0.18538347 0.19974081
-0.03809516 0.032626435 0.0072136074 -0.10532386 -0.16442934 -0.023843884 0.18982609 -0.07541622
-0.07521339 0.12094267 -0.1564484 0.08082233 -0.007420495 0.14245774 0.100403115 0.18019672
-0.19427319 -0.017155528 0.056574985 -0.02838163 -0.04599078 -0.07407755 -0.098158374 0.19155987
0.16533856 -0.14314339 -0.19474229 -0.17027453 0.012629822 -0.065684035 -0.006363198 0.094007865
-0.10152084 -0.06108609 0.12837602 -0.045764968 -0.098077916 0.1642858 -0.12551 -0.06612274
-0.18121828 0.020058736 0.095789894 0.1910481 -0.014043778 -0.029288039 -0.07814053 0.0018908828
-0.12728235 -0.10438117 0.070555374 0.08388297 -0.20136933 -0.071869716 0.17245845 0.16842838
0.019865379 -0.19248591 -0.04928997 0.11561565 0.05703385 0.13569255 0.12802117 -0.20327918
-0.1587711 0.04036279 -0.06482473 -0.20232366 0.029676825 -0.1928007 0.07329394 0.09229003

bn2.weight f4 [128]
00000000: 6a44 5f3f 6818 7a3f fc7f 423f c9b5 333f
00000010: 85e6 513f 2a8a a53e ec9b f83e e0e0 ca3d
00000020: 5248 d33e 909c c73e 07b1 323f 6091 763d
00000030: 2012 763d 35db 543f b67a 983e fcf4 f73e
00000040: 661c 123f ae97 7e3f 8436 7d3f ac50 143e
00000050: 7b12 543f e5de 6e3f d305 053f 7aba 483f
00000060: c613 8d3e a054 ae3d a881 453e 1da2 073f
00000070: 54ee 2b3e 7e2e e63e 2c71 ef3e bc9a 373e
00000080: 40d1 a53c 9814 983d f4cc 1e3f f82a 123e
00000090: 9ad2 743f 9db8 533f 9e1c ad3e f545 053f
000000a0: da77 273f 206b b63c 4a13 b83e 92c2 c93e
000000b0: f27b 273f 3407 4e3e f0b4 f13d 552d 233f
000000c0: 5ee7 913e 3c22 383e 4e1f b83e 8caf ef3e
000000d0: 8233 a13e 5215 d43e 80f5 8c3c 6080 503e
000000e0: ac34 393f 2078 083e 5b24 193f e6f8 533f
000000f0: 1a70 b93e 0266 a63e e6dc ec3e 1cb4 673f
00000100: 631f 543f 7006 0f3e 3e92 113f 6e4f 333f
00000110: 33a8 343f acfd ed3e d074 083d a6d8 423f
00000120: 4279 033f a764 1b3f 85a7 2e3f 41ac 653f
00000130: f859 3b3e f879 db3e c84d 633f a4cf 683f
00000140: e8b4 af3e c4ac c13e bb32 253f 0255 bb3e
00000150: 7fbc 253f 42ab 893e 9742 153f 08be 5c3f
00000160: 2e52 d33e ec13 b93e ea94 153f b05f 7f3e
00000170: a0fe 8f3e 42c8 e33e dad3 453f d009 143d
00000180: 8065 5a3c 263b 273f 564d 3e3f 88fe cb3d
00000190: 80b8 343f dcb8 b13e 0786 7c3f 4839 b53e
000001a0: e0f2 5a3d 3036 963e 3429 383e 00a5 483e
000001b0: 40c0 823e a08a 433e f4bd c73e a959 2a3f
000001c0: 2871 1b3f 5c87 433e b0ef 693f f664 8b3e
000001d0: bc62 c63e 24d7 9b3e ff62 063f c008 c13e
000001e0: a61a 763f ef06 333f ce60 cd3e 9805 ca3d
000001f0: da0d 933e faae 693f f510 3d3f 9e42 943e
0.87213767 0.9769349 0.7597654 0.7019926 0.8199237 0.32331973 0.4855646 0.09906173
0.41266114 0.38986635 0.6980137 0.060197234 0.06007588 0.83146983 0.2978112 0.48429096
0.5707458 0.99450195 0.9891131 0.14483899 0.828407 0.9330886 0.5196201 0.7840954
0.27554148 0.08512235 0.19287741 0.5298174 0.16790134 0.44957346 0.4676603 0.1793012
0.02024138 0.07425803 0.62031484 0.14274204 0.9563385 0.8270357 0.33810896 0.5205987
0.65417254 0.022267878 0.35952216 0.39406258 0.654235 0.20119935 0.11802089 0.63741046
0.28496832 0.1798181 0.35961384 0.4681362 0.3148461 0.41422516 0.017206907 0.20361471
0.72345996 0.13327074 0.598211 0.82801664 0.3621834 0.324997 0.46262282 0.905092
0.8286039 0.139673 0.5686377 0.70043075 0.7056915 0.464826 0.033314526 0.7611183
0.513569 0.6070046 0.68224365 0.89715964 0.18296039 0.42866492 0.8879056 0.90941834
0.34317708 0.37827122 0.64530534 0.36588293 0.6474075 0.26888472 0.58304733 0.86227465
0.41273636 0.36148012 0.5843035 0.24938846 0.2812395 0.44488722 0.77276385 0.03614217
0.013329864 0.6532463 0.74336755 0.09960657 0.70594025 0.3471135 0.9864201 0.35395265
0.05345428 0.29338217 0.17984468 0.19594193 0.255373 0.1909585 0.3901211 0.6654306
0.6071954 0.19094604 0.9138136 0.27225465 0.38747203 0.30437577 0.52494806 0.37701988
0.9613441 0.69932455 0.4011292 0.09864348 0.28721505 0.9128262 0.73854 0.28957075

bn2.bias f4 [128]
00000000: 0000 0000 0000 0000 0000 0000 0000 0000
00000010: 0000 0000 0000 0000 0000 0000 0000 0000
00000020: 0000 0000 0000 0000 0000 0000 0000 0000
00000030: 0000 0000 0000 0000 0000 0000 0000 0000
00000040: 0000 0000 0000 0000 0000 0000 0000 0000
00000050: 0000 0000 0000 0000 0000 0000 0000 0000
00000060: 0000 0000 0000 0000 0000 0000 0000 0000
00000070: 0000 0000 0000 0000 0000 0000 0000 0000
00000080: 0000 0000 0000 0000 0000 0000 0000 0000
00000090: 0000 0000 0000 0000 0000 0000 0000 0000
000000a0: 0000 0000 0000 0000 0000 0000 0000 0000
000000b0: 0000 0000 0000 0000 0000 0000 0000 0000
000000c0: 0000 0000 0000 0000 0000 0000 0000 0000
000000d0: 0000 0000 0000 0000 0000 0000 0000 0000
000000e0: 0000 0000 0000 0000 0000 0000 0000 0000
000000f0: 0000 0000 0000 0000 0000 0000 0000 0000
00000100: 0000 0000 0000 0000 0000 0000 0000 0000
00000110: 0000 0000 0000 0000 0000 0000 0000 0000
00000120: 0000 0000 0000 0000 0000 0000 0000 0000
00000130: 0000 0000 0000 0000 0000 0000 0000 0000
00000140: 0000 0000 0000 0000 0000 0000 0000 0000
00000150: 0000 0000 0000 0000 0000 0000 0000 0000
00000160: 0000 0000 0000 0000 0000 0000 0000 0000
00000170: 0000 0000 0000 0000 0000 0000 0000 0000
00000180: 0000 0000 0000 0000 0000 0000 0000 0000
00000190: 0000 0000 0000 0000 0000 0000 0000 0000
000001a0: 0000 0000 0000 0000 0000 0000 0000 0000
000001b0: 0000 0000 0000 0000 0000 0000 0000 0000
000001c0: 0000 0000 0000 0000 0000 0000 0000 0000
000001d0: 0000 0000 0000 0000 0000 0000 0000 0000
000001e0: 0000 0000 0000 0000 0000 0000 0000 0000
000001f0: 0000 0000 0000 0000 0000 0000 0000 0000
0.0 0.0 0.0 0.0 0.0 0.0 0.0 0.0
0.0 0.0 0.0 0.0 0.0 0.0 0.0 0.0
0.0 0.0 0.0 0.0 0.0 0.0 0.0 0.0
0.0 0.0 0.0 0.0 0.0 0.0 0.0 0.0
0.0 0.0 0.0 0.0 0.0 0.0 0.0 0.0
0.0 0.0 0.0 0.0 0.0 0.0 0.0 0.0
0.0 0.0 0.0 0.0 0.0 0.0 0.0 0.0
0.0 0.0 0.0 0.0 0.0 0.0 0.0 0.0
0.0 0.0 0.0 0.0 0.0 0.0 0.0 0.0
0.0 0.0 0.0 0.0 0.0 0.0 0.0 0.0
0.0 0.0 0.0 0.0 0.0 0.0 0.0 0.0
0.0 0.0 0.0 0.0 0.0 0.0 0.0 0.0
0.0 0.0 0.0 0.0 0.0 0.0 0.0 0.0
0.0 0.0 0.0 0.0 0.0 0.0 0.0 0.0
0.0 0.0 0.0 0.0 0.0 0.0 0.0 0.0
0.0 0.0 0.0 0.0 0.0 0.0 0.0 0.0

bn2.running_mean f4 [128]
00000000: 0000 0000 0000 0000 0000 0000 0000 0000
00000010: 0000 0000 0000 0000 0000 0000 0000 0000
00000020: 0000 0000 0000 0000 0000 0000 0000 0000
00000030: 0000 0000 0000 0000 0000 0000 0000 0000
00000040: 0000 0000 0000 0000 0000 0000 0000 0000
00000050: 0000 0000 0000 0000 0000 0000 0000 0000
00000060: 0000 0000 0000 0000 0000 0000 0000 0000
00000070: 0000 0000 0000 0000 0000 0000 0000 0000
00000080: 0000 0000 0000 0000 0000 0000 0000 0000
00000090: 0000 0000 0000 0000 0000 0000 0000 0000
000000a0: 0000 0000 0000 0000 0000 0000 0000 0000
000000b0: 0000 0000 0000 0000 0000 0000 0000 0000
000000c0: 0000 0000 0000 0000 0000 0000 0000 0000
000000d0: 0000 0000 0000 0000 0000 0000 0000 0000
000000e0: 0000 0000 0000 0000 0000 0000 0000 0000
000000f0: 0000 0000 0000 0000 0000 0000 0000 0000
00000100: 0000 0000 0000 0000 0000 0000 0000 0000
00000110: 0000 0000 0000 0000 0000 0000 0000 0000
00000120: 0000 0000 0000 0000 0000 0000 0000 0000
00000130: 0000 0000 0000 0000 0000 0000 0000 0000
00000140: 0000 0000 0000 0000 0000 0000 0000 0000
00000150: 0000 0000 0000 0000 0000 0000 0000 0000
00000160: 0000 0000 0000 0000 0000 0000 0000 0000
00000170: 0000 0000 0000 0000 0000 0000 0000 0000
00000180: 0000 0000 0000 0000 0000 0000 0000 0000
00000190: 0000 0000 0000 0000 0000 0000 0000 0000
000001a0: 0000 0000 0000 0000 0000 0000 0000 0000
000001b0: 0000 0000 0000 0000 0000 0000 0000 0000
000001c0: 0000 0000 0000 0000 0000 0000 0000 0000
000001d0: 0000 0000 0000 0000 0000 0000 0000 0000
000001e0: 0000 0000 0000 0000 0000 0000 0000 0000
000001f0: 0000 0000 0000 0000 0000 0000 0000 0000
0.0 0.0 0.0 0.0 0.0 0.0 0.0 0.0
0.0 0.0 0.0 0.0 0.0 0.0 0.0 0.0
0.0 0.0 0.0 0.0 0.0 0.0 0.0 0.0
0.0 0.0 0.0 0.0 0.0 0.0 0.0 0.0
0.0 0.0 0.0 0.0 0.0 0.0 0.0 0.0
0.0 0.0 0.0 0.0 0.0 0.0 0.0 0.0
0.0 0.0 0.0 0.0 0.0 0.0 0.0 0.0
0.0 0.0 0.0 0.0 0.0 0.0 0.0 0.0
0.0 0.0 0.0 0.0 0.0 0.0 0.0 0.0
0.0 0.0 0.0 0.0 0.0 0.0 0.0 0.0
0.0 0.0 0.0 0.0 0.0 0.0 0.0 0.0
0.0 0.0 0.0 0.0 0.0 0.0 0.0 0.0
0.0 0.0 0.0 0.0 0.0 0.0 0.0 0.0
0.0 0.0 0.0 0.0 0.0 0.0 0.0 0.0
0.0 0.0 0.0 0.0 0.0 0.0 0.0 0.0
0.0 0.0 0.0 0.0 0.0 0.0 0.0 0.0

bn2.running_var f4 [128]
00000000: 0000 803f 0000 803f 0000 803f 0000 803f
00000010: 0000 803f 0000 803f 0000 803f 0000 803f
00000020: 0000 803f 0000 803f 0000 803f 0000 803f
00000030: 0000 803f 0000 803f 0000 803f 0000 803f
00000040: 0000 803f 0000 803f 0000 803f 0000 803f
00000050: 0000 803f 0000 803f 0000 803f 0000 803f
00000060: 0000 803f 0000 803f 0000 803f 0000 803f
00000070: 0000 803f 0000 803f 0000 803f 0000 803f
00000080: 0000 803f 0000 803f 0000 803f 0000 803f
00000090: 0000 803f 0000 803f 0000 803f 0000 803f
000000a0: 0000 803f 0000 803f 0000 803f 0000 803f
000000b0: 0000 803f 0000 803f 0000 803f 0000 803f
000000c0: 0000 803f 0000 803f 0000 803f 0000 803f
000000d0: 0000 803f 0000 803f 0000 803f 0000 803f
000000e0: 0000 803f 0000 803f 0000 803f 0000 803f
000000f0: 0000 803f 0000 803f 0000 803f 0000 803f
00000100: 0000 803f 0000 803f 0000 803f 0000 803f
00000110: 0000 803f 0000 803f 0000 803f 0000 803f
00000120: 0000 803f 0000 803f 0000 803f 0000 803f
00000130: 0000 803f 0000 803f 0000 803f 0000 803f
00000140: 0000 803f 0000 803f 0000 803f 0000 803f
00000150: 0000 803f 0000 803f 0000 803f 0000 803f
00000160: 0000 803f 0000 803f 0000 803f 0000 803f
00000170: 0000 803f 0000 803f 0000 803f 0000 803f
00000180: 0000 803f 0000 803f 0000 803f 0000 803f
00000190: 0000 803f 0000 803f 0000 803f 0000 803f
000001a0: 0000 803f 0000 803f 0000 803f 0000 803f
000001b0: 0000 803f 0000 803f 0000 803f 0000 803f
000001c0: 0000 803f 0000 803f 0000 803f 0000 803f
000001d0: 0000 803f 0000 803f 0000 803f 0000 803f
000001e0: 0000 803f 0000 803f 0000 803f 0000 803f
000001f0: 0000 803f 0000 803f 0000 803f 0000 803f
1.0 1.0 1.0 1.0 1.0 1.0 1.0 1.0
1.0 1.0 1.0 1.0 1.0 1.0 1.0 1.0
1.0 1.0 1.0 1.0 1.0 1.0 1.0 1.0
1.0 1.0 1.0 1.0 1.0 1.0 1.0 1.0
1.0 1.0 1.0 1.0 1.0 1.0 1.0 1.0
1.0 1.0 1.0 1.0 1.0 1.0 1.0 1.0
1.0 1.0 1.0 1.0 1.0 1.0 1.0 1.0
1.0 1.0 1.0 1.0 1.0 1.0 1.0 1.0
1.0 1.0 1.0 1.0 1.0 1.0 1.0 1.0
1.0 1.0 1.0 1.0 1.0 1.0 1.0 1.0
1.0 1.0 1.0 1.0 1.0 1.0 1.0 1.0
1.0 1.0 1.0 1.0 1.0 1.0 1.0 1.0
1.0 1.0 1.0 1.0 1.0 1.0 1.0 1.0
1.0 1.0 1.0 1.0 1.0 1.0 1.0 1.0
1.0 1.0 1.0 1.0 1.0 1.0 1.0 1.0
1.0 1.0 1.0 1.0 1.0 1.0 1.0 1.0

fc3.weight f4 [2, 128]
00000000: 5cfa c83a 3042 6039 10b9 273a 1068 25b9
00000010: 784b 543a d431 4d3a 5aa0 073b dec1 17bb
00000020: 28eb abb9 c06c d9b9 08d7 c2ba 8005 4039
00000030: 00c8 12b6 4893 403a 6441 72ba 20fd a93a
00000040: 78a9 a9b9 3456 ca3a d475 30ba 38f9 7e3a
00000050: c019 67b9 f4fb 53ba 0039 1639 eea2 0e3b
00000060: 06d5 1d3b a2b4 0c3b 81cc 22bb 9ba7 13bb
00000070: 3aae 28bb b023 b83a aefd 3abb 1cdb 27ba
00000080: 7093 d939 2c7f 09ba 6e4b 97ba 4008 b5b9
00000090: 4cf0 23bb e0e7 fdb9 9048 f1b9 b4b8 eb3a
000000a0: 40f1 a93a 5e5a d3ba 6802 f839 c425 28bb
000000b0: 989f f53a b47a cb3a e2cb 21bb e5ff 28bb
000000c0: 60cc cb3a 68db 743a 75ae f9ba f0ed 2c39
000000d0: ce0f c6ba fc58 363b 66ad 88ba 8416 b63a
000000e0: 8da4 3dbb 2099 b93a b6e0 053b 681a 4a3a
000000f0: badf 27bb 5086 7f3a 2fce 3abb c461 c6ba
00000100: f724 25bb 82e4 0d3b 74ea cb3a 7c03 33bb
00000110: 2445 4f3a 0895 cf39 7a32 2abb 2053 fc3a
00000120: c91a b4ba 2bcf d2ba 1837 3cba f446 88ba
00000130: 9cab 2abb 9eb8 0fbb ec37 3dba 2cd8 363b
00000140: 14ad c13a 2cb0 6fba a852 17bb 1889 a4ba
00000150: 46bf 0b3b 185d a1b9 0c1b f93a 448c 9e3a
00000160: 0edf 0dbb d08e 413b 9cc7 333b 5434 b53a
00000170: 35bc 39bb 0075 553a 9365 ecba bee0 113b
00000180: 2c13 1e3b f407 ae3a a4e6 07bb 28fd b739
00000190: 4602 aaba b438 00bb cc21 0d3b f788 2fbb
000001a0: e0d8 9ab8 54f4 9b3a 1c6c 4b3a acda 1fba
000001b0: e431 5a3a 4c3d 8b3a 401d 3cb9 a416 103b
000001c0: 601b 703a dc9f 943a b65c 353b 40d1 413b
000001d0: 4263 153b e0d8 0e3a 0fc6 36bb 6839 06ba
000001e0: 104f 77ba 1663 2d3b bc35 15bb b082 3f3b
000001f0: 6043 8e39 e81c 8939 ec6a ca3a d454 0abb
00000200: 060f 8aba ac2a 6aba 76a7 2d3b fe4e dfba
00000210: 3c4e 133b c848 9839 7069 c63a 2adb 0f3b
00000220: 7004 0eb9 c85e 13ba a8e8 e63a 6a81 3cbb
00000230: 325c 043b 1cff 063b dcad e93a 44e6 d83a
00000240: dcde 85ba a0be 133b c060 0a3b 18eb 00ba
00000250: 58ca ecb9 a0c5 c538 084f 163b d0ed b8b9
00000260: 00ac f8b9 bc0c 8cba 4cd7 98ba 3450 13bb
00000270: 8c93 1e3b c80c eaba 8c4f 1d3b 789e 3a3b
00000280: 604f 6d39 29ac b2ba 9475 f43a 7865 f03a
00000290: 0cc5 86ba 0b1e 22bb 80fe 0a39 a839 2ebb
000002a0: f04a 2aba e0a0 3d3b b0cf 6f39 9403 273b
000002b0: 4c63 8f3a d276 caba 9dbc 0fbb 70b6 d73a
000002c0: 2265 153b 389a c6b9 f874 13bb c805 f83a
000002d0: 73cc 9eba 9c3d 313b 2484 3aba 741c 313b
000002e0: 643d 053b b072 2dba e22d 8bba 9800 ff3a
000002f0: 108e 463a 38a1 f3ba 5cec 31bb fa3c 04bb
00000300: 54d7 0c3b a2a3 2f3b 7cb6 b1ba 5afb 03bb
00000310: 3c8f 673a 10a4 23bb fce4 1abb 909d 2839
00000320: 7d84 2cbb 60ab 91b8 0567 eaba 40d9 273b
00000330: 1ed4 3e3b d08a 12b9 68c8 263b f45e 2aba
00000340: 14b2 f63a 2c5f c03a ec1d ef3a 806d 063a
00000350: 6403 71ba 90c5 23bb 8016 7eba 14e2 30ba
00000360: 7228 ceba 97ee f5ba f0ca 7e3a b667 0d3b
00000370: e42d 53ba 900a b83a 1841 55ba bee8 86ba
00000380: 7cc2 e33a e2b3 e0ba 94bd 9a3a 80f1 a338
00000390: 3ec2 81ba 14f6 13ba 40c3 6e38 00e3 35ba
000003a0: 187e 9939 9c02 e03a 7499 43ba 28e9 d53a
000003b0: b0c3 973a c4f5 30bb 780e ac39 a076 bb3a
000003c0: de91 0ebb 5ce4 39ba 906f 0dbb 26c4 32bb
000003d0: dc21 a93a cc6d 073b 30d1 8939 78ef 60ba
000003e0: 3bc3 08bb 848a fc3a b010 363b fc82 333a
000003f0: 9e93 263b e009 6c39 1c41 073b 90a8 01bb
0.0015333402 0.00021386961 0.0006398121 -0.00015774393 0.0008098404 0.00078275544 0.0020694942 -0.0023156325
-0.00032790867 -0.0004147049 -0.001486511 0.00018312596 -2.187211e-06 0.00073461654 -0.00092413113 0.0012969114
-0.00032360456 0.0015437067 -0.0006731425 0.00097264675 -0.0002203947 -0.0008086555 0.00014326349 0.0021764594
0.002408327 0.002146997 -0.0024841132 -0.002253032 -0.0025738613 0.0014048722 -0.0028532553 -0.0006403194
0.00041499315 -0.00052450853 -0.0011542866 -0.00034529157 -0.0025015054 -0.0004842868 -0.00046021165 0.0017984123
0.0012965575 -0.0016124954 0.0004730404 -0.0025657276 0.0018739579 0.0015524239 -0.0024688174 -0.002578729
0.0015548579 0.00093405554 -0.0019049185 0.00016491837 -0.0015110911 0.0027824035 -0.0010427653 0.0013892208
-0.0028937191 0.0014160015 0.0020428128 0.00077096233 -0.002561553 0.0009747492 -0.0028504243 -0.0015135338
-0.0025199035 0.0021651094 0.0015557543 -0.002731531 0.0007906726 0.00039593154 -0.0025970028 0.0019250847
-0.0013740893 -0.0016083469 -0.00071798405 -0.0010397122 -0.0026042229 -0.0021930109 -0.0007218111 0.0027899845
0.0014776313 -0.0009143378 -0.0023090038 -0.0012553064 0.0021323725 -0.00030777673 0.0019005253 0.0012096246
-0.0021647844 0.0029534586 0.002743221 0.0013824799 -0.002834094 0.00081427395 -0.0018035643 0.00222592
0.0024120314 0.0013277517 -0.0020736838 0.00035093096 -0.0012970648 -0.0019565048 0.0021535037 -0.0026784518
-7.383688e-05 0.0011898377 0.0007759945 -0.00060979533 0.00083234743 0.0010623126 -0.00017939974 0.002198615
0.00091593526 0.0011339146 0.0027673668 0.0029574186 0.0022794758 0.0005449187 -0.0027889048 -0.00051202485
-0.00094340835 0.0026456765 -0.0022767624 0.0029222183 0.0002713455 0.00026152213 0.0015443242 -0.002110769
-0.0010533042 -0.000893275 0.002649752 -0.0017037091 0.0022477051 0.00029045925 0.0015137624 0.00219507
-0.00013543828 -0.00056217285 0.0017616944 -0.002876366 0.0020196554 0.0020598834 0.0017828303 0.0016548117
-0.0010213512 0.0022544041 0.0021114796 -0.0004917844 -0.00045164186 9.4305025e-05 0.002293529 -0.000352724
-0.00047430396 -0.0010684947 -0.0011660843 -0.0022478225 0.0024196832 -0.0017856592 0.0024003712 0.0028475802
0.00022631651 -0.001363163 0.0018650764 0.0018340787 -0.0010282113 -0.0024737145 0.00013255514 -0.0026584659
-0.0006496152 0.0028935 0.00022870186 0.002548431 0.0010939627 -0.0015446788 -0.002193249 0.0016457569
0.0022795876 -0.00037880405 -0.0022500139 0.0018922621 -0.0012115374 0.0027044779 -0.00071150274 0.0027025016
0.002033078 -0.0006616516 -0.0010618533 0.0019455133 0.00075742695 -0.0018587476 -0.0027148938 -0.0020177946
0.002149065 0.0026800414 -0.0013558413 -0.002013883 0.0008833294 -0.0024969615 -0.002363502 0.00016080425
-0.0026324086 -6.94606e-05 -0.0017883485 0.0025611669 0.002911813 -0.00013975357 0.0025449041 -0.00064991345
0.0018821382 0.0014676801 0.001824317 0.0005128011 -0.00091939257 -0.0024989583 -0.0009692684 -0.00067475555
-0.0015728606 -0.0018763122 0.0009719571 0.002157671 -0.00080558495 0.0014041234 -0.0008135005 -0.0010292751
0.0017376686 -0.0017143453 0.0011805766 7.8174286e-05 -0.0009899808 -0.00056442735 5.6925463e-05 -0.00069384277
0.0002927638 0.0017090621 -0.0007461526 0.0016320096 0.0011578705 -0.0027001956 0.00032817177 0.0014302321
-0.0021754424 -0.0007091218 -0.002158139 -0.0027277558 0.0012903768 0.002066481 0.00026286533 -0.00085806055
-0.002086832 0.0019267355 0.0027780943 0.00068478263 0.0025417577 0.00022510393 0.0020638173 -0.001978431

fc3.bias f4 [2]
00000000: 8ecd abbd 0621 91bd
-0.08388816 -0.07086377
