p3_collab-compet/critic.pth (torch_old, 49850 bytes, 9 tensors)

bn0.weight f4 [24]
0.44300875 0.3058572 0.39768824 0.3755698 0.94884527 0.15778017 0.29218444 0.93920076
0.5661741 0.13681294 0.6708811 0.12415121 0.7624955 0.5906699 0.47792774 0.2609316
0.22140819 0.34700915 0.45844418 0.26623753 0.63950115 0.19340372 0.31281048 0.22490667
00000000: 0bd2 e23e 5199 9c3e cb9d cb3e af4a c03e
00000010: 86e7 723f 2091 213e 3399 953e 766f 703f
00000020: c9f0 103f b118 0c3e ddbe 2b3f fd42 fe3d
00000030: e832 433f 2436 173f f2b2 f43e d498 853e
00000040: d4b8 623e 2fab b13e 32b9 ea3e 4950 883e
00000050: 59b6 233f a00b 463e b228 a03e ef4d 663e

bn0.bias f4 [24]
-0.011497798 -0.03639018 -0.026913542 0.009207607 -0.008770651 0.012194081 -0.020745847 0.009083512
-0.007812965 -0.009527587 -0.016538037 0.0024778403 0.019160978 0.014902106 -0.0064717606 0.0063688257
0.013293267 0.02592203 -0.014723483 0.01955008 -0.009650947 0.012431084 -0.019309271 0.015773254
00000000: 4361 3cbc df0d 15bd ca79 dcbc 81db 163c
00000010: c7b2 0fbc afc9 473c 32f3 a9bc 03d3 143c
00000020: f301 00bc 9919 1cbc c77a 87bc 4363 223b
00000030: 7cf7 9c3c f627 743c 1011 d4bb 95b1 d03b
00000040: 01cc 593c 705a d43c c33a 71bc 7d27 a03c
00000050: 011f 1ebc bfab 4b3c 7a2e 9ebc e936 813c

bn0.running_mean f4 [24]
-3.0971594 -1.0760305 7.55256 0.7898685 0.039709423 3.059949 7.55256 0.7898685
-3.1248336 -1.0830845 8.705967 0.86687833 0.071048066 2.9383824 8.705967 0.86687833
-3.1718104 -1.0932422 9.898786 0.8947062 0.13446398 2.7774925 9.898786 0.8947062
00000000: dc37 46c0 5ebb 89bf 92ae f140 d234 4a3f
00000010: 59a6 223d 34d6 4340 92ae f140 d234 4a3f
00000020: 46fd 47c0 83a2 8abf a44b 0b41 bdeb 5d3f
00000030: a681 913d 750e 3c40 a44b 0b41 bdeb 5d3f
00000040: f1fe 4ac0 5cef 8bbf 6d61 1e41 770b 653f
00000050: edb0 093e 70c2 3140 6d61 1e41 770b 653f

bn0.running_var f4 [24]
6.970076 0.8453281 33.410854 4.5548315 46.423725 5.463354 33.410854 4.5548315
6.6911106 0.923419 33.599834 4.8937936 50.0892 6.201273 33.599834 4.8937936
6.353759 1.0032572 31.265308 5.0224557 53.9227 7.5267086 31.265308 5.0224557
00000000: dd0a df40 6c67 583f b7a4 0542 2ec1 9140
00000010: e5b1 3942 ccd3 ae40 b7a4 0542 2ec1 9140
00000020: 941d d640 3065 6c3f 3b66 0642 f599 9c40
00000030: 575b 4842 d470 c640 3b66 0642 f599 9c40
00000040: fe51 cb40 bb6a 803f 5a1f fa41 f5b7 a040
00000050: d8b0 5742 ccda f040 5a1f fa41 f5b7 a040

fcs1.weight f4 [96, 24]
0.039240275 0.02653829 0.013402947 -0.041675188 0.039334666 0.06820109 0.072424576 -0.063394405
0.08686522 -0.065220155 -0.044315226 0.032589518 0.010707956 0.096657 0.043029275 -0.032229956
0.08368352 -0.038497657 -0.008964937 0.08873203 -0.09742102 -0.045324754 0.0067987316 -0.022700904
-0.087479055 0.018836994 -0.02458668 0.09487131 -0.002118054 0.08861579 -0.017963603 0.024969708
0.032092445 -0.09779542 0.018130595 0.059405863 -0.04213871 -0.019479861 -0.10094346 0.106286205
-0.071272925 0.05577932 -0.06796204 -0.052735906 -0.10554197 -0.019898733 -0.10775111 -0.054535396
-0.014450942 0.027821701 -0.056533262 0.050862677 -0.028178524 0.019799886 -0.049414214 0.025542226
-0.05506941 0.009592002 0.064927675 0.058435027 0.044947386 0.07889832 -0.01379557 0.004638296
0.08591903 -0.1000466 0.06232004 -0.023320498 0.012668097 0.02731915 -0.06252925 -0.0020298169
-0.074710175 -0.0016965979 0.0330093 -0.032508343 -0.07967341 0.03178173 -0.03556526 0.04191231
0.07790007 0.059536457 -0.065732926 0.028846176 0.018425228 -0.07941901 0.032173745 0.010490615
-0.032384906 0.10252005 -0.065502144 0.030288093 -0.08895615 0.025229694 0.08905236 -0.122912906
0.017714376 -0.087620586 0.086135484 -0.07214132 -0.042426936 -0.048527695 -0.03250462 -0.0064553516
0.049369954 -0.05113399 0.112627074 0.065940276 -0.0008024911 0.02864625 -0.03779006 -0.033811394
-0.0029271543 -0.06658492 -0.017304184 0.026953544 -0.044286396 0.07316065 0.06063122 -0.023750413
-0.07751679 -0.034773722 0.03336865 -0.021527668 0.10735401 -0.05850293 0.09202034 0.07348498
-0.0048584896 0.08807449 -0.07445819 0.006436174 0.0069872825 -0.0140964845 -0.00662591 -0.051203683
-0.06554293 0.0049146377 -0.03260335 0.005461437 -0.042806234 0.05735545 -0.07751303 0.08382558
0.018045073 0.049826592 -0.0011019781 0.041322768 -0.020949215 0.01484756 -0.007736639 -0.07590556
-0.042131398 0.0002763809 0.037716452 0.028037926 0.02121004 0.018141795 -0.02304124 -0.030519266
0.036493357 -0.005696994 0.0031347524 -0.07215787 -0.049965475 0.052463155 -0.06609628 0.04963421
-0.008613844 0.03905482 -0.07987363 0.091784306 0.08325398 -0.027661845 0.047901127 0.028198773
0.07085687 0.11506299 -0.080063686 0.054462735 -0.0023750258 0.023201581 0.044434898 0.09520129
-0.03654266 0.05982774 -0.007350402 -0.014780562 -0.07739833 0.016717244 0.08345281 -0.01694921
0.07603112 0.07955242 -0.05409518 0.059317265 -0.02549369 0.035611752 -0.09163532 -0.042761687
0.017503744 0.111291215 -0.051479675 -0.062490657 0.0015715945 -0.02113697 -0.0142688155 -0.05383468
0.09865876 -0.058868915 0.058607865 0.085692495 -0.0029040177 0.12054154 -0.05799565 0.08209303
-0.07507206 -0.020682469 -0.03717989 -0.026447406 -0.06543533 -0.01679164 0.097572446 -0.019901708
-0.0057143336 -0.09696418 -0.017256683 0.042087182 -0.003619407 0.015028076 -0.008229964 0.011458449
-0.06601068 0.016889 0.02987961 0.006356146 -0.11979149 0.044321913 -0.083153985 -0.07454884
-0.07100039 0.010485498 0.08726706 0.0013763839 -0.08909826 0.11362206 -0.052238706 -0.02087111
0.026551282 0.077066846 0.002471244 0.07333842 0.006723193 0.104591526 -0.056019954 -0.05210228
00000000: 69ba 203d d466 d93c 0998 5b3c 9ab3 2abd
00000010: 631d 213d 03ad 8b3d 5653 943d edd4 81bd
00000020: 64e6 b13d 2592 85bd e283 35bd 967c 053d
00000030: 6c70 2f3c 1bf4 c53d 773f 303d 8f03 04bd
00000040: 4462 ab3d b8af 1dbd ace1 12bc 23b9 b53d
00000050: ac84 c7bd 73a6 39bd e5c7 de3b 3ff7 b9bc
00000060: 3828 b3bd 0a50 9a3c 016a c9bc e44b c23d
00000070: 0dcf 0abb 327c b53d 6828 93bc 468d cc3c
00000080: 5e73 033d f748 c8bd 9d86 943c 9053 733d
00000090: a499 2cbd 3b94 9fbc 72bb cebd 95ac d93d
000000a0: 8af7 91bd db78 643d af2f 8bbd 9b01 58bd
000000b0: 6326 d8bd ab02 a3bc 9dac dcbd 8260 5fbd
000000c0: a5c3 6cbc 56ea e33c 6c8f 67bd 6255 503d
000000d0: a6d6 e6bc 5f33 a23c 8f66 4abd ee3d d13c
000000e0: 7690 61bd c627 1d3c cdf8 843d 9159 6f3d
000000f0: c01a 383d 7195 a13d d006 62bc d9fc 973b
00000100: 51f6 af3d 3be5 ccbd 4c43 7f3d a10a bfbc
00000110: da8d 4f3c 69cc df3c 560f 80bd ad06 05bb
00000120: a601 99bd 6160 deba c234 073d 7827 05bd
00000130: d02b a3bd 8f2d 023d e1ac 11bd 3eac 2b3d
00000140: 128a 9f3d 80dc 733d fc9e 86bd d14e ec3c
00000150: 81f0 963c 6fa6 a2bd 9ec8 033d d4e0 2b3c
00000160: 09a6 04bd 08f6 d13d fd25 86bd bc1e f83c
00000170: a42e b6bd 81ae ce3c 1561 b63d c3b9 fbbd
00000180: bd1d 913c 6c72 b3bd cd67 b03d d4be 93bd
00000190: dec7 2dbd fac4 46bd 9023 05bd 6a87 d3bb
000001a0: 2638 4a3d e071 51bd 06a9 e63d b20b 873d
000001b0: 445e 52ba 8aab ea3c c0c9 1abd d17d 0abd
000001c0: 80d5 3fbb ad5d 88bd 81c1 8dbc aecd dc3c
000001d0: a765 35bd 40d5 953d 7158 783d 3a90 c2bc
000001e0: 1fc1 9ebd e46e 0ebd 91ad 083d cb5a b0bc
000001f0: 6bdc db3d c5a0 6fbd 2975 bc3d 4b7f 963d
00000200: f733 9fbb 6660 b43d 897d 98bd 8ae6 d23b
00000210: 93f5 e43b f1f4 66bc 291e d9bb f4ba 51bd
00000220: 5f3b 86bd f80a a13b 178b 05bd dbf5 b23b
00000230: 9755 2fbd 8ced 6a3d 27bf 9ebd bfac ab3d
00000240: 43d3 933c f816 4c3d 4070 90ba 1042 293d
00000250: b09d abbc 2e43 733c a283 fdbb 6074 9bbd
00000260: f991 2cbd 37e7 9039 917c 1a3d cbaf e53c
00000270: aec0 ad3c 1a9e 943c fcc0 bcbc 8a03 fabc
00000280: 0f7a 153d d9ad babb 6b70 4d3b 81c7 93bd
00000290: 99a8 4cbd 9be3 563d 7d5d 87bd 3e4d 4b3d
000002a0: 1521 0dbc f2f7 1f3d c994 a3bd 69f9 bb3d
000002b0: 1081 aa3d 189b e2bc f933 443d 1d01 e73c
000002c0: 681d 913d 25a6 eb3d 6ef8 a3bd 5114 5f3d
000002d0: 52a6 1bbb 3e11 be3c 5e01 363d e5f8 c23d
000002e0: c2ad 15bd ef0d 753d a4db f0bb 2c2a 72bc
000002f0: 0483 9ebd 9af2 883c 4fe9 aa3d 12d9 8abc
00000300: 34b6 9b3d 61ec a23d e892 5dbd a9f6 723d
00000310: 25d8 d0bc a1dd 113d 4cab bbbd e126 2fbd
00000320: 0364 8f3c a6ec e33d 5adc 52bd 34f6 7fbd
00000330: f6fd cd3a 7027 adbc c0c7 69bc c181 5cbd
00000340: 9b0d ca3d 8820 71bd cd0e 703d 8c7f af3d
00000350: 5551 3ebb 7cde f63d d98c 6dbd 6420 a83d
00000360: 61bf 99bd 486e a9bc f149 18bd 3ba8 d8bc
00000370: f502 86bd 9f8e 89bc 10d4 c73d e808 a3bc
00000380: 4e3f bbbb 2895 c6bd e35d 8dbc 9c63 2c3d
00000390: 9333 6dbb 5238 763c f9d6 06bc 38bc 3b3c
000003a0: 9b30 87bd cd5a 8a3c 15c6 f43c 3847 d03b
000003b0: 3e55 f5bd e58a 353d a34c aabd 10ad 98bd
000003c0: a768 91bd 5ecb 2b3c 13b9 b23d c867 b43a
000003d0: 2679 b6bd afb2 e83d 41f8 55bd e4f9 aabc
000003e0: 1382 d93c 39d5 9d3d 98f4 213b 7432 963d
000003f0: 3b4e dc3b 1534 d63d 2e75 65bd 3369 55bd

fcs1.bias f4 [96]
0.026612708 0.17686482 -0.1739449 0.18023635 -0.13762033 -0.18050255 -0.17342187 0.14123437
0.13728243 -0.00010341659 0.14019926 0.14555947 -0.0911234 -0.04384832 0.2052966 0.039925277
-0.06728342 0.049836997 -0.06432856 -0.12494642 -0.045661632 0.026510147 0.14298767 0.055850234
-0.006753091 -0.053641524 -0.114028774 -0.15673089 0.04342834 0.11470602 -0.025127122 -0.117547214
-0.05561279 -0.01304739 0.117393486 -0.17562303 0.118635505 -0.18745163 -0.08824665 -0.15434614
0.15450987 0.018457511 0.15135966 -3.2721946e-05 -0.030097457 -0.2138178 0.08121728 0.043424822
0.12813017 0.052269384 -0.07452756 -0.12984297 -0.10018706 0.09830545 -0.05200118 0.1161421
0.08997895 -0.14313969 0.061747856 -0.02095896 0.079738945 0.11248888 -0.1399994 0.18035878
-0.11817216 -0.20056467 -0.19557336 -0.13219258 0.13730219 -0.12399339 -0.089435704 -0.18818282
-0.13972297 -0.16257894 0.05407315 0.013992594 0.20812984 -0.039473973 -0.091102704 -0.047211483
-0.1824885 0.17049222 -0.09486962 -0.015080827 -0.08523332 -0.16575675 0.14212038 0.16811024
0.0321212 -0.037002835 0.20689577 0.1118197 0.10061072 0.03996918 0.17221634 -0.13945332
00000000: e502 da3c 0d1c 353e 9d1e 32be e18f 383e
00000010: 58ec 0cbe a9d5 38be 8195 31be be9f 103e
00000020: c493 0c3e 5ce1 d8b8 6590 0f3e 8b0d 153e
00000030: e89e babd 4c9a 33bd 4639 523e b088 233d
00000040: e4cb 89bd e121 4c3d b1be 83bd e9e3 ffbd
00000050: b107 3bbd cf2b d93c 5c6b 123e 37c3 643d
00000060: 0849 ddbb 37b7 5bbd eb87 e9bd 107e 20be
00000070: eae1 313d fdea ea3d 65d7 cdbc 98bc f0bd
00000080: 3dca 63bd b8c4 55bc ff6b f03d 86d6 33be
00000090: 2cf7 f23d 52f3 3fbe a9ba b4bd ea0c 1ebe
000000a0: d637 1e3e 3534 973c 07fe 1a3e ec3e 09b8
000000b0: f18e f6bc 0ef3 5abe 3f55 a63d 3ade 313d
000000c0: 8e34 033e 6c18 563d e8a1 98bd 8ef5 04be
000000d0: e02e cdbd 5e54 c93d 30ff 54bd e9db ed3d
000000e0: e246 b83d 3693 12be 52eb 7c3d 20b2 abbc
000000f0: 2c4e a33d 9260 e63d 015c 0fbe f9af 383e
00000100: 3f04 f2bd d360 4dbe 6244 48be 7e5d 07be
00000110: f298 0c3e 3ff0 fdbd 112a b7bd ffb2 40be
00000120: 8a13 0fbe 187b 26be cf7b 5d3d 3141 653c
00000130: fd1f 553e 76af 21bd 0e94 babd d460 41bd
00000140: 44de 3abe 8395 2e3e 014b c2bd 9315 77bc
00000150: cf8e aebd 23bc 29be 0188 113e 1725 2c3e
00000160: 8591 033d 4990 17bd 7cdc 533e ba01 e53d
00000170: fe0c ce3d b9b6 233d 7b59 303e dacc 0ebe

fc2.weight f4 [96, 98]
-0.0038687943 -0.07104555 0.09106931 -0.0031575698 -0.021143282 -0.03864474 0.09642722 0.05752085
-0.036527235 0.08624908 -0.06534366 -0.029347003 0.028665973 0.09829214 0.056031674 -0.019423462
0.0063850586 0.048437633 -0.10058534 0.011745289 -0.09768203 -0.0576576 0.09067162 0.10544249
-0.07242575 -0.098288976 0.077906996 -0.032391768 -0.02180251 0.056034602 0.03308853 -0.01967083
0.0059855203 0.011232691 -0.07626043 0.04170064 -0.1150006 -0.039452463 -0.058036447 0.10471322
-0.016970368 0.027987095 -0.02829542 0.030986194 -0.062103312 0.037752584 0.11638202 -0.029228946
-0.07044003 0.06579806 -0.048465684 -0.0314484 0.04872087 0.01577271 -0.08543066 -0.026387911
-0.0024003442 0.047837093 0.10557028 -0.072890215 0.021694036 0.064407 0.119791396 0.0469369
-0.021921372 -0.014053069 0.0012029111 0.050700687 -0.10919253 0.0625527 0.027416736 0.07579739
0.046062157 -0.009535496 -0.02025933 -0.10079802 -0.074677564 -0.079037346 -0.0036053983 0.0026721177
-0.023619577 -0.13620022 0.03460247 -0.025043482 -0.07820996 0.019007778 0.053279076 0.0056433026
0.10241534 0.06097877 -0.010355552 -0.10281848 0.094122976 0.09464537 -0.035860077 0.051340453
0.08953846 0.03671014 0.008102873 0.051414996 -0.08824161 0.056874186 0.06899863 0.03978876
0.046220865 -0.050552133 -0.08989952 0.019585544 0.0444945 0.03392063 -0.06951847 0.10780102
-0.008283797 0.05790019 -0.025242731 0.047230005 -0.10765445 0.0075793667 -0.053900372 -0.049669154
0.04855427 0.053783882 0.04423516 0.011538782 -0.0344088 -0.09355846 -0.026941108 0.08662254
0.05605056 0.11164021 -0.03813597 0.08083942 -0.024716973 0.04813595 -0.06893991 -0.08447493
0.029272728 0.027431346 0.020460226 0.041599218 0.061644137 -0.04380117 0.08259453 0.018519279
-0.07901225 0.04910913 -0.014119682 0.018552544 0.008928509 0.019646913 -0.005981609 -0.043384455
-0.002603287 -0.026384749 0.10009226 -0.037130818 0.07808155 0.015242564 -0.09996043 0.1002662
-0.052239314 -0.035979122 -0.056738578 0.071439326 0.02794069 -0.018000899 0.026135989 -0.0147761535
0.073888704 -0.004918534 -0.09298502 -0.017214186 -0.022379942 0.013613613 -0.045711614 0.040648233
-0.04438574 0.047596674 -0.09707203 -0.06832134 0.035054382 0.09705265 -0.040611584 -0.019489009
0.08970685 -0.07701643 -0.06057131 0.014897765 0.081178196 -0.08353816 0.01185546 0.06933571
-0.004898094 -0.092981555 0.043681987 -0.040883213 -0.073140875 0.052561272 0.058901355 -0.04178175
-0.07711944 -0.013484669 0.009675868 -0.04463043 0.03972873 -0.071198605 0.0917059 0.058235887
-0.07592695 0.032315582 -0.0037079218 -0.069160715 0.07535431 -0.008692604 -0.0064891973 -0.053582124
-0.034398194 -0.027567359 -0.015510523 0.048075937 0.048131067 0.039139107 -0.014147014 -0.003910211
-0.07895358 -0.09482207 -0.053109396 -0.06687452 -0.06464287 0.041276246 -0.050779056 -0.032155205
-0.037222687 0.051109545 0.0006878467 0.017122788 0.09083476 -0.02876262 0.03987217 0.057505906
-0.014508912 0.028956942 0.06754389 0.027016763 0.04631222 0.06332839 0.09482758 -0.016694881
-0.07500515 0.0031848866 -0.113344595 0.074977994 -0.087400466 0.0767512 -0.013940177 -0.1002628
00000000: 998b 7dbb 5480 91bd 8c82 ba3d 3bef 4ebb
00000010: ad34 adbc f249 1ebd a27b c53d fc9a 6b3d
00000020: 959d 15bd 5ca3 b03d e6d2 85bd 2069 f0bc
00000030: e7d4 ea3c 644d c93d 7881 653d f41d 9fbc
00000040: c139 d13b 8a66 463d b0ff cdbd 506f 403c
00000050: 840d c8bd 602a 6cbd 0bb2 b93d 3bf2 d73d
00000060: f453 94bd bb4b c9bd b48d 9f3d 3bad 04bd
00000070: 2d9b b2bc 8a84 653d d787 073d b824 a1bc
00000080: 2f22 c43b 5209 383c 6e2e 9cbd 4ace 2a3d
00000090: 6f85 ebbd e898 21bd a0b7 6dbd e273 d63d
000000a0: 7105 8bbc 3145 e53c cccb e7bc c2d6 fd3c
000000b0: 0b60 7ebd 74a2 1a3d b259 ee3d 8b71 efbc
000000c0: dd42 90bd 22c1 863d f483 46bd 0ad0 00bd
000000d0: 898f 473d c535 813c 45f6 aebd 762b d8bc
000000e0: 184f 1dbb d4f0 433d 3b35 d83d 7747 95bd
000000f0: b1b7 b13c d1e7 833d 3155 f53d e840 403d
00000100: 7394 b3bc d83e 66bc 00ab 9d3a 86ab 4f3d
00000110: 55a0 dfbd a11b 803d 1099 e03c a93b 9b3d
00000120: acab 3c3d c53a 1cbc e5f6 a5bc 316f cebd
00000130: 8df0 98bd 55de a1bd 8c48 6cbb b21e 2f3b
00000140: d87d c1bc 1278 0bbe 52bb 0d3d fd27 cdbc
00000150: 8b2c a0bd 33b6 9b3c 293b 5a3d 74eb b83b
00000160: 22bf d13d e0c4 793d 55aa 29bc 7f92 d2bd
00000170: 8cc3 c03d 6fd5 c13d 04e2 12bd 5e4a 523d
00000180: f15f b73d 5f5d 163d eac1 043c 8898 523d
00000190: 04b8 b4bd e8f4 683d 274f 8d3d 8af9 223d
000001a0: 1752 3d3d c10f 4fbd 3d1d b8bd dd71 a03c
000001b0: dd3f 363d 5cf0 0a3d b35f 8ebd c8c6 dc3d
000001c0: c3b8 07bc c028 6d3d d8c9 cebc 4074 413d
000001d0: f079 dcbd 565c f83b a3c6 5cbd e271 4bbd
000001e0: d8e0 463d 7d4c 5c3d ed2f 353d 290d 3d3c
000001f0: 3ef0 0cbd 949b bfbd 99b3 dcbc 2967 b13d
00000200: 4695 653d 9fa3 e43d 7634 1cbd 238f a53d
00000210: 407b cabc 342a 453d 5e30 8dbd 3101 adbd
00000220: 5ccd ef3c b4b7 e03c 349c a73c f163 2a3d
00000230: 907e 7c3d db68 33bd 5227 a93d beb5 973c
00000240: 2dd1 a1bd a826 493d 3d56 67bc 81fb 973c
00000250: e248 123c 90f2 a03c 6001 c4bb e6b3 31bd
00000260: e99b 2abb d424 d8bc 2cfd cc3d 7c16 18bd
00000270: 38e9 9f3d f2bb 793c 0eb8 ccbd 5e58 cd3d
00000280: e4f8 55bd d85e 13bd b666 68bd c84e 923d
00000290: e0e3 e43c 9f76 93bc 241b d63c ae17 72bc
000002a0: f652 973d a72b a1bb ee6e bebd c404 8dbc
000002b0: 2456 b7bc a20b 5f3c 1a3c 3bbd c37e 263d
000002c0: d2cd 35bd bbf4 423d b3cd c6bd 0fec 8bbd
000002d0: 2f95 0f3d 8ac3 c63d 5558 26bd 6aa7 9fbc
000002e0: 3ab8 b73d caba 9dbd 9f19 78bd c115 743c
000002f0: c140 a63d 0e16 abbd 673d 423c e1ff 8d3d
00000300: 3180 a0bb 1d6d bebd e2eb 323d 2875 27bd
00000310: e2ca 95bd 7d4a 573d 8c42 713d 5723 2bbd
00000320: ccf0 9dbd cdee 5cbc 8887 1e3c 66ce 36bd
00000330: 98ba 223d 93d0 91bd 4ed0 bb3d c188 6e3d
00000340: 977f 9bbd 585d 043d 9b00 73bb 22a4 8dbd
00000350: 5c53 9a3d 6c6b 0ebc 55a3 d4bb ee78 5bbd
00000360: 1fe5 0cbd f1d4 e1bc d91f 7ebc 46eb 443d
00000370: 1525 453d 5450 203d e1c8 67bc 3a21 80bb
00000380: 6ab2 a1bd 1332 c2bd 3d89 59bd 82f5 88bd
00000390: 7b63 84bd 4811 293d b3fd 4fbd 2db5 03bd
000003a0: d176 18bd 3e58 513d 9c50 343a 1745 8c3c
000003b0: 9307 ba3d 969f ebbc 0051 233d 508b 6b3d
000003c0: cab6 6dbc 1c37 ed3c 7354 8a3d 4252 dd3c
000003d0: e2b1 3d3d 51b2 813d f634 c23d b4c3 88bc
000003e0: 4d9c 99bd 88b9 503b 3621 e8bd 108e 993d
000003f0: 04ff b2bd bc2f 9d3d 5765 64bc 9556 cdbd

fc2.bias f4 [96]
-0.09448219 0.07028779 0.05598738 -0.102023296 -0.09006841 0.08222777 -0.09476517 0.08836605
0.00572647 -0.034604862 -0.039108098 -0.0853387 -0.08476429 -0.005958169 0.02141762 0.08868013
-0.01769341 0.008597844 -0.035383645 -0.02388934 -0.08516331 0.08164776 -0.03245698 0.015729059
-0.04240553 -0.06440471 0.04576687 -0.09571824 0.0828922 -0.021211147 -0.0998293 -0.08119481
0.027081233 0.032580383 0.02284157 0.035751786 -0.06394141 0.056903157 0.056893993 0.025422798
-0.054759093 0.061058134 0.07112699 -0.107124 -0.07968359 0.08320112 0.0019342944 -0.04865066
-0.06890403 0.07474378 -0.09137555 -0.05556914 0.01719043 -0.07535417 0.07865397 -0.05153257
-0.06824678 0.047747668 0.076740645 0.012639333 -0.04135861 0.0788858 -0.010740236 0.08681939
-0.039157715 -0.0048768143 -0.034142613 -0.08594559 -0.08364925 0.0053467536 -0.03345261 -0.07215221
-0.009003619 0.10719506 -0.060192272 0.04831416 0.05342713 -0.036777582 0.08019341 -0.06313944
-0.0026769312 -0.029126039 -0.07293419 -0.0035852594 -0.060270317 -0.030759959 0.038237523 -0.085666366
0.06755966 0.051656693 -0.08115713 -0.07258132 -0.045538876 -0.10552004 0.031879857 0.05135936
00000000: e17f c1bd 0bf3 8f3d 0653 653d 97f1 d0bd
00000010: c975 b8bd 0867 a83d 3e14 c2bd 42f9 b43d
00000020: 1da5 bb3b d4bd 0dbd d02f 20bd 0ec6 aebd
00000030: e698 adbd be3c c3bb 0174 af3c ee9d b53d
00000040: c5f1 90bc f9dd 0c3c 71ee 10bd 94b3 c3bc
00000050: 1a6a aebd f136 a73d 9cf1 04bd 3ada 803c
00000060: 6cb1 2dbd 9ee6 83bd 0b76 3b3d ed07 c4bd
00000070: 63c3 a93d 00c3 adbc 4e73 ccbd 7749 a6bd
00000080: 76d9 dd3c 0273 053d 3f1e bb3c 7770 123d
00000090: b7f3 82bd 4913 693d ad09 693d 7943 d03c
000000a0: 124b 60bd 1818 7a3d 07ab 913d d463 dbbd
000000b0: 2631 a3bd 5965 aa3d 2688 fd3a ea45 47bd
000000c0: 8e1d 8dbd 4413 993d 1b23 bbbd 779c 63bd
000000d0: f2d2 8c3c 4953 9abd 5515 a13d d113 53bd
000000e0: f8c4 8bbd 0f93 433d 332a 9d3d 3415 4f3c
000000f0: a567 29bd e18e a13d d1f7 2fbc 5dce b13d
00000100: d763 20bd afcd 9fbb 20d9 0bbd 3e04 b0bd
00000110: 4c50 abbd d233 af3b 9b05 09bd 8ac4 93bd
00000120: ea83 13bc 1589 db3d 2c8c 76bd 12e5 453d
00000130: 68d6 5a3d 17a4 16bd 713c a43d 404f 81bd
00000140: 746f 2fbb bb99 eebc 855e 95bd acf6 6abb
00000150: 02de 76bd 4ffc fbbc f39e 1c3d d971 afbd
00000160: b85c 8a3d f895 533d b635 a6bd 84a5 94bd
00000170: f986 3abd e41a d8bd 7494 023d 315e 523d

fc3.weight f4 [1, 96]
-0.026125688 -0.0029033292 -0.003055761 0.0007813883 -0.035278954 -0.007289999 0.02598479 0.0043980936
-0.0021092086 0.009934112 -0.031298593 0.009890431 -0.0029182474 0.0062854495 -0.0042576157 -0.003288185
-0.052251544 0.0037027795 -0.026993131 -0.007381447 -0.03369651 -0.010792459 -0.004066923 0.0057804086
-0.006640539 -0.047480997 -0.0025608581 -0.040882725 0.0059127733 0.0022804416 -0.049218856 -0.0010537015
0.0045921644 -0.0018719881 0.0021275908 -0.0028470082 -0.021409944 0.0031299226 -0.006153211 -0.0014081416
-0.018064575 0.0010922654 -0.0049851346 -0.002571159 -0.0031410852 -0.0042754738 0.0017303005 0.0016340938
-0.002412588 -0.0005706197 0.0038038574 -0.00023257051 -0.037135202 -0.014369706 -0.008841579 -0.041423522
-0.0015343591 -0.019285398 -0.03003005 0.00072928343 -0.026238391 0.0055083116 -0.0018651782 -0.0004507613
0.0050889077 -0.0036721372 0.003693117 -0.0031621289 -0.044290777 -0.0021729448 -0.036240466 -0.0032175588
-2.8993694e-05 0.018590907 -0.015783528 -0.0016511868 -0.00024129263 0.0072338576 -0.0025107218 -0.021686176
0.009518534 -0.044196427 0.010431963 -0.02553617 -0.0003953362 0.005005652 0.0037279876 -0.0015507909
-0.002654821 -0.0021042295 0.0014782166 -0.047177937 0.004832008 0.007554473 -0.0050104624 0.0051366477
00000000: 8a05 d6bc c845 3ebb 2a43 48bb 15d6 4c3a
00000010: aa80 10bd f2e0 eebb 0ede d43c e21d 903b
00000020: a63a 0abb b0c2 223c f432 00bd 790b 223c
00000030: 1140 3fbb 2cf6 cd3b 7883 8bbb 977e 57bb
00000040: b705 56bd 55aa 723b b320 ddbc 11e0 f1bb
00000050: 5a05 0abd dbd2 30bc d343 85bb 9569 bd3b
00000060: e198 d9bb 6f7b 42bd 12d4 27bb a574 27bd
00000070: f0bf c13b 7673 153b b699 49bd 5b1c 8aba
00000080: de79 963b 7f5d f5ba 0d6f 0b3b df94 3abb
00000090: e863 afbc 631f 4d3b e0a0 c9bb 6491 b8ba
000000a0: 29fc 93bc 582a 8f3a 575a a3bb e480 28bb
000000b0: aada 4dbb 4619 8cbb 40cb e23a 172f d63a
000000c0: 831c 1ebb a495 15ba 234a 793b 2cde 73b9
000000d0: 151b 18bd ea6e 6bbc 45dc 10bc b6ab 29bd
000000e0: 8c1c c9ba 69fc 9dbc 9401 f6bc 622d 3f3a
000000f0: e5f1 d6bc 117f b43b ff78 f4ba 2854 ecb9
00000100: dac0 a63b 3da8 70bb 3908 723b b83b 4fbb
00000110: 3f6a 35bd f767 0ebb e270 14bd aedd 52bb
00000120: 7c37 f3b7 f54b 983c 754c 81bc a36c d8ba
00000130: 7f03 7db9 ff09 ed3b ec8a 24bb 35a7 b1bc
00000140: a0f3 1b3c 5007 35bd d3ea 2a3c 3b31 d1bc
00000150: 2045 cfb9 7406 a43b 4151 743b e843 cbba
00000160: 81fc 2dbb 1de7 09bb b8c0 c13a a73d 41bd
00000170: d255 9e3b 838b f73b ce2e a4bb 5351 a83b
