p3_collab-compet/critic.pth (torch_old, 21187 bytes, 9 tensors)

fc1.weight f4 [23, 48]
-0.15317865 -0.07911356 -0.13912965 -0.15929289 -0.20795262 0.20783265 -0.09962384 -0.12299007
-0.13351417 0.040721744 0.16495402 0.08298744 0.007033944 -0.031746775 0.0024413913 -0.13150927
-0.006748259 0.023629501 0.1275376 0.06307037 0.17190231 0.0024336874 -0.06801362 -0.14137071
0.16572408 0.05668865 -0.09969408 0.112058565 0.013115749 -0.13790056 -0.18813977 0.14685081
0.037964746 -0.14637744 -0.073268786 -0.027056813 0.07827295 0.19307362 0.08154647 -0.053607285
-0.039857566 0.15572073 0.08325054 0.07040019 0.0714639 -0.06866525 -0.16041413 -0.18004563
0.1178049 -0.1048867 0.20246328 -0.037127122 -0.1821082 -0.04801546 0.14773227 0.1725239
0.0754457 0.114475146 0.19251783 0.15683429 0.1251163 0.13418125 0.06400482 0.08566646
0.042724207 -0.18966769 -0.004795313 -0.16634572 -0.026091367 -0.029649004 -0.010733634 0.10611646
0.046980336 -0.03894791 0.042374477 -0.020516768 -0.12782302 -0.15264744 -0.03840643 0.13497676
0.008462518 0.18462975 -0.17913604 0.18104516 -0.20420599 0.20249616 0.16873874 0.052455857
-0.09708237 0.12858354 0.19171368 -0.122958355 -0.110742755 0.096115276 -0.117009714 -0.16109994
0.124036625 0.14741509 0.1330625 -0.14528167 -0.0069521666 0.17272885 -0.19327512 -0.007368535
0.097580746 -0.090986975 0.11983423 -0.117454804 -0.15363106 0.16900359 0.17379381 -0.006186053
0.09565695 0.101206616 -0.17580608 0.0970837 0.099212304 -0.049289107 -0.07327433 0.02150391
-0.17106111 0.062388763 0.15897591 0.1947176 0.04117185 0.058910683 0.10562061 -0.17348643
0.044890925 0.11495714 -0.14941542 0.11511089 -0.1171986 0.13890602 -0.12421586 0.06286757
0.17435785 -0.002001375 -0.20753124 -0.06481226 0.18558423 0.13454963 -0.14273512 -0.17307313
-0.08919199 0.17442407 -0.115390636 0.11778642 0.014371291 0.007971153 -0.028919876 0.16693197
0.13700749 0.10960974 -0.046368673 0.13655533 0.19172134 0.19683681 0.056287184 -0.08333866
0.11501576 -0.098789714 -0.16267616 0.15408213 0.1027949 0.09623562 -0.040129974 0.19136177
0.1158386 -0.18957691 0.07431136 -0.061152652 0.064708695 -0.15701178 0.09128527 0.04563068
0.101280734 -0.18103305 0.005762264 0.0952649 -0.026327536 0.03172542 -0.0477435 -0.021591157
-0.10685666 -0.08004904 -0.02854094 -0.042382702 -0.13053527 0.1537468 0.10258718 0.0879481
0.1186475 -0.11964598 -0.15000455 -0.020097792 0.07771723 -0.14840482 -0.13274372 0.19981264
0.109613344 0.09228279 0.121024236 -0.014349893 0.09618975 0.115383044 -0.18871072 -0.09873214
0.08293559 0.10412119 -0.14656861 0.13831438 -0.02224192 0.089869544 -0.16719374 -0.02313669
0.09779431 -0.043859765 -0.16287978 -0.20140482 0.18106808 -0.06333971 -0.07191324 -0.061691105
0.04174505 0.106076226 0.16994365 0.1259277 0.02234663 0.12436508 -0.016884148 -0.06367302
0.18586029 0.12474303 0.19865476 0.05707045 0.16594453 0.066470996 -0.10195884 0.07329829
-0.012943938 0.17511345 0.0342512 0.182007 0.19925375 -0.17369913 0.056043282 -0.01331301
0.1534154 -0.18447529 0.097520635 0.17945035 0.12913127 0.15921964 -0.20459187 -0.11067875
00000000: ddda 1cbe 4a06 a2bd 0178 0ebe ad1d 23be
00000010: 88f1 54be 15d2 543e 9507 ccbd 38e2 fbbd
00000020: f0b7 08be d8cb 263d b5e9 283e 52f5 a93d
00000030: 007d e63b e808 02bd c0ff 1f3b 5eaa 06be
00000040: 8020 ddbb a892 c13c 3799 023e 0a2b 813d
00000050: 2907 303e 807e 1f3b ba4a 8bbd 7cc3 10be
00000060: 93b3 293e 5c32 683d 692c ccbd f67e e53d
00000070: 70e3 563c ce35 0dbe b6a7 40be 0f60 163e
00000080: ec80 1b3d f8e3 15be f20d 96bd 40a6 ddbc
00000090: 924d a03d 17b5 453e d601 a73d 5093 5bbd
000000a0: b041 23bd 4175 1f3e 427f aa3d fa2d 903d
000000b0: aa5b 923d 5ea0 8cbd 9a43 24be e25d 38be
000000c0: b243 f13d d7ce d6bd 8952 4f3e 9c12 18bd
000000d0: 927a 3abe dcab 44bd 2147 173e 1baa 303e
000000e0: 4683 9a3d f271 ea3d 6523 453e 2b99 203e
000000f0: 7d1e 003e cf66 093e f614 833d e671 af3d
00000100: 94ff 2e3d 3f38 42be 0022 9dbb 8856 2abe
00000110: 90bd d5bc 78e2 f2bc 20dc 2fbc 9653 d93d
00000120: 746e 403d d887 1fbd dc90 2d3d c812 a8bc
00000130: 0ae4 02be 9c4f 1cbe 1050 1dbd 5937 0a3e
00000140: 60a6 0a3c 950f 3d3e 706f 37be e763 393e
00000150: 601b 51be 275b 4f3e d9c9 2c3e f4db 563d
00000160: 1fd3 c6bd 67ab 033e 9750 443e 97d1 fbbd
00000170: 19cd e2bd 16d8 c43d caa2 efbd 62f7 24be
00000180: ea06 fe3d fbf3 163e 8941 083e b8c4 14be
00000190: 00cf e3bb d5df 303e eae9 45be c073 f1bb
000001a0: 6ad8 c73d 6157 babd a66b f53d 258c f0bd
000001b0: 7651 1dbe 470f 2d3e 01f7 313e 60b4 cabb
000001c0: cae7 c33d 6a45 cf3d 8206 34be d2d3 c63d
000001d0: d22f cb3d 60e3 49bd da10 96bd f828 b03c
000001e0: a52a 2fbe 5c8b 7f3d 95ca 223e 0d64 473e
000001f0: d0a3 283d 544c 713d 9e4f d83d 6da6 31be
00000200: 8cdf 373d a66e eb3d 5b00 19be 42bf eb3d
00000210: d205 f0bd 613d 0e3e e364 febd b6c0 803d
00000220: dd8a 323e 8029 03bb 1283 54be 4abc 84bd
00000230: cb09 3e3e 61c7 093e 2829 12be 153a 31be
00000240: 4aaa b6bd 399c 323e ed51 ecbd 023a f13d
00000250: 9075 6b3c 7099 023c 60e9 ecbc 37f0 2a3e
00000260: b14b 0c3e 127b e03d 14ed 3dbd 29d5 0b3e
00000270: 9952 443e 978f 493e 648d 663d 76ad aabd
00000280: 628d eb3d 4352 cabd 9494 26be b5c7 1d3e
00000290: 2286 d23d 2e17 c53d 545f 24bd 57f4 433e
000002a0: ca3c ed3d 7320 42be 8e30 983d 347b 7abd
000002b0: fe85 843d b2c7 20be c6f3 ba3d 3ce7 3a3d
000002c0: 466c cf3d ba60 39be 60d1 bc3b 3e1a c33d
000002d0: d8ac d7bc 84f2 013d b08e 43bd f0df b0bc
000002e0: aad7 dabd c0f0 a3bd b0ce e9bc 7c99 2dbd
000002f0: 0aab 05be cd6f 1d3e 3a19 d23d 221e b43d
00000300: 76fd f23d f408 f5bd cb9a 19be 20a4 a4bc
00000310: 362a 9f3d 6ff7 17be f8ed 07be af9b 4c3e
00000320: f67c e03d c2fe bc3d 8edb f73d d01b 6bbc
00000330: 22ff c43d f24d ec3d 623d 41be 1434 cabd
00000340: 22da a93d 7e3d d53d 1516 16be 49a2 0d3e
00000350: b034 b6bc 860d b83d d634 2bbe 2889 bdbc
00000360: 6248 c83d 4ca6 33bd f5c9 26be 113d 4ebe
00000370: e969 393e 40b8 81bd 4047 93bd d0af 7cbd
00000380: dcfc 2a3d 7e3e d93d b505 2e3e 31f3 003e
00000390: 4810 b73c 1eb3 fe3d a050 8abc 0067 82bd
000003a0: 2952 3e3e 4679 ff3d 276c 4b3e b4c2 693d
000003b0: 5ded 293e f221 883d cccf d0bd 6a1d 963d
000003c0: d012 54bc f150 333e fc4a 0c3d 0b60 3a3e
000003d0: 2d09 4c3e 2fde 31be a48d 653d d01e 5abc
000003e0: ed18 1d3e 17e7 3cbe e6b8 c73d d5c1 373e
000003f0: fd3a 043e 790a 233e 8880 51be 8aab e2bd

fc1.bias f4 [23]
-0.015464097 -0.09501147 0.10941091 0.012542754 0.08554055 0.018836841 -0.12906072 -0.13027027
0.061464593 0.113166004 0.045447707 0.13290492 -0.11774678 -0.023732208 -0.14179906 -0.053430006
-0.13144329 -0.07349918 -0.05515787 -0.044712 -0.049503304 -0.050537765 -0.12420032
00000000: 205d 7dbc 6095 c2bd d412 e03d 2080 4d3c
00000010: e22f af3d b84f 9a3c 7e28 04be 9265 05be
00000020: 4cc2 7b3d 94c3 e73d 6027 3a3d 3a18 083e
00000030: 3925 f1bd 0c6a c2bc c633 11be 6cd9 5abd
00000040: 1299 06be bd86 96bd 38ed 61bd ee23 37bd
00000050: fac3 4abd b000 4fbd bd5c febd

bn1.weight f4 [23]
0.031205595 0.92736125 0.62042975 0.10525268 0.97125304 0.18684548 0.5984075 0.953121
0.51744795 0.90904903 0.6350567 0.13600099 0.280824 0.15773654 0.39330065 0.027468324
0.6406601 0.30479395 0.85819256 0.17345572 0.8442994 0.5518029 0.22023064
00000000: e0a2 ff3c 8c67 6d3f 7cd4 1e3f b88e d73d
00000010: 0aa4 783f 6c54 3f3e 3c31 193f bdff 733f
00000020: 7877 043f 70b7 683f 1393 223f d843 0b3e
00000030: 2ac8 8f3e b085 213e b45e c93e 4005 e13c
00000040: 4d02 243f f40d 9c3e 82b2 5b3f 609e 313e
00000050: 0124 583f f442 0d3f 2484 613e

bn1.bias f4 [23]
0.0 0.0 0.0 0.0 0.0 0.0 0.0 0.0
0.0 0.0 0.0 0.0 0.0 0.0 0.0 0.0
0.0 0.0 0.0 0.0 0.0 0.0 0.0
00000000: 0000 0000 0000 0000 0000 0000 0000 0000
00000010: 0000 0000 0000 0000 0000 0000 0000 0000
00000020: 0000 0000 0000 0000 0000 0000 0000 0000
00000030: 0000 0000 0000 0000 0000 0000 0000 0000
00000040: 0000 0000 0000 0000 0000 0000 0000 0000
00000050: 0000 0000 0000 0000 0000 0000

bn1.running_mean f4 [23]
0.0 0.0 0.0 0.0 0.0 0.0 0.0 0.0
0.0 0.0 0.0 0.0 0.0 0.0 0.0 0.0
0.0 0.0 0.0 0.0 0.0 0.0 0.0
00000000: 0000 0000 0000 0000 0000 0000 0000 0000
00000010: 0000 0000 0000 0000 0000 0000 0000 0000
00000020: 0000 0000 0000 0000 0000 0000 0000 0000
00000030: 0000 0000 0000 0000 0000 0000 0000 0000
00000040: 0000 0000 0000 0000 0000 0000 0000 0000
00000050: 0000 0000 0000 0000 0000 0000

bn1.running_var f4 [23]
1.0 1.0 1.0 1.0 1.0 1.0 1.0 1.0
1.0 1.0 1.0 1.0 1.0 1.0 1.0 1.0
1.0 1.0 1.0 1.0 1.0 1.0 1.0
00000000: 0000 803f 0000 803f 0000 803f 0000 803f
00000010: 0000 803f 0000 803f 0000 803f 0000 803f
00000020: 0000 803f 0000 803f 0000 803f 0000 803f
00000030: 0000 803f 0000 803f 0000 803f 0000 803f
00000040: 0000 803f 0000 803f 0000 803f 0000 803f
00000050: 0000 803f 0000 803f 0000 803f

fc2.weight f4 [128, 27]
-0.059639107 -0.08675325 0.015255697 -0.03699248 0.080757536 0.0832051 0.040326126 0.07940874
0.077836715 -0.03717666 -0.014451161 0.033054687 -0.011349611 -0.032255784 -0.01600752 -0.011785932
-0.065994844 -0.018419519 -0.033903934 0.005439535 0.008337215 0.07120805 -0.07861917 0.027574778
-0.002828233 0.08003252 -0.035730444 0.010759175 0.019569486 -0.064592466 -0.033479728 -0.0031421408
0.046335228 -0.06850868 -0.06818123 0.087525405 0.00884673 0.05529412 0.054434694 -0.041520312
0.06367006 0.01510255 -0.037262324 -0.009909853 0.020453379 0.03811326 -0.020617507 -0.0020470694
0.0065616444 0.003744103 -0.064339474 0.012093879 -0.06674615 -0.028370317 -0.0063867047 0.024432853
0.079432376 0.02727887 0.025422722 0.06928492 0.009717338 0.0744667 -0.011317521 0.06156329
-0.03522264 0.056530215 0.03752067 -0.056510903 -0.009987421 -0.047217175 0.024953179 0.023213148
0.08259126 0.056128003 -0.07270295 -0.037913777 0.04760263 -0.010106958 0.02573838 0.028296076
0.051718347 -0.08579455 0.0023768097 -0.05031751 -0.009022988 0.017240494 0.061933152 -0.0023550317
0.0816051 -0.020314358 -0.044762764 -0.0016783923 0.03298956 -0.018827774 0.07214884 -0.0128842145
0.082878135 0.06493632 0.04332792 0.020155035 -0.054851055 -0.031863395 0.017803177 0.055306427
-0.0122704655 0.071378075 0.083349906 0.0032342896 -0.06083946 -0.07587207 0.07619613 -0.07068224
0.0188706 0.012081191 -0.08088525 -0.05926981 -0.054470703 -0.048982814 0.02221065 -0.0869564
0.061179675 0.005973786 0.06493769 -0.04591194 -0.01982186 -0.019245788 0.061606802 -0.06620375
0.0154158175 -0.058052428 0.033323996 -0.026333824 0.052155666 0.04129397 0.03406483 0.060149454
0.08812251 -0.04076833 -0.009183511 0.00245063 -0.015208468 0.0649345 -0.044513814 -0.060388774
-0.08194824 -0.008254841 0.0023014098 0.040136047 -0.0016397312 0.020130575 0.020265788 -0.058526196
-0.06841831 0.03293276 0.02628681 -0.072611555 -0.03286491 -0.010366946 0.0668783 -0.004310243
0.0066077635 0.020798229 -0.08687474 0.0069204792 -0.06589755 -0.029786747 -0.08427553 0.009546734
-0.031180426 -0.07460293 -0.030184317 -0.025813952 0.008231193 0.04804074 0.00018043816 0.03797456
0.027726263 -0.007733695 0.024509244 0.035069592 -0.011954002 0.00190074 0.054773517 -0.0073415563
-0.08015907 -0.060866307 -0.0881847 0.04157532 0.042134605 0.0231907 -0.00195726 0.029510915
-0.03652526 0.050420426 0.00920213 0.06754706 -0.0706923 0.07937736 0.059382536 -0.0754993
-0.07381944 -0.0521089 -0.019136354 -0.06779822 0.07734945 -0.060653824 0.0055707097 -0.009624168
-0.067258306 -0.027870413 -0.07564174 -0.08152674 -0.0036127716 0.0004915148 0.056144856 0.008992776
-0.031120095 -0.028075594 -0.011173733 -0.0629941 0.07298855 -0.039529372 -0.03308321 0.04036521
0.013878852 -0.02888529 -0.01590208 0.06704187 0.08261559 0.012945466 0.002328761 -0.015090637
-0.012591094 -0.06938444 0.03741931 0.060601555 0.024847597 0.05877129 -0.021456033 0.010389864
0.043159388 0.053577803 0.02034799 0.06963397 -0.06798321 -0.04783156 -0.059605233 -0.0055684745
-0.06897121 0.057254456 -0.047237016 -0.05915624 -0.085229374 0.08101923 0.04521344 0.02274581
00000000: 2348 74bd b0ab b1bd 08f3 793c 6d85 17bd
00000010: 3564 a53d 6f67 aa3d 022d 253d 0da1 a23d
00000020: db68 9f3d 8e46 18bd 90c4 6cbc 5a64 073d
00000030: b8f3 39bc a41e 04bd 3422 83bc c819 41bc
00000040: 4e28 87bd 88e4 96bc dade 0abd 203e b23b
00000050: d098 083c 87d5 913d 1603 a1bd 80e4 e13c
00000060: e059 39bb 17e8 a33d 165a 12bd 4047 303c
00000070: 3050 a03c 0e49 84bd 0a22 09bd 60ec 4dbb
00000080: 02ca 3d3d 474e 8cbd 9aa2 8bbd 8540 b33d
00000090: e0f1 103c 167c 623d eaf6 5e3d 3411 2abd
000000a0: 7365 823d b070 773c 61a0 18bd f05c 22bc
000000b0: d88d a73c a61c 1c3d 0ce6 a8bc 2028 06bb
000000c0: 1003 d73b a05f 753b 6ac4 83bd 6825 463c
000000d0: 35b2 88bd de68 e8bc 9047 d1bb 6827 c83c
000000e0: 71ad a23d f077 df3c 5043 d03c 41e5 8d3d
000000f0: 7835 1f3c ff81 983d 206d 39bc ca29 7c3d
00000100: 9d45 10bd 3a8c 673d 46af 193d fa77 67bd
00000110: 48a2 23bc cc66 41bd 9c6a cc3c 8029 be3c
00000120: 9b25 a93d 7ae6 653d 49e5 94bd 7a4b 1bbd
00000130: fafa 423d a897 25bc 4cd9 d23c 2ccd e73c
00000140: 9ed6 533d 0eb5 afbd 40c4 1b3b bc19 4ebd
00000150: 28d5 13bc f03b 8d3c 9ead 7d3d e056 1abb
00000160: 9320 a73d 4c6a a6bc 2959 37bd 80fd dbba
00000170: 1020 073d b43c 9abc c5c2 933d 5018 53bc
00000180: 03bc a93d 55fd 843d 9e78 313d 2c1c a53c
00000190: 80ab 60bd 3183 02bd f8d7 913c fe88 623d
000001a0: 100a 49bc ab2e 923d 5bb3 aa3d 60f6 533b
000001b0: cc32 79bd d162 9bbd b70c 9c3d dac1 90bd
000001c0: 8496 9a3c 30f0 453c 2aa7 a5bd e6c4 72bd
000001d0: ac1c 5fbd 34a2 48bd 1cf3 b53c 3216 b2bd
000001e0: 8a97 7a3d c0bf c33b 0dfe 843d 290e 3cbd
000001f0: 7461 a2bc 58a9 9dbc 6a57 7c3d d595 87bd
00000200: a092 7c3c 62c8 6dbd be7e 083d 08ba d7bc
00000210: 2ea1 553d de23 293d 9087 0b3d 465f 763d
00000220: 9379 b43d b1fc 26bd 7076 16bc c09a 203b
00000230: f02c 79bc 61fc 843d 1e54 36bd 385a 77bd
00000240: 7bd4 a7bd 503f 07bc 40d3 163b b265 243d
00000250: 40ec d6ba e0e8 a43c 7004 a63c 2ab9 6fbd
00000260: e61e 8cbd 80e4 063d 7057 d73c 5eb5 94bd
00000270: 5b9d 06bd 20da 29bc 7df7 883d f03c 8dbb
00000280: f085 d83b 0c61 aa3c 62eb b1bd 30c5 e23b
00000290: 4bf5 86bd 5603 f4bc a698 acbd e869 1c3c
000002a0: 186e ffbc 6cc9 98bd 1a45 f7bc c877 d3bc
000002b0: 20dc 063c 5ec6 443d 0034 3d39 368b 1b3d
000002c0: 3022 e33c f06a fdbb 9cc7 c83c 22a5 0f3d
000002d0: b8da 43bc 4022 f93a 325a 603d 7091 f0bb
000002e0: 702a a4bd f34e 79bd 2e9a b4bd e24a 2a3d
000002f0: 5695 2c3d 6cfa bd3c 6045 00bb e0c0 f13c
00000300: 839b 15bd a685 4e3d 88c4 163c 1d56 8a3d
00000310: 20c7 90bd 9990 a23d 1a3b 733d 619f 9abd
00000320: a62e 97bd 2470 55bd d8c3 9cbc cbd9 8abd
00000330: 6369 9e3d 2570 78bd 808a b63b b0ae 1dbc
00000340: b9be 89bd 7e50 e4bc 0eea 9abd 7ef7 a6bd
00000350: 40c4 6cbb 00d9 003a 26f8 653d 7056 133c
00000360: 92ef febc cafe e5bc 0812 37bc 0d03 81bd
00000370: 057b 953d 8de9 21bd 4382 07bd fe55 253d
00000380: 2064 633c d8a0 ecbc 1445 82bc 3f4d 893d
00000390: 5d32 a93d 3819 543c 209e 183b b83e 77bc
000003a0: e04a 4ebc 6e19 8ebd fe44 193d 5639 783d
000003b0: 308d cb3c 2aba 703d 90c4 afbc 403a 2a3c
000003c0: e6c7 303d 6674 5b3d d4b0 a63c 419c 8e3d
000003d0: c83a 8bbd 07eb 43bd 9e24 74bd c077 b6bb
000003e0: c740 8dbd a683 6a3d 9a7b 41bd d04d 72bd
000003f0: bd8c aebd 69ed a53d ba31 393d 6c55 ba3c

fc2.bias f4 [128]
-0.18278043 0.123507485 0.14703052 0.085685804 -0.16144276 0.146233 -0.03591661 0.09786619
-0.1313293 -0.050966278 0.11566581 0.13744275 0.116370335 -0.053713545 -0.001979947 -0.025344744
0.16589977 -0.17429957 0.16148494 0.15840687 -0.1457147 -0.07546794 0.14912896 0.16558008
-0.14813486 0.09327911 0.020890176 -0.067074984 0.0016376376 -0.163477 -0.11270284 0.0582027
-0.0009356141 0.18980692 0.09755845 0.04990278 0.08625786 -0.1398204 0.067740425 -0.098810636
0.14976425 0.0065790713 0.09050681 -0.14284323 -0.1494918 0.056111842 -0.14241868 0.16302304
-0.078370124 0.010566488 -0.18782832 0.14767672 0.029362202 -0.13718465 0.07631214 -0.14154592
-0.039368793 0.024321407 0.16436823 -0.07320617 0.076468095 0.011334002 0.038955405 0.15243284
-0.005470544 0.13388081 0.007845864 -0.17232507 0.1361698 0.11321573 -0.068647146 0.024733111
-0.08799984 0.02534844 -0.18851367 0.114510015 0.053298086 -0.03879945 0.06704645 -0.12609619
-0.055302814 0.11167933 0.15227722 -0.15386759 0.08037327 -0.14440572 0.13029258 0.040449142
-0.03844203 0.040550068 -0.013392523 0.0856234 0.07971461 0.16962998 -0.024194092 0.09616692
0.15033062 -0.14238797 0.067974046 -0.12836781 -0.07579683 -0.11090259 -0.058069333 -0.028644443
-0.029516533 -0.18973148 -0.029383317 0.18886666 0.019464433 -0.05642891 -0.11458189 -0.18088599
-0.08546115 0.021384552 0.18337046 0.005384475 -0.11308415 0.108239695 -0.12925941 0.18626805
0.0054231584 -0.1067431 0.038906485 0.18969123 -0.08232651 0.087024584 0.17450215 0.16928358
00000000: cb2a 3bbe 7ef1 fc3d 2b8f 163e 0a7c af3d
00000010: 4051 25be 1bbe 153e 4c1d 13bd 126e c83d
00000020: 307b 06be 04c2 50bd 32e2 ec3d cbbd 0c3e
00000030: 9253 ee3d bc02 5cbd 00c2 01bb c89f cfbc
00000040: a1e1 293e 967b 32be 4f5c 253e 6935 223e
00000050: 3c36 15be ef8e 9abd 43b5 183e d38d 293e
00000060: aab0 17be 1e09 bf3d e021 ab3c 9c5e 89bd
00000070: 00a6 d63a 8466 27be bfd0 e6bd f465 6e3d
00000080: 0044 75ba bf5c 423e bacc c73d dc66 4c3d
00000090: f6a7 b03d 142d 0fbe 7ebb 8a3d 3b5d cabd
000000a0: cd5b 193e 4095 d73b a25b b93d 7f45 12be
000000b0: 6114 19be 88d5 653d 34d6 11be 83ef 263e
000000c0: 8480 a0bd 101f 2d3c 1156 40be 9138 173e
000000d0: 0089 f03c 227a 0cbe 8a49 9c3d 6af1 10be
000000e0: 2c41 21bd b03d c73c 2550 283e 1eed 95bd
000000f0: 4e9b 9c3d 40b2 393c b48f 1f3d 5b17 1c3e
00000100: 4042 b3bb 0d18 093e f08b 003c fc75 30be
00000110: 1970 0b3e a6dd e73d e096 8cbd 189d ca3c
00000120: 4339 b4bd 88a7 cf3c ba09 41be 3a84 ea3d
00000130: 184f 5a3d 2cec 1ebd a64f 893d 5c1f 01be
00000140: 3485 62bd 22b8 e43d 8fee 1b3e 778f 1dbe
00000150: be9a a43d 18df 13be 6b6b 053e 00ae 253d
00000160: 6475 1dbd d417 263d 506c 5bbc 525b af3d
00000170: 6a41 a33d 7bb3 2d3e b032 c6bc 2af3 c43d
00000180: 45f0 193e 27ce 11be fa35 8b3d da72 03be
00000190: 5e3b 9bbd e620 e3bd 1cda 6dbd c0a7 eabc
000001a0: a8cc f1bc f848 42be 48b5 f0bc 4366 413e
000001b0: e073 9f3c 0022 67bd e9a9 eabd 2d3a 39be
000001c0: 4106 afbd a82e af3c 77c5 3b3e 4070 b03b
000001d0: aa98 e7bd c6ac dd3d 945c 04be 0dbd 3e3e
000001e0: c0b4 b13b 209c dabd 685c 1f3d 6b3e 423e
000001f0: cd9a a8bd f239 b23d b1b0 323e ad58 2d3e

fc3.weight f4 [1, 128]
-0.0009820801 -0.00060905423 0.0017309599 -0.0002394733 0.00044339267 0.0027573486 -0.002973852 -0.0023783233
-0.0028253887 -0.0024859635 0.00065442943 0.0001124728 -0.0029910898 -0.0021344346 -0.001058797 -0.002202218
-0.0018308999 0.0015440555 -0.002663208 -0.0024880185 -0.001216247 -0.0011143684 -6.880984e-05 -0.0021158303
0.0021086321 -0.0006585885 0.0017701406 0.0026148604 0.0016780049 -0.0009794892 0.0010098708 -0.0027780384
0.0027299803 0.0001233602 0.00051086023 -0.0011761036 0.0012920592 0.00010873424 -0.0010668286 -0.00030172733
0.0012805429 -0.0019495118 -0.0027359577 0.0008832908 -0.0016088273 -0.0018513798 0.0002426363 -0.0025312814
0.0020405254 0.00089437794 -0.002534272 0.0021337923 0.0014641788 -0.0021670465 0.002748459 -7.090042e-05
-0.00043198862 0.00227975 0.002362762 -0.0023413983 -0.0027460223 -0.0010291529 0.001454717 -0.0020565083
-0.0020720377 -0.0003692247 0.0027513336 0.0015670378 0.0025138608 0.0021107253 -0.0025171698 0.0001511639
-0.0015922451 0.0006390037 0.0026528188 -0.0029484837 0.0027668332 -0.0028111883 0.0005395224 -0.0023226473
4.7994778e-05 0.0024181223 -5.5082608e-05 0.00018941402 0.0018066182 -0.00232554 -0.0024219532 0.00014375639
0.0018102895 0.0021478585 -0.0008791867 -0.001586851 -0.0007478567 -0.0013154311 -0.00062581873 -0.0017036333
0.0027383016 -0.0029147323 -0.000927774 -0.00075279176 0.0010252474 -7.3804986e-05 0.002438473 -0.0004671833
-0.0017510891 0.0025475225 0.0012097056 0.00020554848 0.0003293734 0.0012094835 0.00014431961 -0.0022683528
0.0015840456 -0.0022200022 -0.00026564463 -0.0010348517 -0.00028545642 -0.0013378608 -0.00021033944 -0.0016239792
0.0018185442 -0.0018669008 -0.0007755654 -0.0010479126 -0.001047383 -0.0024143439 -0.0004204642 -0.0023957205
00000000: 24b9 80ba f0a8 1fba 60e1 e23a 201b 7bb9
00000010: 2877 e839 a2b4 343b f5e4 42bb a5dd 1bbb
00000020: 282a 39bb 8ceb 22bb 048e 2b3a 60df eb38
00000030: 2906 44bb dfe1 0bbb 55c7 8aba 1653 10bb
00000040: cefa efba e861 ca3a 3789 2ebb 060e 23bb
00000050: 7a6a 9fba 0010 92ba 004e 90b8 bea9 0abb
00000060: fa30 0a3b 20a5 2cba 1004 e83a 145e 2b3b
00000070: 80f0 db3a 3462 80ba a45d 843a c00f 36bb
00000080: 78e9 323b 405a 0139 40eb 053a 7d27 9aba
00000090: 505a a93a 4008 e438 d4d4 8bba 2831 9eb9
000000a0: e4d7 a73a c386 ffba c14d 33bb a48c 673a
000000b0: 49df d2ba ffa9 f2ba 306c 7e39 dbe3 25bb
000000c0: 56ba 053b b074 6a3a 0716 26bb 18d7 0b3b
000000d0: b0e9 bf3a 0205 0ebb 7e1f 343b 60b0 94b8
000000e0: 887c e2b9 dc67 153b 92d8 1a3b 2572 19bb
000000f0: 9cf6 33bb a4e4 86ba 34ac be3a 7cc6 06bb
00000100: 06cb 07bb 8094 c1b9 b84f 343b 1065 cd3a
00000110: 96bf 243b 1854 0a3b 1af7 24bb c081 1e39
00000120: e1b2 d0ba d082 273a eada 2d3b 593b 41bb
00000130: c253 353b ea3b 38bb bc6e 0d3a 8e37 18bb
00000140: 004e 4938 5c79 1e3b 8008 67b8 709d 4639
00000150: 0ccc ec3a 1668 18bb a2b9 1ebb 50bd 1639
00000160: 3c47 ed3a 16c3 0c3b 3879 66ba e2fd cfba
00000170: d00b 44ba 8b6a acba fc0d 24ba 734c dfba
00000180: 1475 333b 1805 3fbb dc35 73ba 0057 45ba
00000190: 9861 863a c0c7 9ab8 cace 1f3b 48f0 f4b9
000001a0: cd84 e5ba 56f4 263b fc8e 9e3a 8088 5739
000001b0: c0af ac39 8887 9e3a 8054 1739 a5a8 14bb
000001c0: c09f cf3a 757d 11bb 3846 8bb9 dca3 87ba
000001d0: 50a9 95b9 295b afba 908e 5cb9 b3db d4ba
000001e0: 385c ee3a ccb2 f4ba 504f 4bba 1d5a 89ba
000001f0: 5748 89ba f839 1ebb c071 dcb9 8501 1dbb
