p3_collab-compet/critic.pth (torch_old, 97169 bytes, 9 tensors)

fc1.weight f4 [128, 48]
000000 d3 96 6c 3e 36 69 ba bf e2 11 f5 3d c5 cd cc bd
       0.2310441 -1.4563358 0.119663015 -0.10000185
000010 2c 65 0f 3d ec 1b 2d bf bb 0f 4f 3e 14 c4 5c be
       0.035008594 -0.6762073 0.20220844 -0.21559173
000020 0d b1 57 3e c5 a3 95 bf 6e 36 61 3d 4b 4f dc 3e
       0.21063633 -1.1690603 0.05498355 0.43029246
000030 6d 12 8e 3e dc 4b 64 bf 6a 20 9f 3d f7 db ed 3e
       0.27748433 -0.8917825 0.07769854 0.46456882
000040 1d 03 8a 3e e3 50 ad bf f6 be 14 bf e8 b2 6e be
       0.269555 -1.354031 -0.58103883 -0.23310435
000050 43 9c 82 3e 35 4f c9 bf ba 36 10 bf b5 d2 62 be
       0.25509843 -1.5727297 -0.56333506 -0.22150691
000060 a1 9f 9a 3c 02 16 fc 3e 6c 8e 7c bc 2f 34 de 3e
       0.018874945 0.4923554 -0.015414815 0.43399188
000070 97 ed 9b 3c 28 de 24 bf 4a 9f 09 be ef b3 a9 3e
       0.01903419 -0.64401484 -0.1343967 0.3314509
000080 87 bf 3c be c1 11 03 3f 0d 1b 62 be ee 1c 45 3f
       -0.18432437 0.51198965 -0.22080632 0.7699727
000090 1d 24 60 be 3a e6 4b bf 0c 5c 54 be 62 ad 51 3f
       -0.21888776 -0.7964817 -0.20738238 0.81905186
0000a0 61 21 72 be da 87 1c 3f 1f 02 a9 bd 2c c0 08 3e
       -0.23645546 0.61144793 -0.08252358 0.13354558
0000b0 c0 1c a5 be 14 46 c9 bf 64 ac 68 bd 4e 9b 1a 3d
       -0.32248497 -1.5724511 -0.05680503 0.037745766
0000c0 08 3a e2 3d 6c 07 a3 3f df 07 c3 3d 1b 8b 07 bf
       0.11046225 1.273664 0.09522986 -0.52946633
0000d0 83 ef 99 3e f3 c6 bd be 1e 1f a7 bb 82 60 03 bf
       0.30065545 -0.3706585 -0.005100145 -0.51319134
0000e0 8e 15 7b 3d 66 e4 af 3f 37 a8 2d be 06 ba 11 3f
       0.061299853 1.3741577 -0.169587 0.56924474
0000f0 70 bd 4c 3e 0a dc c2 3e b1 db b8 bd 41 5c 25 3f
       0.1999414 0.380585 -0.09026278 0.64593893
000100 c3 82 b1 3d 7b f6 e8 3f 97 3d 9c 3e 46 1e fb 3e
       0.08667519 1.820022 0.3051574 0.49046534
000110 c6 fa 25 3c eb 3e 95 3e 19 93 8b 3e 9a bf 21 3f
       0.01013059 0.29149565 0.27260664 0.63182986
000120 39 2d 4e 3f 53 b8 5e 3f 40 94 51 3d 18 c7 56 bd
       0.80537754 0.87000006 0.051166773 -0.052435964
000130 4a b4 30 be a4 c7 cd be 23 8a fc bd 12 ab 30 3c
       -0.17256275 -0.40191376 -0.12331035 0.010782974
000140 d0 b8 36 3f 85 6b ae 3e 4a 32 01 bf 2d 10 ca be
       0.7137575 0.34066406 -0.5046736 -0.39465466
000150 3b 32 5c be 49 a6 d1 3e 39 f7 d3 be 12 89 76 be
       -0.21503536 0.40947178 -0.41399553 -0.24075726
000160 ac 9f 03 3f 7f ab 6d bc 9e 6e e6 3d c0 54 44 3f
       0.51415515 -0.01450622 0.11251567 0.7669182
000170 bf b1 6e bc 97 4a 52 3e d4 36 9f 3c 92 b6 51 3f
       -0.014568745 0.20536266 0.019435324 0.81919205
000180 57 17 97 3e 61 4e 4d 3e 3e 2e 2c 3d 69 f7 f6 3d
       0.29509994 0.2004943 0.042036287 0.120589085
000190 32 49 c5 be 80 f9 de 3d 3c e6 24 3e 89 5d fb 3d
       -0.38532406 0.10887432 0.16103452 0.122737
0001a0 b3 2a 2c 3d 1f 0a 9f be 07 a5 7a be ee 06 f9 be
       0.04203291 -0.3106241 -0.24477015 -0.486381
0001b0 79 d2 a0 be 2a a1 2e 3e 08 28 b1 be e9 4c 18 bf
       -0.31410578 0.17053667 -0.34600854 -0.59492356
0001c0 db 4e 10 bd f8 9d 80 bc 10 8d f3 bd ab 11 e1 3f
       -0.035231452 -0.015700325 -0.1189214 1.7583517
0001d0 4c a5 83 be 05 92 a3 bc e0 62 28 bd 5d 80 dd 3f
       -0.2571205 -0.019967088 -0.04110992 1.7304798
0001e0 c5 f9 ad 3d c8 d7 0c 3f 8b 91 41 bc cb 11 3a 3e
       0.084949054 0.55016756 -0.011814485 0.1817085
0001f0 1c 52 ef 3e b7 40 4c 3c a3 2b 90 bd 16 a6 c1 3d
       0.46742332 0.012466601 -0.07039573 0.094555065
000200 ce 5d c1 3d 56 92 02 3f 80 8e de 3d 84 1f 9f 3e
       0.0944172 0.5100454 0.108670235 0.31078732
000210 b7 1b bd 3e 7b 1e 1b 3e 56 51 06 3e aa 62 a4 3e
       0.36935207 0.15148346 0.13116965 0.32106525
000220 d0 d8 09 be 4f 54 56 3e 0d 78 5c be 54 1c ff be
       -0.13461614 0.20930599 -0.2153017 -0.498263
000230 ea 5a 1f 3e 65 fd b8 3c 4a 0d e0 bd 8c ca e0 be
       0.15562025 0.022581765 -0.10940035 -0.4390453
000240 9a db a4 3e 9a 87 90 3f 50 29 c3 bd f2 71 32 3f
       0.32198793 1.1291382 -0.09529364 0.69705117
000250 80 3c 19 be ab 4b 12 3e 7e 80 a9 ba 13 da 3f 3f
       -0.14964485 0.14286678 -0.001293197 0.7494213
000260 6a 50 9c 3e 96 fe aa 3f cb c8 22 3d 9f d5 ce 3e
       0.305301 1.3358943 0.039742272 0.40397355
000270 75 e9 71 bd a7 81 6b 3e df f0 98 bd d0 53 a1 3e
       -0.059060533 0.22998677 -0.074678175 0.31509256
000280 bb f8 1b 3e af 86 8f 3f 22 29 d5 3d 02 03 0d c0
       0.15231602 1.1212977 0.10408236 -2.2033086
000290 d4 f6 c2 3e ea f2 3c 3f 3e 20 dc 3c 25 68 0c c0
       0.3807894 0.7380816 0.026870843 -2.1938565
0002a0 0f 44 87 3d b5 01 e3 3e 87 db aa bd af ad 01 bd
       0.06604778 0.4433724 -0.08342653 -0.03165978
0002b0 19 d2 19 3e 38 04 8d 3e c6 b0 31 3b ff 6f cb 3c
       0.15021552 0.2754228 0.0027113422 0.024833677
0002c0 cb 34 14 3e 97 91 f4 3e c4 c2 86 3d 1c a3 b8 bd
       0.14473264 0.47767326 0.06580117 -0.09015486
0002d0 c8 8e 9c bc b3 ac ff 3d 36 f1 4d 3c 64 f2 06 be
       -0.019111052 0.12484112 0.012569716 -0.13178402
0002e0 65 b4 44 3e ff 59 08 3f e2 4e 08 3d fe 1f 96 be
       0.1920944 0.53262323 0.033278354 -0.29321283
0002f0 a1 b0 fb be 9c c8 4b 3f ac 59 c0 bc 89 ed 4c be
       -0.49158195 0.7960298 -0.023480259 -0.20012487
000300 96 8a a7 3e 97 80 ac bf 87 9b b6 3d e4 96 9e 3e
       0.3272292 -1.3476743 0.08916383 0.30974495
000310 f5 b6 b4 bd 91 c0 fa 3e d0 2d 45 bd f3 62 2c 3e
       -0.08823959 0.48975042 -0.048139393 0.16834621
000320 c6 6c d3 3e 48 6a b3 bf 29 cb 70 3d 2c 89 77 be
       0.41293925 -1.401681 0.0587875 -0.2417342
000330 78 ee 44 be c7 b2 73 3e 39 37 02 3d e4 63 25 be
       -0.19231594 0.23798667 0.031790946 -0.16151386
000340 ea 47 00 3e 68 4b 98 bf 6c 08 8f bd 42 47 ac 3f
       0.12527433 -1.1898012 -0.06984028 1.3459246
000350 fe 73 bb be a3 8a 0b 3f 3b 03 29 be 35 7e b3 3f
       -0.36611933 0.5450842 -0.16505139 1.402289
000360 9e a3 10 3f cc a0 27 bf 39 82 fd bd 10 9f 38 bf
       0.5649966 -0.6547973 -0.123783536 -0.7211771
000370 68 44 0c 3e f2 0b 10 3f fb 4c 86 bd 43 64 31 bf
       0.1369797 0.5626823 -0.065576516 -0.6929361
000380 78 6f 0d 3f b6 4c 25 bf fd f7 c8 bd 38 80 d3 3e
       0.5524821 -0.64570177 -0.09812925 0.4130876
000390 db 2f fd 3d cc 5e aa 3e 5f 7d 18 bd c4 b7 e7 3e
       0.12362643 0.3327545 -0.03722894 0.4525739
0003a0 23 b5 97 3e 16 d4 68 bf 4b ba ca bc 23 26 71 3c
       0.29630384 -0.9094862 -0.024747035 0.014718565
0003b0 5f 3d c6 3e e8 90 fb 3e 9f bf 2c bd 36 4e c1 bc
       0.38718697 0.49133992 -0.04217493 -0.023596864
0003c0 e6 15 a9 3c af d6 9b 3d 8f af 23 be 5e 2a 60 3f
       0.020640325 0.07609307 -0.15984939 0.8756465
0003d0 64 f1 7a be 93 67 d1 bf 69 3f 15 be 3a 12 45 3f
       -0.24506146 -1.6359733 -0.1457497 0.76980937
0003e0 76 70 80 bb 4a d8 ce 3e c6 d2 8f bd 08 da bd 3e
       -0.0039196564 0.4039939 -0.07022624 0.37080407
0003f0 19 ed 29 be af 73 d4 bf 30 33 1f bd c3 23 aa 3e
       -0.16594352 -1.6597804 -0.038867176 0.3323041

fc1.bias f4 [128]
000000 36 30 16 be 5f 1b ce be 24 87 f8 be fe fa 1b be
       -0.14666829 -0.40255257 -0.48540604 -0.15232465
000010 79 81 0f bf 66 09 91 be d6 19 08 3d 55 42 03 be
       -0.56056935 -0.28327483 0.033227764 -0.12818272
000020 2b c3 bb bd 77 e4 88 bf 11 ba 26 bf ed c4 fb be
       -0.09168085 -1.0694722 -0.65127665 -0.4917368
000030 8b 7f 7b bf a5 95 32 bf bf 6d 67 bf 5b b7 d6 3b
       -0.9824149 -0.6975959 -0.90401834 0.0065526194
000040 6e 9c 2f bf e5 8a 57 bf 2c ad e0 be 7d c5 d9 be
       -0.6859807 -0.8419631 -0.4388212 -0.42533484
000050 b8 04 50 be f9 75 b7 bf 16 16 89 be fa 1f 73 3e
       -0.203143 -1.4332877 -0.26774663 0.23742667
000060 54 44 31 bf 94 25 80 bf 07 61 5b 3e f3 49 1f be
       -0.69244885 -1.0011468 0.21423732 -0.15555553
000070 84 9a 24 bf 99 79 a8 be ab db 85 be 47 93 2b bb
       -0.6429827 -0.32905272 -0.26144156 -0.0026180313
000080 c8 07 03 bf e6 62 82 bf d5 e3 7d bd 36 1a 04 bf
       -0.5118375 -1.0186431 -0.061984856 -0.51602495
000090 e6 4c 69 3e 1e 19 fe be 46 5f e0 be 26 85 05 bf
       0.2278324 -0.49628538 -0.43822688 -0.52156293
0000a0 a5 12 99 be 8e 89 c9 be b5 be 5a bf 60 9d 2d bf
       -0.29897037 -0.39362758 -0.85447246 -0.6781826
0000b0 dd 3c 94 3d f9 f1 63 bf a8 10 7a bf b6 7a 39 bf
       0.07238171 -0.89041096 -0.97681665 -0.7245287
0000c0 79 25 c7 3d da ca 46 bf e4 6d c8 be aa 38 ed be
       0.09723944 -0.77653277 -0.3914634 -0.46332294
0000d0 f6 cb 8d bc 95 10 6c 3e 87 ae 48 bf 13 61 86 be
       -0.01730917 0.230532 -0.7839131 -0.26245937
0000e0 21 ce 94 3e b2 b9 99 3d b7 7f 36 bf f4 90 ed 3e
       0.29063514 0.07506122 -0.7128863 0.46399653
0000f0 06 64 03 bf fd 09 26 be 01 99 ab 3e c2 25 e2 3d
       -0.513245 -0.16214748 0.3351517 0.11042358
000100 c0 5d 1e 3e 88 6c d6 3e 17 7b c3 be ad 75 cf 3c
       0.1546545 0.41879678 -0.38179848 0.025324667
000110 f4 83 03 bf af 10 2f 3e 6b 7c 50 be b3 de 01 be
       -0.5137322 0.17096208 -0.20359962 -0.1268261
000120 b7 35 21 be ab 18 dd be bf 90 fc be e7 bc e7 3d
       -0.15743147 -0.43182883 -0.49329183 0.11315327
000130 b8 b8 b4 be b5 19 e3 be d2 4d 8d bf 9b 59 90 be
       -0.3529718 -0.4435555 -1.1039374 -0.28193364
000140 57 27 c8 bf b4 fa 43 bf 4a 64 d1 be a8 6c 80 3e
       -1.5637006 -0.7655442 -0.40896827 0.25082898
000150 0c 2d 21 bf 2a 58 bd be 8c 16 6c bf a3 dd 60 bf
       -0.6295936 -0.36981326 -0.92221904 -0.8783819
000160 dd 17 26 be c1 55 a2 3d 73 3c 06 3f 3f 24 22 be
       -0.1622004 0.079265125 0.5243599 -0.1583414
000170 56 96 2e bf 6a 9a 52 bf 49 e0 82 3d 00 7d 68 bf
       -0.68198144 -0.8226687 0.06390435 -0.90815735
000180 0b 93 f1 be 68 0d 73 bd 07 65 bf be cf f6 f5 be
       -0.47182497 -0.059338957 -0.37381765 -0.48039863
000190 3d d8 4e bf b0 68 12 be d3 5d 2a be f1 3a 04 bf
       -0.80798703 -0.14297748 -0.16637354 -0.5165244
0001a0 86 e3 dd be 14 88 ee be a4 73 f3 bc e6 17 32 3e
       -0.4333765 -0.46588194 -0.029718228 0.17391929
0001b0 0b b6 bb bf a7 84 ea bd 3b d0 db bd 3e d3 19 3e
       -1.466493 -0.11451083 -0.10733076 0.15021989
0001c0 4f 0f 19 3c 5f 82 41 bd bb 82 4d be cc 86 04 bf
       0.009342029 -0.047243472 -0.20069401 -0.51768184
0001d0 73 77 bf be 94 a8 95 bf 7e d1 fa bd b2 9e 3f be
       -0.3739582 -1.1692071 -0.12246989 -0.18712881
0001e0 7e 9b 77 bb ad 3d 1e bf 02 a6 25 bf 96 b0 50 3a
       -0.003778189 -0.6181286 -0.6470643 0.00079608837
0001f0 f1 07 4b bd e9 53 ed 3c 58 ea 8f be 22 c0 98 3d
       -0.04956812 0.028970676 -0.28108478 0.074585214

bn1.weight f4 [128]
000000 8e 79 4f 3e c3 37 d0 3d 01 59 2e 3e 3f 8d e0 3e
       0.20261213 0.10166886 0.1702614 0.43857762
000010 2e dd ad 3e db 20 69 3e d8 6b 7f 3e 55 5c 78 3e
       0.3395781 0.2276644 0.24943483 0.24253972
000020 90 f0 3c 3e 50 52 09 3f 84 5e b4 3e 2a 2f de 3e
       0.18451142 0.53641224 0.3522836 0.43395358
000030 b4 d7 c4 3e bc 99 47 3e af 16 01 3f 80 7e 36 3e
       0.38445818 0.19492239 0.5042524 0.17821693
000040 f0 b9 48 3f 7d 43 18 3e e7 17 2e 3e 8e ce b0 3d
       0.7840872 0.14869495 0.17001306 0.08633147
000050 2c c8 28 3e 58 93 1c be db e5 89 3e ea b7 5b 3e
       0.1648261 -0.15290582 0.26933178 0.21456876
000060 87 83 1c 3f 62 11 98 3e 1e d1 cd 3e 20 fc 49 3e
       0.61138195 0.29700762 0.40198606 0.19725084
000070 98 b0 11 3f 29 74 57 3e cc 0c 5f 3e 66 5f 95 be
       0.56910086 0.21040405 0.21782225 -0.29174346
000080 c5 05 52 3e 90 ab 9e 3e b4 7d 87 3e f6 fe 82 3e
       0.20510013 0.30990267 0.2646309 0.25585145
000090 33 06 9b 3e 03 9f 95 3e 3a 43 a6 3e e2 23 95 3e
       0.30278167 0.2922288 0.32473165 0.2912894
0000a0 b9 94 3d 3e fa 76 20 3e e2 06 b3 3e c7 1d 0f bf
       0.18513764 0.15670386 0.3496619 -0.5590481
0000b0 2d a1 09 3f bc 4d 4d 3e 11 89 17 3f 06 6e b9 3e
       0.5376156 0.20049185 0.5919352 0.36216754
0000c0 10 1f 53 3e cf 11 03 3f 2f cc 93 3e 7e 8f 0c 3e
       0.20617318 0.5119905 0.28866717 0.13726613
0000d0 d2 d0 34 3e 66 b0 3b 3e a0 a5 2f 3e f5 c3 ab 3e
       0.17657784 0.1832901 0.17153025 0.3354794
0000e0 a8 7f 07 3e e4 43 bc be bb ae 86 3e 0f a1 91 3e
       0.1323229 -0.36770546 0.26305184 0.2844319
0000f0 d8 b4 4a 3e 09 88 40 3e d3 f5 8b 3e f9 d3 82 3e
       0.19795549 0.18801893 0.27335986 0.25552347
000100 23 36 93 be 27 4b d6 3e d6 aa eb 3e ed 2e 90 3e
       -0.2875224 0.41854212 0.46028775 0.28160802
000110 ef 5d 65 3e f6 67 67 3e 0e 50 2b 3e ed 1a 3b 3e
       0.22399114 0.22598252 0.16729757 0.1827199
000120 1d e7 9a 3e 7a 82 5f 3e 95 a6 68 3e f8 77 1b 3e
       0.3025445 0.21827117 0.22719796 0.15182483
000130 8a 71 7c 3e 89 d0 a8 3e f2 29 6a 3e b5 7a b7 3d
       0.24652687 0.329716 0.22867563 0.089589514
000140 46 75 07 3f bb 01 ba be e6 e8 5f 3e 0c 7b d8 3d
       0.5291332 -0.36329445 0.21866187 0.10570344
000150 fa 57 ba 3e 1e 4d 76 3e 75 fb 6c 3e 98 ca e7 3e
       0.36395246 0.24052855 0.23142798 0.45271754
000160 19 79 02 3e c7 1f 6f 3e a2 79 6b 3f 92 00 4b 3e
       0.12741508 0.23351966 0.9198247 0.19824436
000170 e6 a0 9e 3e 86 e0 06 3f 9f 36 3e 3e 21 87 6b 3e
       0.3098213 0.52686346 0.18575524 0.23000766
000180 d5 20 85 be a8 ae 97 be 13 b4 88 3f 2a b2 45 3f
       -0.2600161 -0.2962544 1.0679954 0.7722498
000190 e8 30 08 3f 22 ea 49 3e 08 ad 56 be 04 2e c2 bc
       0.53199625 0.19718221 -0.20964444 -0.023703583
0001a0 9d 4e 91 3e b4 21 19 3e 29 55 a5 be 4f a2 79 3e
       0.2838029 0.14954263 -0.32291535 0.24378322
0001b0 7b a4 4f 3f dd cd 5b 3e c6 b5 d8 3e b1 f1 2b 3e
       0.8111035 0.2146525 0.42326182 0.16791417
0001c0 33 04 8d 3e d4 47 23 3f 38 51 85 3e f1 91 1c 3f
       0.27542266 0.63781476 0.26038527 0.6116019
0001d0 21 57 72 3d a3 ec a2 3e 03 de 55 be 97 f3 7b 3e
       0.059165124 0.31821164 -0.20885472 0.24604641
0001e0 96 2d ac 3e 3e de 44 3e c1 e8 21 be 0e da 16 3e
       0.3362853 0.19225404 -0.15811445 0.14731619
0001f0 d3 f5 09 3e 84 93 59 3e fb 0f 14 3e 95 8f e9 3d
       0.13472681 0.21247679 0.14459221 0.11404339

bn1.bias f4 [128]
000000 cd 1e 84 3d 09 73 e8 3c b0 0a 9d 3d 12 b9 dd 3e
       0.06451187 0.028375166 0.07668054 0.4330526
000010 bc db 4f 3e 23 4f a9 3d c6 ff 05 be 62 ee 02 3e
       0.20298666 0.08267047 -0.13085851 0.12786248
000020 ad 85 a4 3d 2b 86 9f 3e fa 4a 10 3e fc 0f 1f 3e
       0.08033309 0.3115705 0.14091101 0.15533441
000030 6f 1d 87 3d a9 d6 00 3e d9 36 a3 3e 63 2f 91 3d
       0.06597411 0.12581886 0.31877783 0.070891164
000040 5b 7c 58 3e c7 3f 43 3d 88 b5 32 bc f5 ab 29 3d
       0.21141188 0.047668245 -0.010907538 0.041423757
000050 76 eb 3f 3d a5 c4 2a 3d e4 48 b7 3d ef a5 05 3d
       0.046855412 0.04169144 0.0894945 0.03262895
000060 97 22 aa 3d 39 81 39 3e cb 46 ae 3e 02 2a b8 3c
       0.08307379 0.18115701 0.34038386 0.022480968
000070 70 3a e0 3e a1 d4 42 3a 75 ba 3c 3d b5 f2 05 be
       0.43794584 0.0007432197 0.046076257 -0.13080867
000080 70 9c 00 3d 2b 38 a9 bc ab ef 0c 3e a9 05 b9 3d
       0.03139919 -0.020656666 0.13763301 0.09034283
000090 bb f8 ef 3d b6 9e 2e 3e 5b af 07 3e 05 6c c9 3d
       0.117173634 0.17052731 0.13250487 0.09835056
0000a0 2b a6 10 3e ca 58 c0 3d c0 25 e9 3d ee ee 7b be
       0.14125888 0.09391935 0.11384153 -0.24602863
0000b0 75 78 11 3e e9 9c d2 3c b2 81 91 3e 96 93 1a 3e
       0.14206107 0.025709586 0.28419262 0.15095362
0000c0 76 d4 ef 3d 45 93 c3 3d c7 b8 44 3d 52 54 9f bd
       0.117104456 0.09549574 0.04802778 -0.07779755
0000d0 c4 4c f7 3a e3 aa 1f 3c b8 24 c1 3d 47 63 11 3e
       0.0018867482 0.009745332 0.09430832 0.14198028
0000e0 1c b1 e7 bd 6d 23 24 bb 44 83 16 3e 3e c4 43 bc
       -0.11313078 -0.002504553 0.14698511 -0.011948643
0000f0 23 3c b1 3d c5 b1 d1 bc cb 59 02 be b4 cf 0a 3e
       0.08654048 -0.025597462 -0.12729566 0.13555795
000100 03 f5 ee bd a3 34 22 3e 05 7e d6 bd da 6e ea 3d
       -0.11667826 0.15840392 -0.10473255 0.114469245
000110 3e 2e a9 3d 32 48 19 3e 1a 5d f3 3b b3 5c 88 3d
       0.08260773 0.14968947 0.00742687 0.06658306
000120 71 78 3c 3e 14 92 5b 3d 33 45 5c 3d 67 4b 08 3e
       0.1840532 0.053606108 0.05377693 0.13310014
000130 cc eb 03 3e 61 06 83 3e 48 58 d4 3c f6 ac 0a 3e
       0.12882918 0.25590804 0.025921002 0.13542542
000140 cc 08 a8 3e 3d 48 8b be 8f bc 6b 3e d9 e4 b3 bd
       0.3281921 -0.2720355 0.23021148 -0.087838836
000150 2a 79 89 3e 5f 84 90 3d 97 3e 76 3e 90 3c 53 3e
       0.26850253 0.07056498 0.24047314 0.20628572
000160 65 a5 66 3c b2 e7 12 3d f4 b5 a8 bc fb 0d 52 bd
       0.014077519 0.035865493 -0.020594575 -0.051282864
000170 42 42 91 3e a6 f8 a2 3e 92 6d 88 bd 69 86 54 ba
       0.28370863 0.3183033 -0.06661524 -0.0008107187
000180 42 d6 10 bd 1c 5f dd bd c3 f8 3c bd 78 e7 24 3e
       -0.035360582 -0.10809156 -0.046135675 0.16103923
000190 3b 2b c0 3e 1b b1 aa 3c 0f 42 84 bd 3d 6c 07 bf
       0.37532982 0.020836404 -0.06457912 -0.52899534
0001a0 b8 4d 78 3e 60 9e 20 3d 72 f0 72 bc 7f 7f 8e 3c
       0.24248397 0.03921354 -0.014827834 0.01739478
0001b0 1e 67 de 3e 4c 47 97 3d 62 6c 93 3d 6a 8a 55 3e
       0.43438047 0.07386646 0.07198407 0.20853582
0001c0 ea d9 82 3d 72 96 0b 3e 5f d0 ff 3d f0 d5 1c be
       0.0638922 0.13631609 0.124909155 -0.15315986
0001d0 96 14 04 3c 1e 3b 60 3e 41 c5 3e bd 2d 39 22 3e
       0.008061549 0.21897551 -0.046574835 0.15842123
0001e0 33 d2 e0 3d e7 8f 7d 3d d7 a1 22 bd 1b 06 7b bd
       0.10977592 0.061904814 -0.039705124 -0.06128512
0001f0 b5 a2 20 bd de 99 a2 3d ca 94 de 3c 33 ab 8a bc
       -0.03921767 0.07939504 0.027170558 -0.016927337

bn1.running_mean f4 [128]
000000 fe 0a 02 40 5b 82 7f 3f 75 5b ba 40 d8 1d 63 40
       2.031921 0.9980828 5.823664 3.5486965
000010 5f 45 4f 40 01 37 b8 3f 2a b8 99 40 ec 05 97 40
       3.238609 1.4391786 4.803731 4.719473
000020 e4 0e 54 40 cd ff 0b 40 f4 6a 86 40 7c 7b 1d 40
       3.3134089 2.1874878 4.200556 2.460662
000030 4e 17 bd 40 a3 24 97 40 25 a2 e7 40 92 6a 4b 3f
       5.909095 4.7232223 7.238543 0.7945949
000040 cd 91 08 3f ac 04 34 40 c6 e6 f0 40 cc 84 87 3e
       0.53347474 2.8127851 7.5281706 0.26468503
000050 e9 d7 4c 40 52 d1 aa 41 a3 bf 01 40 26 c5 97 3f
       3.200678 21.352207 2.0273216 1.185704
000060 5d 56 91 41 c2 b3 a2 40 89 14 bf 40 2d df d3 3e
       18.16717 5.084443 5.9712567 0.41381207
000070 a8 57 c6 40 50 a8 a4 3f ff aa 37 3f a7 c4 a0 40
       6.1982 1.2863865 0.71745294 5.0240054
000080 04 7f 5f 3f f1 9d 89 3f f0 e1 ea 40 cd 16 16 41
       0.87303185 1.0751325 7.3400803 9.380567
000090 e7 76 b2 40 c2 fe 94 40 2d db 5a 40 62 9a 3a 40
       5.5770144 4.6560984 3.4196274 2.9156728
0000a0 79 de fe 3f 64 0c a5 40 5e 17 80 40 49 48 12 3f
       1.9911643 5.1577625 4.0028524 0.5714155
0000b0 bd 11 c2 3e c2 ee 21 41 a4 47 4b 40 6d ef a4 3f
       0.37904158 10.1207905 3.1762476 1.2885567
0000c0 e6 8a 96 40 f4 81 99 3f 9c 09 50 40 02 b1 33 41
       4.7044554 1.1992784 3.2505865 11.230715
0000d0 76 e1 4b 40 99 67 af 40 61 8c da 40 cd ce 59 40
       3.185636 5.481396 6.829636 3.403247
0000e0 90 63 da 41 27 97 bb 3f b0 e0 85 41 53 fa ef 40
       27.298615 1.4655503 16.73471 7.499307
0000f0 e2 32 9f 3f 5e f3 36 3f 95 47 f9 40 04 11 2c 40
       1.2437403 0.714651 7.789988 2.6885386
000100 3a a6 91 40 88 7d ba 3f 96 cf 52 41 62 18 49 40
       4.5515413 1.4569559 13.17568 3.1421132
000110 25 dd eb 40 21 f8 ca 40 eb 77 a0 3f 90 39 9f 40
       7.370745 6.342789 1.2536596 4.9757767
000120 e8 70 22 41 58 e2 da 3f 98 6d 54 40 e1 07 ba 40
       10.152565 1.7100325 3.319189 5.813462
000130 48 8a 06 41 6a 35 6a 41 be 1e f2 40 a4 b4 1d 3f
       8.40876 14.638041 7.5662527 0.6160376
000140 90 29 aa 41 40 ab e1 40 77 35 c7 40 22 67 f9 3f
       21.270294 7.0521545 6.2252765 1.9484599
000150 55 49 1d 41 0a 4f 14 40 7a f9 19 41 f1 df 8d 40
       9.830403 2.3173242 9.623407 4.4335866
000160 60 a6 e6 3f c4 e7 d0 3f 45 d6 60 40 c3 04 1b 40
       1.8019524 1.6320729 3.513078 2.4221656
000170 76 97 88 41 69 bb 16 41 84 fa a4 3f 49 83 6a 41
       17.073956 9.420754 1.2888951 14.657052
000180 27 f9 97 3f 50 f8 43 40 82 5b 6d 40 b7 4b 4a 40
       1.187291 3.0620308 3.7087102 3.1608713
000190 52 b1 b1 40 d0 18 70 3f b3 b8 88 3f 73 ee 42 40
       5.5528955 0.9378786 1.0681366 3.0458038
0001a0 d7 34 85 41 b0 7d 7e 3f 9d ab 61 40 10 90 8a 40
       16.6508 0.99410534 3.5260994 4.3300858
0001b0 e1 92 32 41 e2 48 8a 40 00 3b 30 3f 5e e8 9d 41
       11.160859 4.321397 0.68840027 19.73846
0001c0 bd e4 06 40 2e ae 5d 3e 7e 7b 8e 3f 7b 7d 38 40
       2.107711 0.21648476 1.1131437 2.8826587
0001d0 54 12 57 3d 95 77 18 41 c1 b7 cf 3f 0a 12 ba 40
       0.052507713 9.529195 1.6227952 5.814702
0001e0 7c e7 59 3f bb fe e8 40 e1 9f c4 3f e0 ce 79 40
       0.8511884 7.281095 1.5361291 3.9032516
0001f0 d2 83 b5 3f 96 7d b8 41 ca a3 82 3f 5a 97 d5 3f
       1.4180853 23.061321 1.0206234 1.6686814

bn1.running_var f4 [128]
000000 cf 98 2a 42 bd 3b 6b 41 53 9f ce 42 01 61 0c 42
       42.649227 14.702085 103.31118 35.09473
000010 68 71 19 42 12 f4 92 41 7f 77 fe 42 f0 90 d1 42
       38.36075 18.369175 127.23339 104.78308
000020 e2 78 08 42 46 ee dd 41 41 e7 a8 42 5d bc 5b 42
       34.11805 27.741344 84.45167 54.93395
000030 ce 9c 8c 42 92 41 1a 43 3f dc b5 42 20 f1 25 41
       70.30626 154.25613 90.93017 10.371368
000040 da b6 fa 40 79 93 27 42 b4 c7 c9 42 00 c0 43 40
       7.8348207 41.894016 100.890045 3.0585938
000050 90 d9 5f 42 3a 83 b0 43 1c 95 ca 41 02 08 66 41
       55.962463 353.0252 25.322807 14.376955
000060 d3 56 0b 44 ed b7 b4 42 2e e7 80 42 3b 29 00 41
       557.3566 90.35923 64.45152 8.010066
000070 ea 3f 89 42 48 3b a7 41 eb 81 69 41 cb da 88 42
       68.62483 20.903946 14.594218 68.42733
000080 01 c1 60 41 14 13 e2 40 79 9b 18 43 cf 14 ef 42
       14.04712 7.064829 152.60732 119.54064
000090 b1 07 b8 42 4a b6 7f 42 4e 32 9d 42 a4 ae 35 42
       92.01502 63.928017 78.59825 45.420547
0000a0 12 ee e7 41 d4 53 eb 42 54 93 24 42 a1 57 36 41
       28.991245 117.66373 41.143875 11.396394
0000b0 e3 b0 b6 40 a7 07 11 43 a6 40 c3 41 39 b9 6c 41
       5.7090926 145.02989 24.406567 14.79522
0000c0 d2 25 c0 42 a2 d3 9b 41 b3 d8 53 42 b2 d4 1e 43
       96.07387 19.478336 52.96162 158.83084
0000d0 74 c5 be 42 94 e3 0f 43 8d 52 a0 42 5d 27 5f 42
       95.38565 143.88898 80.16123 55.78844
0000e0 7c 17 6c 43 3d d1 c0 41 5a f6 61 43 df 29 0a 43
       236.09174 24.102167 225.96231 138.16356
0000f0 5a 00 6a 41 0a a3 20 41 a3 50 ee 42 ec 86 82 42
       14.625086 10.039804 119.15749 65.26352
000100 1e 37 a0 42 c5 f2 a0 41 0a 35 95 43 9c cd 76 42
       80.10765 20.11854 298.41437 61.70079
000110 42 b0 c4 42 8a 12 b0 42 20 3f 0c 42 bd 81 d8 42
       98.34425 88.03621 35.061646 108.253395
000120 54 1a 13 43 1e 2b e2 41 6f 62 28 42 3f f3 7b 42
       147.10284 28.271053 42.096127 62.987545
000130 a1 61 2b 43 7b 13 c5 43 94 9c fe 42 6c b0 01 41
       171.38136 394.1522 127.30582 8.105572
000140 e5 34 44 43 4e 5c f7 42 7b 0b fe 42 8e 7c ec 41
       196.20662 123.68028 127.02242 29.560818
000150 66 c9 31 43 20 f5 41 42 1d 08 5e 43 9e 98 a7 42
       177.78671 48.48938 222.0317 83.79808
000160 92 5b 11 42 7d 88 94 41 9c 05 ff 40 3a d9 58 42
       36.339424 18.566645 7.9694347 54.212135
000170 a1 cb 73 43 44 a2 22 43 9a 24 83 41 f4 d0 72 43
       243.79543 162.63385 16.392872 242.81622
000180 01 3f bc 41 84 4c 9b 42 c1 00 9b 41 7e 92 74 41
       23.530764 77.649445 19.375368 15.285765
000190 5e f2 83 42 02 59 62 41 37 26 ae 41 84 8d b8 42
       65.97337 14.14673 21.76866 92.2764
0001a0 9b aa 81 43 a8 cc a4 41 f3 63 85 42 fc 2a 52 42
       259.33286 20.59993 66.69521 52.541977
0001b0 32 f5 e7 41 ed 50 85 42 97 f6 39 41 e2 67 ad 43
       28.994724 66.65806 11.622703 346.81158
0001c0 55 92 4a 42 f1 48 42 40 25 9c 67 41 38 2b 1d 42
       50.642902 3.035702 14.475621 39.292206
0001d0 bd e8 73 3f e3 2c d4 42 13 70 dc 41 32 6d 09 43
       0.95277005 106.08767 27.554724 137.42654
0001e0 d7 b1 0d 41 39 ae 11 43 ca 83 0e 42 23 7b 99 42
       8.855918 145.68056 35.6287 76.7405
0001f0 13 20 c5 41 02 b2 04 44 7e 2d 84 41 13 2d ce 41
       24.640661 530.7814 16.522213 25.772009

fc2.weight f4 [128, 132]
000000 94 9e 19 bf c5 83 c5 3e d7 e1 a9 be e5 6b f0 3d
       -0.60007596 0.38577095 -0.33180115 0.11739329
000010 d1 76 12 bf d8 70 8b 3e a1 3c 34 be e9 05 66 3e
       -0.5721255 0.2723453 -0.17601253 0.22463192
000020 63 a6 f8 be 93 30 5a bf d5 9f 18 3f 54 b7 b5 3e
       -0.48564443 -0.8523037 0.59618884 0.3549143
000030 36 88 0b bf ce 21 0e bf af 77 1f bf 4e da b9 3d
       -0.54504716 -0.5552033 -0.62292 0.090748414
000040 b7 aa 05 bd e1 60 99 be 22 5e d5 3e c1 6e 14 bd
       -0.03263351 -0.29956725 0.4167338 -0.036238436
000050 7a 1f 08 3e a2 e0 0d be 70 47 97 3e 1a b3 a1 3e
       0.13293257 -0.13855222 0.2954669 0.31581956
000060 e7 58 14 be 65 b8 26 bf 09 14 32 3d 9d 69 97 3d
       -0.14487039 -0.65125114 0.04347614 0.07393191
000070 f6 11 a7 be 8b 1a a5 be 23 4b 92 be 85 d4 61 3e
       -0.3263089 -0.32246813 -0.2857295 0.22053726
000080 6f fe 6d bf 4d ed 1a bf f7 27 f8 be c7 b0 cb 3c
       -0.9296636 -0.6051834 -0.4846799 0.024864567
000090 45 c4 a9 bd 56 25 19 bf 2d 7d cb 3d d3 47 4c 3d
       -0.082893886 -0.59822595 0.09935985 0.049873184
0000a0 2b 02 8d bf 17 fe 4f be 8e 84 05 ba 77 aa db 3e
       -1.1016287 -0.20311771 -0.00050932996 0.42903492
0000b0 2f 5a 73 3c 34 55 1f be 18 3f 62 be ea 85 5f bd
       0.014853044 -0.15559846 -0.22094381 -0.05457107
0000c0 aa b9 2c 3d 2b a8 75 bd aa 48 41 bf a8 ed b1 be
       0.04216925 -0.05997483 -0.755015 -0.3475163
0000d0 e6 37 38 bf 74 43 85 be ef e5 2f 3e b9 76 b2 be
       -0.71960294 -0.26028025 0.17177556 -0.34856203
0000e0 d3 2a 92 3e a8 66 1a 3e 48 d1 ca 3d 34 db 17 3e
       0.28548297 0.15078223 0.099031985 0.14829713
0000f0 c4 1c c8 be fa eb 87 be a3 40 26 3e e4 dd af bd
       -0.39084446 -0.26547223 0.16235594 -0.08587244
000100 ef d8 88 3f ec 19 95 bf 89 e8 c9 3d b2 49 d6 3e
       1.0691203 -1.1648536 0.09858806 0.418531
000110 f0 4d 2c be 74 f7 05 bf 45 7b 4f 3e 97 46 06 be
       -0.16826606 -0.5233071 0.20261867 -0.13112865
000120 26 87 06 3f cb 15 eb 3e 36 87 53 be 54 7c f5 be
       0.5254997 0.45915064 -0.20657048 -0.47946417
000130 35 dd d7 bd 79 5d bb 3d c1 97 c1 be 50 bd 71 be
       -0.10540239 0.09148688 -0.37811092 -0.23607373
000140 5a dc 4d bf 25 a5 1b 3f 69 b8 d2 be 49 0a 1a 3f
       -0.80414355 0.60798866 -0.4115632 0.60171944
000150 49 57 0d be 03 fe f1 be d9 d9 24 bf 9f 62 ae 3c
       -0.13802828 -0.47264108 -0.6439491 0.02128726
000160 8c bc 50 3e 85 86 fb 3e 5d 0e c2 3d 86 4a 1b be
       0.20384425 0.49126068 0.09475396 -0.15165147
000170 8a b1 51 3c ed e8 10 be e1 51 5d be 06 09 1e be
       0.012798676 -0.14151354 -0.21613266 -0.1543313
000180 23 55 01 be 77 19 0c 3e 0f d0 80 bc 3d db ef bc
       -0.12630133 0.13681589 -0.01572421 -0.029279346
000190 7d 57 66 3e 3d 5c d2 be 4c 62 15 be 9c d4 e3 3e
       0.22494312 -0.41085997 -0.14588279 0.44498146
0001a0 b0 e5 9d be 70 bb eb bd 84 d1 19 bd b0 18 4f 3e
       -0.308393 -0.1151036 -0.037553325 0.20224261
0001b0 ff a0 2a be 1b 10 03 3f d8 d4 92 be ae fc 86 be
       -0.16662978 0.5119645 -0.28678012 -0.26364654
0001c0 43 85 d7 bd 59 78 46 be a5 92 f3 bd 86 fd 45 3d
       -0.105234645 -0.19381846 -0.118932046 0.048337482
0001d0 59 a6 40 be 0b cc 9d be 2f a5 98 3d a6 b9 7a bf
       -0.18813457 -0.30819735 0.07453381 -0.9793953
0001e0 3f 4d 9b be 84 06 f4 3d 0e 54 30 3f fe 6c 60 3e
       -0.30332372 0.11915305 0.6887826 0.21916577
0001f0 23 b6 10 3e 01 a0 1c bf e9 e6 98 3e dd cf c7 bc
       0.1413198 -0.61181647 0.2986367 -0.02439111
000200 17 f4 24 3d d0 3d 0d 3e 8b da a8 3e 20 c0 b8 bc
       0.040271845 0.13793111 0.32979235 -0.02255255
000210 4b 58 5c bc 22 92 81 be 31 7b cd 3d 3c 74 8f be
       -0.013448785 -0.25306803 0.100332625 -0.28018367
000220 8e b9 51 be a0 8d 63 be 8d 37 14 3e e7 62 0f be
       -0.2048094 -0.22221994 0.14474316 -0.14002572
000230 7f 04 23 be b6 6b 5d be 3c 0f 67 be e0 37 b9 3d
       -0.15919684 -0.2162312 -0.22564405 0.090438604
000240 bf 08 9e 3b 1f 74 39 3c 8d b8 16 be ac c7 93 bc
       0.00482282 0.011319189 -0.14718838 -0.018039547
000250 9d d8 62 bd 12 86 e3 bd 9e 03 07 be 77 bb cd be
       -0.05538236 -0.11109556 -0.13184974 -0.40182087
000260 26 43 44 bd f1 6b 2c bd 6d 7d 1d be da bc 62 3e
       -0.0479156 -0.04209513 -0.15379877 0.22142354
000270 0c f1 c5 bd 94 a1 2a be 35 32 ab bd c5 f1 3c 3e
       -0.09665117 -0.166632 -0.083591856 0.18451603
000280 60 18 a8 bd 6c 5c 20 be cd a2 cb 3d d4 75 b1 bd
       -0.08207774 -0.15660256 0.09943161 -0.08665052
000290 3a de 0e be 55 55 c7 bd fc ef b2 bd 30 ab a6 be
       -0.1395196 -0.09733073 -0.0873718 -0.3255248
0002a0 47 43 df bd 36 85 0a bd f3 8d e8 bd a5 ae 1a be
       -0.10901504 -0.033818446 -0.113552 -0.15105684
0002b0 82 cd 1c be 48 87 6e bd 83 13 44 bd 4d 63 bc 3d
       -0.1531277 -0.058234483 -0.04787017 0.091986276
0002c0 22 e7 02 be 21 fa 03 be 97 96 ee 3c 4d 3c 5f be
       -0.12783483 -0.12888385 0.029124541 -0.21800347
0002d0 d7 d6 97 be 76 41 7f bd bc 66 02 be 2a 03 0b bc
       -0.29656097 -0.062318288 -0.12734503 -0.008484641
0002e0 cd cc 26 be 29 91 9a 3e 73 f7 43 3d ac 33 9d bd
       -0.16289063 0.30188873 0.047843408 -0.07675871
0002f0 50 ee 15 3b d1 61 d8 3d 46 ef 8c bd 9d 35 71 3d
       0.002287764 0.10565532 -0.06881575 0.05888902
000300 b5 86 13 be 58 9b ba bd 27 da bb 3d f7 ba f8 bd
       -0.14406855 -0.09111661 0.09172469 -0.12145036
000310 56 c2 14 3e 86 f7 9d 3d 9d dd 2a 3c ed 3e 49 bd
       0.14527258 0.07713227 0.010428813 -0.049132276
000320 01 27 5f 3e 29 b8 d5 bd 0f f0 22 3e 8c 1f 41 3d
       0.21792223 -0.104355164 0.15911888 0.047149226
000330 49 b7 16 be 51 6a 98 3d dd e2 53 bc c0 38 ed bc
       -0.14718355 0.07442153 -0.012932506 -0.028957725
000340 3a 42 56 be c9 c5 c1 bd c3 c7 7b bd 57 fa a6 bd
       -0.20923701 -0.09461553 -0.061469804 -0.08153217
000350 9d 10 4c 3b 0c b2 b3 3e ff ab 44 be 5c 0d 3f be
       0.0031137832 0.35096776 -0.19206236 -0.1865744
000360 ff a9 37 bd 91 b4 30 be 37 14 20 be a2 65 f2 3b
       -0.044839855 -0.1725638 -0.15632711 0.0073973695
000370 cc 93 5a 3d 43 84 1f bd 5a 92 f2 bc f4 a0 9d 3d
       0.053363606 -0.038944494 -0.029610801 0.07696715
000380 44 38 2f be 13 34 f4 bd 0e 7f 0b bd c9 5f 05 3e
       -0.17111307 -0.11923995 -0.034056716 0.1302482
000390 2a b3 29 be 7c 9f dd 3d 9f 60 d4 bd d3 4c a6 3d
       -0.16572252 0.10821435 -0.103699915 0.08120122
0003a0 fe 76 93 be b4 5c 89 be e2 2d 38 3e 48 47 6f 3e
       -0.2880172 -0.2682854 0.17986253 0.23367035
0003b0 74 b0 b5 bd 8a ee ca be 0d ad a6 3d 7e 30 b1 bc
       -0.088715464 -0.39635116 0.081384756 -0.021629568
0003c0 9f 5e da bd 6f 9e 13 be 92 7c 59 bc fa 48 85 3c
       -0.10662579 -0.14415906 -0.013274329 0.01627015
0003d0 f2 fc 90 be 6e 69 a6 bd 8e ca 76 bd ad fa 96 3d
       -0.28317982 -0.08125578 -0.060251765 0.07372031
0003e0 de af f8 bc 68 ec 46 bd ba de 04 be e3 99 90 be
       -0.030357298 -0.0485653 -0.12975588 -0.28242406
0003f0 5c 90 14 be 6b ed 1e 3d 2c e8 21 3e 14 ef 75 3e
       -0.14508194 0.03880064 0.15811223 0.24016982

fc2.bias f4 [128]
000000 5a 81 b8 be b8 bf 8a be 65 43 5c be 50 f5 ea be
       -0.36036187 -0.27099395 -0.21510084 -0.45890284
000010 09 8b ee be 0f 39 8f be e6 9b d6 bd f8 a5 39 bf
       -0.4659045 -0.2797322 -0.10478954 -0.72518873
000020 a7 5c 02 3e 50 f4 69 be c0 8c f3 bd 87 d7 c9 bd
       0.12730657 -0.22847104 -0.1189208 -0.09855562
000030 69 c5 61 be a4 4b c4 be ba f9 b7 be ee b7 dc be
       -0.22047962 -0.3833896 -0.35932714 -0.43109077
000040 ac 4d 45 be 25 b2 a9 be 3a 29 b1 be 4c e7 63 be
       -0.1926791 -0.33143726 -0.34601766 -0.22256202
000050 11 df 9f be 71 a8 87 be d9 85 a2 bd 66 28 e5 be
       -0.31224874 -0.26495698 -0.07935686 -0.44757384
000060 5a 9a e7 bd 5c b9 9d be 8a a9 20 be 13 66 cd be
       -0.11308737 -0.3080548 -0.15689674 -0.4011694
000070 22 02 ac be f6 1b 22 be 2d a4 cf be 77 05 25 be
       -0.33595377 -0.15830979 -0.40554944 -0.16115366
000080 cf f7 86 be 11 f8 a1 be 46 80 a4 be fa 0b e0 be
       -0.26360938 -0.31634572 -0.32129115 -0.43759137
000090 a2 8a 58 be 3b f2 0b bf ae 12 e3 bd 13 af 53 be
       -0.21146634 -0.5466649 -0.11087547 -0.20672254
0000a0 fd d5 b7 be c7 bb fb bd b1 05 a1 bd c3 8b 23 3e
       -0.35905448 -0.12291675 -0.07862414 0.15971284
0000b0 51 b3 2c be e4 0b 0f bf 24 41 43 be d9 7e 58 be
       -0.16865279 -0.5587752 -0.19067818 -0.21142139
0000c0 c4 5a a0 be 0f 28 4d be d2 2e d9 be 6a 05 3e be
       -0.3131925 -0.20034812 -0.42418534 -0.18556753
0000d0 9f aa d1 bd 92 e6 ae be a7 db 10 be bf b0 3a be
       -0.102376215 -0.34160286 -0.1414629 -0.18231486
0000e0 fb 30 54 be 3b fb ce be ff 91 9a 3e 22 3c 8d be
       -0.2072181 -0.4042605 0.3018951 -0.2758494
0000f0 1d 95 3f be a7 44 f3 be 9c e7 0f bf 46 f3 5f be
       -0.18709226 -0.47513315 -0.5621278 -0.21870145
000100 5b 18 56 be a3 45 8f 3d 07 88 03 be 1a 83 c1 be
       -0.20907728 0.06995704 -0.12844859 -0.37795335
000110 42 2f 8a be 0e 93 83 be 13 74 80 be 4d df a6 be
       -0.2698918 -0.2569813 -0.25088558 -0.3259224
000120 a1 66 81 be 5d be 68 be cf 78 79 be 6f e6 cf be
       -0.25273612 -0.22728868 -0.24362491 -0.40605494
000130 54 d1 93 be 32 7b a4 be 2f 2a ac be 6c 10 a2 be
       -0.28870642 -0.3212524 -0.33625934 -0.31653154
000140 de 04 e9 be f4 3e 33 bf b3 44 d3 be 20 fd a9 be
       -0.45511526 -0.70017934 -0.4126335 -0.33200932
000150 43 29 fc be 74 67 89 be 54 8a 18 be f8 45 1c be
       -0.4925023 -0.2683674 -0.14896518 -0.15261066
000160 1f f1 16 be a3 16 50 be 90 da d9 be fa f4 f5 be
       -0.14740418 -0.20321135 -0.42549562 -0.48038465
000170 8c f1 17 be 9f 26 0e be 33 dd 12 3d b2 17 ec bd
       -0.14838237 -0.1388192 0.035855483 -0.11527957
000180 f8 ff f0 be aa d3 d4 be 76 24 9b be a4 14 58 be
       -0.4707029 -0.41567737 -0.30301255 -0.21101624
000190 fc ff c7 3c e5 be c2 be 20 38 98 be 3c 31 79 be
       0.024414055 -0.38036266 -0.2973032 -0.24335188
0001a0 37 09 35 be 55 d7 cd 3d a9 e6 56 be b6 c9 20 be
       -0.17679296 0.10050837 -0.20986427 -0.15701947
0001b0 a8 6e 3c bf ea 16 20 be d0 64 89 3e 5e a7 b9 be
       -0.7360635 -0.15633741 0.26834726 -0.36260504
0001c0 5b 9c a1 be a8 3e 21 be fa 03 b1 be 0f 4b d5 bd
       -0.31564602 -0.15746558 -0.34573346 -0.10414707
0001d0 2c 34 ce bd 64 dd f4 be a3 25 13 bf ff 35 15 be
       -0.10068545 -0.47825158 -0.57479304 -0.14571379
0001e0 b7 ce 4c be fd 00 b2 be aa a2 60 be 15 64 19 be
       -0.2000073 -0.3476638 -0.21937051 -0.14979585
0001f0 de 25 37 be 0b 38 93 be f3 b7 d0 be 52 85 8b be
       -0.17885539 -0.28753695 -0.40765342 -0.27250153

fc3.weight f4 [1, 128]
000000 fb 1c 54 3e 7a 14 72 ba b4 34 87 be 1c ce 96 bd
       0.2071418 -0.00092346186 -0.26407397 -0.07363531
000010 e0 d8 9f be fe 8d 95 3c 18 3f 80 bd ac 15 52 be
       -0.3122015 0.018256184 -0.06262034 -0.2051608
000020 fa 56 96 bd 32 90 18 3e 6c 3b 8b 3d 18 0b 5f bb
       -0.07340808 0.14898756 0.06798443 -0.0034033712
000030 80 a3 09 bd 1b 4b 51 be 4f fa cd 3d 3d cc 63 be
       -0.03360319 -0.20438807 0.10057508 -0.2224588
000040 7e d5 9f 3c 00 1d ed be 7e d7 1b 3e 37 a4 1e 3c
       0.01951098 -0.46311188 0.15218922 0.009682707
000050 94 30 8a 3c 9b 64 8e 3c cd 47 f0 3d 97 dd a0 bd
       0.016868867 0.017381957 0.11732445 -0.07854765
000060 50 17 8c bc 8e 36 e6 bd ba 71 dd 3d 06 ba c6 3c
       -0.01710096 -0.11240874 0.10812707 0.024258625
000070 db d9 46 3d 75 16 cd 3b 34 7f f4 bd 28 f1 4f 3b
       0.048547607 0.0062587806 -0.119383246 0.0031729434
000080 16 54 57 3e f3 e2 6b 3d 25 9a 2a be ac cb 54 be
       0.2102817 0.057589483 -0.16660364 -0.2078082
000090 da b8 4a bd 4e 73 20 3d 41 5d 6e be 95 95 bf 3c
       -0.049492694 0.039172463 -0.23277761 0.023386756
0000a0 e2 f3 09 3e f7 a3 6f 3d c3 70 4e be d9 b5 89 3d
       0.1347194 0.05850598 -0.20160203 0.06724138
0000b0 99 59 08 3d 0e c6 19 3e 95 ef a5 bc 6d d7 ad b8
       0.033288572 0.15016958 -0.020255843 -8.289409e-05
0000c0 ac 17 da bd 56 4f 24 bc 27 85 a9 bd 1b 27 64 3c
       -0.10649046 -0.010028681 -0.0827735 0.013925339
0000d0 33 17 de bc 81 a5 f2 3d cc 7e cb 3d df ed ff bb
       -0.027110672 0.118479736 0.09936294 -0.007810339
0000e0 ca 80 16 bd 30 1a 8b bd 4c 0d aa 3d ef 2d f5 3c
       -0.036743917 -0.06792104 0.083033174 0.02992913
0000f0 47 6c 56 bd 3c 6c 64 3e f8 60 a5 bd 81 06 d5 bb
       -0.052349355 0.22306913 -0.08075136 -0.0065010195
000100 24 d7 5d bc e3 41 6a 3d 11 fc a2 ba 70 10 7c bd
       -0.013540063 0.05719174 -0.0012434741 -0.061539114
000110 0b c3 80 3e a4 f1 65 3d ef 75 32 3d 41 d5 1a bd
       0.25148806 0.05613865 0.0435695 -0.03780103
000120 ca 6c 81 3c f5 56 80 3c 47 7e 3a 3c 96 93 4c be
       0.015798945 0.015666464 0.011382646 -0.19978175
000130 6d e4 01 3d 3a 94 4d 3d 2a 93 af bc 03 36 04 3e
       0.031711984 0.050190188 -0.021432478 0.12911229
000140 d7 82 19 be 64 09 21 be 3c 7f b8 bd 59 b2 c2 bd
       -0.14991318 -0.15726238 -0.09008643 -0.09506673
000150 4f 9b 07 bd fe 76 17 3d 78 23 8d 3d 6a 23 52 ba
       -0.0331071 0.036978714 0.06891531 -0.00080161414
000160 dd e0 e9 3d f4 3a 48 bd 49 c0 a6 3d b5 1b 96 be
       0.114198424 -0.048884347 0.08142144 -0.29318014
000170 91 07 27 3e 51 6f 24 bc 59 51 d5 bd 3d 66 a3 3a
       0.1631148 -0.0100363055 -0.104159065 0.0012466382
000180 af d3 02 3e 67 74 fa be 44 28 da 3d 21 38 bc 3a
       0.12776063 -0.48916933 0.10652211 0.001435999
000190 14 44 ae bd 82 e6 d8 be 84 4a 8f 38 55 66 65 be
       -0.085090786 -0.42363364 6.832651e-05 -0.22402318
0001a0 d1 44 1c bb d7 11 6a 3d ce a5 b5 3d 9a ef 29 3d
       -0.0023844729 0.05714592 0.08869515 0.041488267
0001b0 33 3a 24 3e 0e ba 01 3e 99 3d 83 3d 55 51 38 3d
       0.16037826 0.1266863 0.06408233 0.04499944
0001c0 3a 09 00 3e e5 e2 65 bd f4 40 02 3e f1 3d b4 3a
       0.1250352 -0.056124587 0.1272009 0.001375137
0001d0 a2 ed 15 3b d3 8d 19 bd 43 7e 6f 3d 5d 67 42 3b
       0.0022877236 -0.03748877 0.058470022 0.002966366
0001e0 a0 cb 26 be 14 ed e5 bd ab 4b d6 b9 63 80 47 3c
       -0.16288614 -0.1122686 -0.00040873638 0.012176606
0001f0 0b 87 77 3d 16 f1 d1 3d 93 0d 46 3a fe 07 8d bd
       0.06043152 0.102510616 0.00075551233 -0.0688629
