p2_continuous-control/actor.pth (torch_old, 169478 bytes, 6 tensors)

fc1.weight f4 [256, 33]
000000 a4 f3 2b 40 9a f0 bb bf f2 af ac 3f 54 0b a8 3e
       2.6867456 -1.4682801 1.3491194 0.32821143
000010 26 39 87 3c e6 46 1a bc 93 ad 9e ba 81 49 05 bf
       0.016506743 -0.009416318 -0.0012106173 -0.52065283
000020 61 f8 b2 3f bf 67 ab 3f 7e a4 63 3f ed 5c 0b be
       1.3982049 1.3391036 0.8892287 -0.13609667
000030 7e cd 6e 3f cc 86 18 c0 78 0e 91 3f 6f 24 14 bf
       0.93282306 -2.3832273 1.133254 -0.57868093
000040 23 b0 56 be 10 22 81 bd 2d 6e 29 bf 68 39 b1 bd
       -0.20965628 -0.06305325 -0.6618374 -0.086535275
000050 0d 2f 64 bf 23 12 a3 3f d7 2b ff bd 6d 83 9a bf
       -0.89134294 1.273991 -0.12459534 -1.2071358
000060 ae ff 05 bf 15 65 1b 3f 24 c7 1e 40 16 ae 7f 3e
       -0.5234326 0.60701114 2.4809046 0.24968752
000070 50 65 65 3f 2c e0 24 bd 67 03 a2 be 7c 3f fb 3c
       0.89607716 -0.04025285 -0.3164322 0.03066992
000080 06 e3 81 40 af 06 12 40 d6 21 6e 3f 7d 86 28 bd
       4.058963 2.281658 0.9302038 -0.041143883
000090 45 2c a5 bf 4a 9e d2 3f 15 9e 3c 3d d0 ef bb bf
       -1.2904135 1.6454556 0.046049196 -1.468256
0000a0 3b d6 9e be 41 21 f3 3f 43 a2 bb bf 45 64 19 bf
       -0.3102282 1.8994523 -1.4658893 -0.59918624
0000b0 5e 61 ce 3e 11 8a 6a 3d a2 62 9c bf 8c 25 25 bf
       0.4030866 0.057260577 -1.22176 -0.64510417
0000c0 fb d9 c5 3f 7e b5 db bf 0b 75 80 3f 9e 98 aa bf
       1.5457147 -1.7164762 1.0035719 -1.3327825
0000d0 81 73 bd bf c8 d6 48 3e 48 5c be be 52 2e 77 3f
       -1.4800874 0.19613183 -0.3717978 0.96555054
0000e0 f5 e9 b8 bf ae 3d ce bd 87 76 1b be 09 f2 7b 3f
       -1.4446398 -0.10070358 -0.15181933 0.9841619
0000f0 45 a1 fc 3f e1 13 5b 3f 38 bb 12 bc a4 cc f8 bf
       1.9736716 0.8557721 -0.008955769 -1.9437451
000100 ac 59 1d bd c0 e5 13 3f 41 e7 6d 40 88 88 b1 3f
       -0.038415596 0.57772446 3.7172396 1.3869791
000110 1a 30 bf 3f ca 3e 2f 3f 85 e2 76 3f 51 05 8a be
       1.4936554 0.68455184 0.9643939 -0.2695718
000120 66 f3 e9 3e c8 c2 a6 be 61 da 2a be ef 52 6b 3f
       0.4569351 -0.3257048 -0.16684867 0.9192342
000130 c7 1d f6 3e ad 5e 41 3e 6c ee ad 3f 19 db 0f c0
       0.48069593 0.18883772 1.3588386 -2.2477477
000140 69 16 9e bf 34 28 5c 3d 73 48 b5 be 68 2c 3d bf
       -1.2350589 0.05374928 -0.35406837 -0.73895884
000150 f7 d5 9a bf be dc cf 3e 02 75 76 be d2 52 93 3e
       -1.2096547 0.405981 -0.24068072 0.28774124
000160 55 75 8f bf 80 01 81 bf 90 7d d4 3d 6d 85 71 3e
       -1.1207682 -1.0078583 0.10375512 0.23586054
000170 bc 0e d6 bd 24 bb f8 3d 24 86 9e bf 28 83 c3 bc
       -0.10452029 0.12145069 -1.2384686 -0.023866251
000180 3e ef da bc 9c f2 c7 bc d6 12 97 c0 f8 a3 46 3f
       -0.026725408 -0.024407677 -4.7210493 0.77593946
000190 d4 13 3a bf 6a cb 13 bf 4d 6c 57 bf 2d de 37 3f
       -0.72686505 -0.5773226 -0.8414963 0.7182339
0001a0 73 27 9c bd 78 c0 c5 3e 56 6a 4d 3f ee 6d 1f bf
       -0.07624712 0.38623405 0.8024038 -0.62277114
0001b0 5a ac c6 3d 51 88 7d 3f 9e 00 fb bf 3e f5 99 bf
       0.09700842 0.9903613 -1.9609563 -1.2027967
0001c0 c4 fd 6b bf 05 32 e4 3f e0 78 4b 3f 7e 21 35 bf
       -0.9218409 1.7827765 0.79481316 -0.7075423
0001d0 b2 89 cb bd 88 cb 57 be 7e 3d 88 be 46 1d 7f be
       -0.09938373 -0.21073735 -0.26609415 -0.2491351
0001e0 fb 08 38 3f 22 2a d0 3e c9 ab a2 bf d7 75 39 bf
       0.71888703 0.40657145 -1.2708675 -0.72445434
0001f0 b0 36 9b 3f 73 5d e5 3f 1b 17 de 3f d0 b1 4c bf
       1.2126064 1.7919143 1.7350801 -0.7995882
000200 20 11 9c 3b d9 17 de bf 74 7d ca bc 8a 8e a8 bd
       0.0047627836 -1.7351028 -0.024718024 -0.08230312
000210 e1 63 53 c0 1b 6e b5 bf 98 a7 ba 3e 88 da ad bc
       -3.3029711 -1.4174227 0.3645599 -0.021222368
000220 c8 f7 8a bf 94 49 a5 3f e1 82 01 3f bd f4 ed bd
       -1.0856867 1.2913079 0.5059033 -0.11618946
000230 4e 24 03 bf 8f d5 a8 bf c1 8e 81 bf f9 38 16 bf
       -0.5122727 -1.3190173 -1.012169 -0.58680683
000240 d9 17 17 bf 17 95 8a be 7a 40 6f 3f d9 3e db be
       -0.59020764 -0.27066872 0.9345776 -0.42821386
000250 5c ce 4b 3f 66 04 e6 3d fc d7 80 3f af ea 92 3e
       0.79611754 0.11231308 1.0065913 0.28694674
000260 ba db 87 be 0a c5 5f 3f 88 43 84 bf 6b 1a 0e c0
       -0.26534826 0.8741003 -1.0333109 -2.2203624
000270 1f 2e 66 3f c4 96 c7 bf 14 a5 c9 3f 23 52 8b bf
       0.89914125 -1.5592885 1.5753503 -1.0884441
000280 4b c0 d2 be 5e 6f 2f 3d 63 a4 87 3f 00 6d eb b9
       -0.41162333 0.042830817 1.0597042 -0.00044903904
000290 65 b2 a8 c0 89 37 ba bf 49 ba 49 3f 19 18 09 3f
       -5.2717767 -1.4548198 0.78799874 0.53552395
0002a0 fa 46 c2 bf 48 98 2a be fc 6d 9c 3f 9c 62 3c 40
       -1.517791 -0.16659653 1.2221065 2.9435186
0002b0 b8 23 d8 be 1f 0e 13 c0 61 e2 ea bf 43 97 c7 bf
       -0.4221475 -2.297737 -1.8350335 -1.5593036
0002c0 b2 eb 53 3f ef 6c 43 3f da 3e e3 bf 6d 5a 0a 40
       0.8278152 0.76338094 -1.7753556 2.1617692
0002d0 ff 55 0d 3f 50 dd 86 3e 27 85 3a 3f 03 88 8f be
       0.55209345 0.26340723 0.72859424 -0.28033456
0002e0 43 cf cf bf 09 a4 3d be da 53 01 bf d7 2d f0 be
       -1.6235126 -0.18519606 -0.5051857 -0.46909973
0002f0 01 63 a2 bf c0 ad 9c 3f 55 4c c0 be bd 5f 91 3e
       -1.2686464 1.2240524 -0.37558237 0.28393355
000300 02 b4 bd 3f f5 9d a8 3f 74 63 cc 3c 4a 41 ba bf
       1.4820559 1.3173205 0.024949767 -1.4551175
000310 fe 04 71 bd 0a 35 8f 40 4d 0e 2e bf 2e 41 1d 40
       -0.05884265 4.4752245 -0.6799057 2.4571033
000320 ec 19 99 3f 60 6b 85 bf ca 29 4f bf 0a ed 37 c0
       1.1961036 -1.0423393 -0.8092314 -2.8738427
000330 23 14 7f bf 59 0b ad 3e f4 df 2f c0 6f 28 0f 3f
       -0.996401 0.3379772 -2.748044 0.5592107
000340 df bc 42 3f d0 3a 4f 3f ce bb 49 be 69 1a de bd
       0.76069444 0.80949116 -0.19700548 -0.10844881
000350 b7 d9 16 3e 5d 53 46 3f fe b9 a8 bf ff dc 9b be
       0.14731489 0.7747095 -1.318176 -0.30442044
000360 4b 28 bf 3f a7 8c 62 bf 90 1c b8 3d 04 e5 cf bf
       1.4934171 -0.8849587 0.08989823 -1.6241765
000370 e9 be 82 be 5e 15 eb bd 95 c7 bf 3e b8 60 04 c0
       -0.25536278 -0.11478685 0.37456957 -2.0684032
000380 71 01 00 be bd 27 40 bd 6f 8a 81 3e 90 23 63 3d
       -0.1250055 -0.046912897 0.2530093 0.055453837
000390 67 95 30 3d be 4c 46 bd 53 87 f6 40 63 7a 20 bf
       0.04311123 -0.04841303 7.704019 -0.6268675
0003a0 b9 d9 0e 40 80 94 0d 40 31 93 1b bf 2d a1 d6 be
       2.2320387 2.2121887 -0.6077147 -0.41919842
0003b0 6b 3e 12 3f d6 84 17 3f 77 cf 34 3e fb 7c 3a be
       0.5712649 0.59187067 0.17657267 -0.18211739
0003c0 e4 0d 87 3d 1b a9 5d be 80 fb ee 3e dc cf 81 3f
       0.06594446 -0.2164654 0.46676254 1.0141559
0003d0 12 6a b6 3f b1 63 50 c0 af ec be bf 33 0b 9e bf
       1.425112 -3.2560847 -1.491598 -1.2347168
0003e0 43 00 41 be e2 a7 0f 40 f1 28 45 3f 68 93 b6 3e
       -0.18847756 2.2446218 0.77015597 0.35659337
0003f0 be e6 1d 3e 52 05 30 bf af cf 89 3f 58 86 71 bf
       0.15420052 -0.6875812 1.0766505 -0.9434562

fc1.bias f4 [256]
000000 95 e4 e3 be f8 4c 05 c0 07 8a bc 3d 31 08 d2 bf
       -0.44510332 -2.0828228 0.09206014 -1.640875
000010 aa 35 7e 3f 64 f8 aa bf e4 c6 97 3c b4 a3 6d 3f
       0.99300635 -1.3357053 0.018527456 0.92827916
000020 00 9e 25 bf 85 28 35 c0 e1 32 45 c0 3a 42 c9 bf
       -0.64694214 -2.830598 -3.0812304 -1.5723336
000030 d3 b2 02 bf 5c e6 f5 3e 2e 64 88 be 5c 44 eb bf
       -0.51054114 0.48027313 -0.2663893 -1.8380237
000040 85 e1 94 bf 3b 16 fa bf 91 d0 15 c0 94 15 5a 3f
       -1.1631323 -1.9538034 -2.340855 0.85189176
000050 66 58 35 bf 1f bb df 3f c5 a7 06 3e 21 e0 c3 be
       -0.7083801 1.747898 0.13149936 -0.38256934
000060 31 1a 41 be 4f f5 21 3e 59 95 e6 bf f9 2c c6 bf
       -0.18857647 0.15816234 -1.8014327 -1.5482475
000070 69 7c cd bf 63 5c 18 c0 98 05 89 c0 e1 e2 a4 bf
       -1.6053592 -2.3806388 -4.281933 -1.2881738
000080 cf f3 f3 bf 72 5e 7b bf 96 ee f7 3f e4 be 52 be
       -1.905878 -0.9819099 1.9369686 -0.20580631
000090 0b 32 dd bf 1d 16 05 c0 c0 5e 14 c0 a1 56 b8 bf
       -1.7280897 -2.0794747 -2.318283 -1.4401437
0000a0 bd 52 29 c0 13 51 37 c0 7e f0 b1 bf 95 17 d8 bd
       -2.645675 -2.8643234 -1.3901517 -0.10551373
0000b0 8b 5a 26 c0 12 e5 2e c0 d1 02 64 3f a4 fb 03 c0
       -2.5992763 -2.7327313 0.890668 -2.062234
0000c0 70 97 e8 be a9 2b c9 3d 64 10 c0 3e 7e c5 73 c0
       -0.45428038 0.09822781 0.37512505 -3.808929
0000d0 d2 c0 a3 bf 30 56 00 c0 47 8d 17 c0 2c 70 3b be
       -1.2793219 -2.0052605 -2.367998 -0.18304509
0000e0 09 9e bb 3e 19 c5 b1 bf 6d 6a 2e bf 1d 26 8c be
       0.3664401 -1.3888274 -0.6813114 -0.27372828
0000f0 77 1c 03 c0 05 71 9c 3e aa 78 1e 40 06 3e b9 bf
       -2.0486124 0.30554977 2.4761147 -1.4472053
000100 16 a6 8c bf 9e ee af bf 19 c5 b7 bf 24 0e bf 3f
       -1.0988185 -1.3744695 -1.4357024 1.492619
000110 f4 a6 01 3f a5 95 8b be 22 d4 bb 3d ff ed f4 be
       0.50645375 -0.27262607 0.091713205 -0.47837827
000120 3d 3e c8 bf 5a ee b2 bf a4 44 4b bf 02 b3 84 bf
       -1.5643994 -1.3978989 -0.7940161 -1.0367129
000130 d6 2c 1f c0 27 5c 94 bf 70 65 38 c0 88 b2 98 bf
       -2.4871116 -1.1590623 -2.8811913 -1.1929483
000140 ec 63 e6 bf a4 14 a9 3f 5e 36 d0 3f 87 ad cd be
       -1.7999244 1.3209424 1.6266592 -0.40171453
000150 fa f4 81 bf bd fa f0 be b0 07 bd bf 51 b0 11 c0
       -1.0152886 -0.47066298 -1.4767971 -2.2763865
000160 ff 11 3b c0 d7 57 0d c0 4e 3d 6c c0 ba ae c4 bf
       -2.9229734 -2.2084863 -3.6912417 -1.5365822
000170 a1 9c 5b bf df a4 4d c0 80 02 b8 bf a8 18 c7 bf
       -0.8578587 -3.213188 -1.4375763 -1.55544
000180 c9 7f 06 c0 bb aa d5 bf 71 80 bf bf 26 0c af bf
       -2.1015494 -1.6692728 -1.4961072 -1.3675582
000190 52 e7 61 bf bd d9 1c bf 82 68 b2 bf 02 86 73 bf
       -0.8824359 -0.6126974 -1.3938143 -0.95126355
0001a0 4f 38 f2 bf 00 18 f7 bf bd 77 28 bf f5 48 06 bf
       -1.8923434 -1.9304199 -0.65807706 -0.52455074
0001b0 74 5b ef 3e 73 0c 31 c0 4a 51 7d c0 91 cf 04 c0
       0.4674946 -2.7663848 -3.9580865 -2.0751688
0001c0 4b 7c 78 3e 5a df 60 3f 3d d1 2c bf fc ae 6e bf
       0.24266164 0.8784081 -0.6750677 -0.93235755
0001d0 cc 2e 48 3e ea 2e dd bf 25 f6 0e bf ad 89 31 3f
       0.19549102 -1.7279942 -0.55844337 0.693507
0001e0 d9 27 ae bf 1a 8b 24 c0 3b 5f dc bf 74 86 1e c0
       -1.360591 -2.57099 -1.7216562 -2.4769564
0001f0 a0 92 cb bf 5e 1b 08 c0 0b 89 b1 bf 53 6a 16 c0
       -1.5904121 -2.1266704 -1.3869947 -2.3502395
000200 5b 78 94 bf a1 68 dc bd d3 79 03 3f de 57 cf bf
       -1.159923 -0.10762144 0.51357764 -1.619869
000210 18 ea 20 be 04 9e 56 bf cb f2 06 c0 a0 37 f8 bf
       -0.157143 -0.8383486 -2.108569 -1.9391975
000220 c7 9a 0d c0 12 fc ac bf d5 c5 ba bf bb f7 9f bf
       -2.2125719 -1.3514426 -1.4591624 -1.2497476
000230 d6 1b 5d be 19 64 73 3f 37 3b cc bf 52 50 e9 bf
       -0.2159265 0.9507461 -1.5955571 -1.8227637
000240 2c 73 96 bf 9d 98 01 c0 4b 4b 06 3f b3 4f c4 bf
       -1.1753898 -2.0249398 0.5245864 -1.5336822
000250 fb bb 8a 3f 0e 9a 10 c0 45 ba 96 3f 37 07 23 c0
       1.0838617 -2.2594028 1.1775595 -2.5473154
000260 a6 3e 0d c0 53 d2 84 bf d0 b8 94 bf 7c 45 f3 3d
       -2.2069488 -1.0376686 -1.16189 0.118784875
000270 26 11 2e c0 34 a6 2d c0 5e e6 8b 3f 30 5b 0a 40
       -2.7197967 -2.7132692 1.0929677 2.1618156
000280 92 c6 6f c0 7d c3 d7 bf 76 d9 bb be 2d f2 01 c0
       -3.7464948 -1.6856533 -0.36689347 -2.0304062
000290 17 a1 15 c0 74 e2 1c c0 38 6f d1 bf 5c 23 26 c0
       -2.3379571 -2.4513216 -1.6362066 -2.5959082
0002a0 8c 9d bb be 57 c4 60 3e c4 15 ca bf cc e0 2a c0
       -0.36643636 0.21949898 -1.5787892 -2.6699705
0002b0 52 16 31 3f e1 db 9c bf a8 91 c0 bd f2 2c e2 bf
       0.69174683 -1.2254602 -0.09402782 -1.7669966
0002c0 7d cb 89 bf df c2 f8 3e cc 07 aa bf 37 60 be bf
       -1.0765225 0.48586175 -1.328363 -1.4873112
0002d0 08 32 96 be 99 ea 0b bf 7c 60 18 bf 1b 3e 42 c0
       -0.29335046 -0.5465484 -0.59522223 -3.0350406
0002e0 ef 61 36 c0 0e 9b a9 be 86 3d 2d c0 42 52 24 c0
       -2.8497274 -0.3312611 -2.70688 -2.5675206
0002f0 46 ec d3 be 29 1f 5b bf 51 52 0e c0 5c 4c 30 c0
       -0.413912 -0.8559442 -2.2237742 -2.7546606
000300 bf 8a 36 be 49 25 58 bf 86 fb 59 c0 99 ce fc bf
       -0.17826365 -0.8443189 -3.4059768 -1.9750549
000310 d7 e1 8d be 71 36 2e c0 a4 d1 82 3e fc eb 8c bf
       -0.27711365 -2.7220728 0.25550568 -1.1009517
000320 4d c2 65 40 08 54 5e be ee 3e b3 3e a0 92 3c bf
       3.5899842 -0.21711743 0.3500895 -0.7366123
000330 d3 c1 28 c0 2f 75 29 c0 8a d9 82 bf e9 ff c9 bf
       -2.63683 -2.6477773 -1.0222638 -1.5781223
000340 fc 2a d1 bf 8b 3f ae bf 1a df 24 c0 2e 76 f9 bf
       -1.6341243 -1.3613142 -2.576117 -1.948919
000350 af 32 80 bf be eb c6 be 61 53 17 c0 9f 18 23 3f
       -1.0015467 -0.38851732 -2.364464 0.63709444
000360 bf 90 1c c0 d0 ca 2f bf a2 b7 43 bf 95 17 42 be
       -2.4463346 -0.6866884 -0.76452076 -0.18954308
000370 6e e8 00 c0 c5 4a 58 c0 4f a1 ad be b6 98 35 c0
       -2.0141864 -3.3795636 -0.3391213 -2.8374457
000380 3a 2d bc bf d9 4d f1 bf f0 38 a7 bf 14 7c a7 bf
       -1.4701302 -1.8851882 -1.3064251 -1.3084741
000390 cf a6 1e c0 5c 7c 21 be 6e 4c f0 3d a4 35 a0 3f
       -2.4789312 -0.15770096 0.11733328 1.251637
0003a0 88 24 37 bf a0 bc 94 3e f5 e7 03 40 5f e5 bd bf
       -0.7154012 0.2905016 2.0610325 -1.4835624
0003b0 84 13 72 3f d2 6f 6a bf ea c2 a6 bf 4a b7 d9 bf
       0.9456103 -0.91576874 -1.3028233 -1.700906
0003c0 52 37 3e bf 87 d5 a6 bf 41 b0 a5 bf 2a a9 f5 bf
       -0.7430316 -1.3033913 -1.2944413 -1.919225
0003d0 30 cd 88 3f 42 b0 0c 3f b5 91 27 c0 d1 40 6c be
       1.0687618 0.5495645 -2.6182683 -0.230716
0003e0 33 59 8d 3f 02 fd c6 bf c5 6d 1f c0 fb 53 cb be
       1.1042846 -1.5545962 -2.4910748 -0.3971251
0003f0 95 37 18 c0 df 29 72 bf 71 30 05 40 2e 2e 87 3f
       -2.3783925 -0.9459514 2.0810816 1.0560968

fc2.weight f4 [128, 256]
000000 2f 99 2c c0 eb d0 9f 3e fe ec cc bf 06 e3 57 be
       -2.6968496 0.3121408 -1.6009824 -0.21082696
000010 fa d2 8c bf ba ff 90 be 25 d7 94 3f 14 f3 04 40
       -1.1001885 -0.28320104 1.1628157 2.0773363
000020 d0 a3 eb 3e 9f 21 e6 3e a3 93 09 c0 eb 2f 4b bf
       0.46023417 0.44947526 -2.149636 -0.7936999
000030 84 c3 51 3f 5a 5b 82 3e e0 51 e3 bf 59 d6 1d c0
       0.8193896 0.2546032 -1.7759361 -2.4662077
000040 19 4a af bf f4 71 59 bd 0a 3d ef bf e6 99 90 be
       -1.3694488 -0.05308719 -1.8690503 -0.28242415
000050 39 78 b8 3d d1 39 0f c0 13 ef 1f 3f cc 7c 2b c0
       0.09007306 -2.2379038 0.62474173 -2.679492
000060 e9 0f c7 3e 91 18 52 3c 74 f8 04 c0 fa 71 3f bd
       0.38879326 0.01282324 -2.0776644 -0.046739556
000070 3a 39 b7 3f 9c b7 cd 3e 50 5e 10 3e 6f a4 62 3f
       1.4314339 0.40179145 0.14098477 0.88532156
000080 92 e2 c4 3f 89 45 91 bf a5 29 c8 3e c5 bd 2f c0
       1.5381644 -1.1349345 0.39094272 -2.7459576
000090 9f c8 b4 be 2f 4f 25 c0 86 53 1d 40 97 ad 01 bf
       -0.35309312 -2.582958 2.4582229 -0.506555
0000a0 7c 5e e2 be 36 04 19 bf c4 d9 bf be b6 6c 99 3f
       -0.4421271 -0.5977205 -0.3747083 1.1986301
0000b0 58 da aa be 13 20 14 3e b8 ca 06 3e d7 e9 59 3f
       -0.33369708 0.1446536 0.13163269 0.85122436
0000c0 3f 7f 27 c0 aa ad 83 3f 7e 1b db 3d ba 6e 18 bf
       -2.6171415 1.0287373 0.10698603 -0.59543955
0000d0 4b f1 8d be 08 37 ab bd 7e 8c 34 bf eb b5 78 bf
       -0.27723154 -0.08360106 -0.70526874 -0.97152585
0000e0 da 69 53 3f 5c 32 16 c0 6b e8 72 3e d0 22 1a bf
       0.8258339 -2.3468237 0.23721473 -0.6020937
0000f0 38 39 d1 bf 37 d8 66 be 3d d4 82 bf 4e 0c dc 3f
       -1.6345587 -0.22543417 -1.022102 1.7191255
000100 61 80 dd bf 0c 66 27 be f0 e2 59 3e 01 ec cf 3f
       -1.7304803 -0.16347522 0.21277976 1.6243898
000110 cc 58 5b c0 27 ac 04 c0 4d 48 3d bf cd d5 e6 bf
       -3.4272947 -2.0730073 -0.7393845 -1.8033997
000120 8c 2e b6 be c9 a7 48 bf 76 34 1e 3f ad 56 28 bf
       -0.35582387 -0.7838102 0.617988 -0.65757257
000130 35 1d b4 3c 7c 70 87 bf d5 eb 5a bf 70 9b 26 bf
       0.021986583 -1.0581203 -0.855161 -0.6508093
000140 7d 29 51 bf 60 7a da bf 1b 9f 11 be 97 f9 5f bf
       -0.8170393 -1.7068596 -0.1422085 -0.8749022
000150 4e 5d 3b 3f 81 e9 8b be 94 65 0f c0 d5 e1 2b 3f
       0.73189247 -0.27326587 -2.2405748 0.6714147
000160 01 ad 5b 3e 5d 25 df be 40 75 e1 be ad 67 d0 bf
       0.21452715 -0.43583193 -0.44034767 -1.6281639
000170 53 a9 9b bd a5 be 05 c0 7f 89 00 c0 0c db 1b bf
       -0.076006554 -2.089761 -2.008392 -0.60881114
000180 de b8 c7 bf 00 49 06 40 e9 9e 81 bf 12 e4 34 c0
       -1.5603292 2.0982056 -1.012662 -2.8264203
000190 c4 f7 34 c0 85 13 6a 3f 23 d6 b3 3f 9d 2a 0c c0
       -2.8276224 0.91436034 1.4049724 -2.190101
0001a0 e4 fc 04 3f 3d 41 1c c0 2a b8 7d 3f d5 34 09 40
       0.5194838 -2.4414818 0.9910914 2.1438496
0001b0 60 f8 4c 3f 9b dc 0f bf 67 2a 8b 3e 07 f9 84 bf
       0.8006649 -0.5619599 0.27180788 -1.0388497
0001c0 91 7f 2f c0 f3 9c 4c bf ee cb 4e bf ba dc ae bf
       -2.742161 -0.79926986 -0.8077992 -1.366111
0001d0 ce 92 b8 bd 35 97 01 40 e7 14 08 40 d8 d1 84 bf
       -0.09012376 2.024854 2.1262758 -1.0376539
0001e0 13 0a 72 bf 5c 67 e9 3e 24 de 78 3f a4 a7 53 bf
       -0.9454662 0.4558667 0.9721396 -0.82677674
0001f0 e5 33 3b bf 96 32 63 3f b0 cf 25 3f 37 49 03 bf
       -0.7312606 0.88749063 0.6477003 -0.5128359
000200 2c 54 e8 3f 52 21 98 3d 7e 0e 8f 3d 92 24 c4 bf
       1.8150687 0.0742823 0.06985186 -1.532366
000210 fc 69 29 c0 a5 9a 30 be 88 42 c3 be ae 88 a6 be
       -2.6470938 -0.17246492 -0.38136697 -0.32526153
000220 f5 60 66 be 89 c0 34 c0 7e 10 f4 bc af b8 b5 3f
       -0.22497924 -2.8242514 -0.02979302 1.4196986
000230 e5 f1 76 bf 00 3d e1 bf ba 8d ea bf 95 a0 8b 3f
       -0.9646285 -1.7596741 -1.8324502 1.0908381
000240 7a 7b bc bf e8 54 03 c0 52 83 9e 3f 7a 0a 3f bf
       -1.4725182 -2.0520573 1.2383826 -0.7462536
000250 af 27 9a 3e ab 93 2b be 55 c1 fb bf ce b5 55 bf
       0.301084 -0.1675555 -1.9668375 -0.83480537
000260 e6 e8 d0 3f 39 77 b5 bf 63 d3 44 be d4 b3 b0 be
       1.6321075 -1.4177009 -0.19221263 -0.34512198
000270 4c 77 8c bf 5f c2 1b bf ac 52 3c c0 e8 26 dc 3f
       -1.0973907 -0.6084346 -2.942546 1.7199373
000280 da 30 c7 3e f1 0d 8d bf 8d 65 15 3e 8b 99 44 bf
       0.38904458 -1.101988 0.1458952 -0.7679679
000290 58 da 93 3b ec 82 ec bf 28 2a f2 bf 23 b6 d1 bf
       0.0045121126 -1.8477454 -1.8919115 -1.6383709
0002a0 5b 40 de bf ba 97 42 c0 d8 bc ed be 03 c9 f2 be
       -1.736339 -3.0405107 -0.4643314 -0.47418985
0002b0 f1 11 9e bf 51 6c 59 3f 5e 8d 92 bf b0 4f 84 3f
       -1.2349225 0.849309 -1.1449392 1.0336819
0002c0 bb e7 f2 bf c8 16 af 3f e1 7d 14 3f 8c d8 07 be
       -1.8976969 1.3678827 0.58004576 -0.132662
0002d0 f2 39 a1 bf b1 82 20 c0 fe 3e 69 be b0 d0 3a 3d
       -1.2595809 -2.5079768 -0.22777936 0.045609176
0002e0 39 ce 1b bf 14 cc 6c bf 54 04 58 3d 18 b9 b1 3e
       -0.60861546 -0.924989 0.052738503 0.34711528
0002f0 44 15 3b bf 85 55 82 bd 6f 75 97 bf 47 b3 a6 3f
       -0.73079324 -0.06363968 -1.1832713 1.3023461
000300 98 4b c9 bf d8 2b f6 bf e2 c6 45 bf 63 c0 38 bd
       -1.5726194 -1.923213 -0.77256596 -0.04510535
000310 b0 7d 27 40 e1 d7 b3 bf d7 2e e3 3e fc 33 00 be
       2.6170464 -1.4050256 0.44371673 -0.1251983
000320 a1 ba 48 3f 3e 78 52 3e 0f 12 ae 3f 8f 1d 0f 3f
       0.78409773 0.20553681 1.3599261 0.5590448
000330 e5 b3 94 bf 75 4f ba bf 76 10 7c be aa 21 9e bf
       -1.16174 -1.4555498 -0.24615654 -1.2354023
000340 4a 35 2c be af 85 07 bd 46 8e a4 bf 29 b1 15 c0
       -0.16817203 -0.033086475 -1.2855918 -2.338938
000350 24 1a 0b 40 a7 8f 79 3f 35 df 96 3f cf c2 9c bf
       2.1734705 0.9748482 1.1786867 -1.2246951
000360 fc 43 56 bf 1b 3d 09 c0 66 cb 0c c0 ef aa ed bf
       -0.83697486 -2.1443546 -2.1999145 -1.856779
000370 3b 71 9c bf 70 cd 85 bf 3b 2e ec be 54 9e 3f c0
       -1.2222055 -1.045332 -0.4612902 -2.9940386
000380 ef 7f 1e 3f 6b 8a 8f bf 9c 0d e3 bf d1 bf 94 bd
       0.6191396 -1.1214117 -1.7738528 -0.072631486
000390 f1 3f 06 3e e7 aa db bf 3d 8e 83 bf 8b 68 0d c0
       0.13110329 -1.716153 -1.0277783 -2.2095058
0003a0 0f 9f 18 c0 1d 42 99 3f da 4c 5a bf 89 f4 92 3e
       -2.3847082 1.1973301 -0.85273516 0.2870219
0003b0 6a 60 c2 be 4a b4 22 bf 55 e8 b4 3f 93 fb 08 c0
       -0.37964183 -0.6355635 1.4133402 -2.1403549
0003c0 2d ac 16 c0 6c b6 71 bf fe c3 44 bf d9 b5 d1 bf
       -2.3542588 -0.9441898 -0.7686156 -1.638362
0003d0 46 54 ef 3f 91 9d dd bf 2e 4f 76 3d 48 1c 31 3e
       1.8697593 -1.731371 0.060134105 0.17295945
0003e0 b1 06 47 bf c0 b5 46 bf d2 18 05 c0 6d da 16 c0
       -0.77744585 -0.7762108 -2.07964 -2.3570817
0003f0 f7 0b 80 3f 70 6a 97 bf a2 6a 23 c0 d9 31 74 bf
       1.0003651 -1.1829357 -2.5533834 -0.9538856

fc2.bias f4 [128]
000000 35 cd 86 3f 5c 44 18 bf 3c d9 c9 3f 26 64 a4 bf
       1.0531374 -0.5947931 1.576942 -1.2843063
000010 c8 37 9c 3e 31 0f 2c 3f ab 89 52 c0 90 8d bb bf
       0.30511308 0.6721068 -3.2896526 -1.4652576
000020 ba c0 23 c0 83 83 b3 3f 5a 26 24 bc 8c 57 e3 3e
       -2.558638 1.4024509 -0.010018909 0.4440273
000030 03 a7 16 3f a0 f9 43 bf e1 2b b9 3e 1c d2 38 3e
       0.5884859 -0.7655277 0.3616629 0.180489
000040 70 47 ef bf 74 4f dd 3e eb b4 a7 3f f0 9e be bf
       -1.8693676 0.4322468 1.3102087 -1.4892254
000050 e3 66 91 bf d4 dd 07 c0 3c 88 b4 bd 46 ad 72 3e
       -1.1359524 -2.1229143 -0.08815047 0.23698911
000060 fa fb 9d be df 9b 47 bf ca 40 27 bf 16 cb 98 be
       -0.30856305 -0.77972215 -0.65333235 -0.29842442
000070 7e 17 3f bf b1 bf b4 be 5c b3 3a c0 6a b3 06 bf
       -0.7464522 -0.353025 -2.9171972 -0.52617514
000080 75 67 d0 be eb 7d 4c bf 47 cb f4 bf 7c 12 bd bd
       -0.4070393 -0.79879636 -1.9124535 -0.09232041
000090 44 3f e2 3f a4 f6 c6 3f 03 ab 27 c0 fa 83 4f be
       1.7675557 1.5544019 -2.6198127 -0.20265189
0000a0 db 1e a9 bf b0 cc 1a c0 d8 4e 06 40 c4 09 4a be
       -1.3212541 -2.4187431 2.0985622 -0.19730288
0000b0 da 9f da bf 45 81 be bf f7 ed 3c bf e8 9a 97 bf
       -1.7080033 -1.48832 -0.73800606 -1.1844149
0000c0 ea f4 5e bf 0d 9a 15 c0 df 95 d7 3f 01 10 04 c0
       -0.8709246 -2.3375275 1.6842612 -2.0634768
0000d0 d6 25 0f 40 d9 b1 1a c0 69 17 d1 bf 28 7d a6 be
       2.2366843 -2.417105 -1.6335269 -0.32517362
0000e0 f0 9a c5 be 27 31 b2 bf f1 e4 d7 bd 34 c2 70 be
       -0.3859477 -1.392125 -0.10541714 -0.23511583
0000f0 c4 6f 24 c0 e4 08 81 bf 72 68 3e be a1 b1 96 be
       -2.5693216 -1.0080838 -0.1859453 -0.29432395
000100 71 1e 12 3e 29 14 ab bf 2a 57 72 3e be 4b a3 bf
       0.14269425 -1.3365527 0.23666063 -1.275749
000110 d3 0f c9 bf 8a 46 7c bf db ce 9b be 63 2f 2f 3d
       -1.5707954 -0.98545134 -0.30431256 0.0427698
000120 df c3 44 c0 b3 04 a1 be 9b 21 15 bf 07 63 5f bf
       -3.074455 -0.31448898 -0.582544 -0.8726048
000130 d5 a1 87 bf a2 eb 30 3f e3 1a 56 bf 93 10 83 bf
       -1.0596262 0.6910955 -0.83634776 -1.0239433
000140 03 65 be 3d e9 f8 b9 3f 95 1e cf bd e0 01 ad bf
       0.0929661 1.4529086 -0.10113255 -1.3516197
000150 d0 59 e7 be 79 67 c2 bf 4e eb cd bd 75 07 ae bf
       -0.4518571 -1.5187827 -0.100546464 -1.3596026
000160 7f 56 39 bf 6d e0 12 be 64 0e 5a c0 73 92 09 bf
       -0.7239761 -0.14343424 -3.4071283 -0.5373909
000170 9a 18 b8 be e7 02 b6 3f 7a 31 86 3f 08 51 8f be
       -0.3595627 1.4219636 1.0483849 -0.2799151
000180 5f 7a 1a 3f e3 22 ed bf fa 47 87 3f d4 d8 b4 bf
       0.60342973 -1.8526272 1.056884 -1.4128671
000190 a9 79 63 c0 de b9 a7 3e 38 5c 4f c0 4c db 2f 3e
       -3.5543005 0.32758993 -3.2400036 0.17173499
0001a0 52 30 0c bc 8a 67 2b c0 78 a5 f2 3e 43 42 81 be
       -0.008556442 -2.6781945 0.47391868 -0.25245866
0001b0 7e 56 3d 3e 9d 3a 82 bf da a3 ff bd 9a f9 34 3f
       0.18490025 -1.0174137 -0.12482424 0.7069336
0001c0 5f b2 85 bf 55 39 85 bf d8 5f 15 c0 af a7 88 3d
       -1.044506 -1.0408121 -2.3339748 0.06672608
0001d0 3e 20 3d c0 4e eb cc 3f d0 ad 9c 3f 77 1a 19 c0
       -2.955093 1.6009309 1.2240543 -2.3922403
0001e0 5f b9 07 bf 2d 92 a9 3e a6 f7 04 3f 3f 08 4e be
       -0.5301723 0.33119336 0.5194038 -0.20120333
0001f0 b1 d6 ed bf a2 4b d5 be 85 26 c5 bf da 26 9b 3f
       -1.8581144 -0.41659266 -1.540238 1.2121232

fc3.weight f4 [4, 128]
000000 95 fe 02 3f c0 94 27 3f 55 86 3c 3f d0 90 01 40
       0.5116971 0.6546135 0.73642474 2.0244637
000010 8c 81 63 3e 2a 19 83 3f bd 67 bc 3f ec 9d 66 c0
       0.22217387 1.0242054 1.4719158 -3.6033888
000020 57 78 8b 3f 49 e4 de 3f 86 8b 35 bd 08 9e c9 3e
       1.08961 1.7413417 -0.044322513 0.3937838
000030 48 51 ea 3e 03 df fc 3f bb 2f 5b 3f e1 4a 93 3f
       0.45765138 1.9755558 0.85619706 1.1507226
000040 18 fb 86 40 f3 fb d3 bf ba 52 e8 3f 31 d2 02 be
       4.218151 -1.6561264 1.8150246 -0.12775494
000050 6e 6d 39 c0 74 a5 f4 be 9e 9c 49 3d d1 06 2e 40
       -2.897304 -0.4778248 0.049221627 2.719166
000060 ae 82 a0 bf 63 0d b8 be 7e 3f 8c 3f 13 0d 7f be
       -1.253988 -0.35947713 1.0956876 -0.24907331
000070 9c 9e fa 3f 28 dc 9c 3f bb 50 98 3e 92 f2 a3 bf
       1.9579654 1.2254686 0.29749092 -1.2808402
000080 d6 5d 60 3f d3 b7 28 c0 f8 52 b8 3f 4d f4 63 3d
       0.8764318 -2.6362197 1.440032 0.055652905
000090 fa b0 c5 3d 42 4e 3e 3f 27 38 86 be c2 02 8c 3f
       0.09652896 0.7433816 -0.26214716 1.0938342
0000a0 68 42 ed 3f 94 8c 04 bf fe 80 0f 40 c0 ee 9c 3e
       1.853589 -0.51777005 2.242248 0.30650902
0000b0 91 e1 48 3f c8 ce 04 40 07 b7 80 3f 06 6c c7 bf
       0.7846919 2.075121 1.0055856 -1.5579841
0000c0 1f 3d 5a bf 4c df 70 be 04 20 b6 3f 7c 72 27 3f
       -0.85249513 -0.23522681 1.422852 0.65409064
0000d0 c8 9a 3e 40 f1 97 56 3f 25 e7 68 be 91 ab 2a 3f
       2.978197 0.83825594 -0.22744425 0.6666804
0000e0 67 58 0e 40 d8 6e 5a 3f 73 ac 82 3c ad 6d aa 3e
       2.2241457 0.85325384 0.01595137 0.332868
0000f0 50 d1 d2 3e 02 ea cc 3f 29 6b 3f 40 a0 a8 a5 bd
       0.41175318 1.6008914 2.9909155 -0.08088803
000100 fa cc 1e 40 75 da 89 bf 2c b5 74 bd 2d 72 d3 3f
       2.4812608 -1.0769793 -0.05974309 1.6519219
000110 85 29 c3 3f dc 93 74 40 58 71 04 be d0 c6 11 3f
       1.5247046 3.8215246 -0.12933862 0.5694399
000120 fe 67 17 3e 54 0e 48 bf 39 58 20 c0 f9 7b f3 bf
       0.14785764 -0.78146863 -2.5053847 -1.9022208
000130 b2 64 c9 be d0 f9 8e 3f 6f 91 59 40 d8 69 8e 3e
       -0.39334637 1.1169987 3.3995016 0.27815127
000140 f5 3c 17 3f 68 1f d2 bc 99 b3 57 3f 21 ad 8c bd
       0.5907739 -0.025649741 0.8425842 -0.06868959
000150 d2 51 1a 3e e7 15 c5 bf a6 1b 99 3f 2b 5b ab 3f
       0.15070274 -1.5397309 1.1961563 1.3387197
000160 59 08 a9 bf 80 21 b7 3e ed 5d 0f bd 0b 35 93 3e
       -1.3205673 0.35767746 -0.035001684 0.28751406
000170 44 03 ba 3e da 9e 4f bf ff 60 f8 3e e9 70 8e 3e
       0.36330616 -0.81101763 0.48511502 0.2782052
000180 84 92 06 3f 1a 35 1d 40 23 5d 8b 3f 70 a7 e1 bf
       0.52567315 2.456366 1.0887798 -1.7629223
000190 2b 05 5e bf 45 94 8a bf 68 ed fd 3e c2 54 89 3f
       -0.86726636 -1.0826498 0.4959519 1.0728991
0001a0 48 ae db be ee a6 e7 be f7 29 c3 3f 5a 5d 41 40
       -0.42906404 -0.45244545 1.5247182 3.0213227
0001b0 a1 47 2a be 95 26 c3 bf d6 df 60 be a0 83 a7 bf
       -0.16628887 -1.5246149 -0.21960387 -1.3087044
0001c0 5d fe 95 bf 6b 61 1f 3f e1 77 de be 26 5c 22 c0
       -1.171825 0.62258023 -0.43450835 -2.5368743
0001d0 9d 22 81 3f 72 93 ee bf f6 17 c0 3f 27 9e ba bf
       1.0088688 -1.8638747 1.5007312 -1.4579514
0001e0 6a c0 2a 3f 6e 82 b1 bf 2c 21 aa bf 03 e1 a7 3e
       0.6669985 -1.3867929 -1.3291373 0.32788858
0001f0 db 1d ff be 3b 9d 15 c0 e4 07 c1 bf 3d 31 08 bf
       -0.49827465 -2.3377216 -1.5080533 -0.5320013
000200 a2 a3 1c c0 f0 46 61 3e 57 a5 e3 bf 62 77 02 3f
       -2.4474874 0.21999717 -1.7784833 0.50963414
000210 c3 12 e7 3e 9a 90 c4 3e 61 86 33 c0 5d 61 51 40
       0.45131502 0.38391572 -2.8050768 3.2715676
000220 25 0c 3f c0 f3 a2 c1 3f 7f 65 f9 3e 4b 9f ee bf
       -2.9851162 1.5127853 0.48710248 -1.8642362
000230 96 5a 15 c0 5f b9 8f be 43 13 6d be a1 be ac 3e
       -2.333654 -0.28071114 -0.23151879 0.33739188
000240 a5 26 35 bf 34 76 f7 bf 38 18 1b 3f 4b df d4 bf
       -0.7076209 -1.9332948 0.6058383 -1.6630644
000250 da 14 30 c0 3b 84 0d bf 91 9e 38 bd f5 48 82 be
       -2.7512727 -0.5527989 -0.045073096 -0.25446287
000260 12 53 5f 3f 56 f5 15 be de 42 67 3e 95 2d 09 c0
       0.8723613 -0.1464437 0.22584102 -2.143407
000270 c6 93 ab bf b3 da f3 be 90 36 8e bf d3 d1 04 40
       -1.3404472 -0.47627792 -1.1110401 2.0753067
000280 11 92 b7 3e d0 d5 0d 40 bf 47 82 bf 37 96 40 3e
       0.35853627 2.216175 -1.0178145 0.18807302
000290 fc 23 e8 3f 3f d8 b1 3f aa b6 86 3f 14 0d ce be
       1.8135982 1.3894118 1.0524495 -0.40244353
0002a0 7c 42 35 40 fd 95 20 c0 aa 7a 34 bf 66 b7 0e 3d
       2.832183 -2.5091546 -0.7049967 0.03484287
0002b0 9a d3 a6 3e e7 00 c8 3e 47 59 3f bf 82 4c 2a bf
       0.32583314 0.39063188 -0.747456 -0.6652299
0002c0 5d 9b 42 3f 17 a1 d3 3e d5 98 fa 3f 16 e3 ab 3f
       0.76018316 0.4133384 1.9577891 1.3428676
0002d0 01 3d 86 bf d2 ba 1d c0 93 e3 aa 3e a3 74 cd 3e
       -1.0487367 -2.4645276 0.3337675 0.4012805
0002e0 45 81 7a 40 71 a3 6d 3f 2b c3 7e 3c 4f 6d 89 3f
       3.91414 0.92827517 0.015549461 1.0736483
0002f0 05 21 17 3e 2e 15 41 c0 6d fa 10 c0 a6 b3 ab bb
       0.1475869 -3.0169177 -2.2652848 -0.0052399216
000300 9b 04 0d c0 0e 84 43 3f 4d 8e b4 bf ce 0c ac bd
       -2.203406 0.76373374 -1.4105927 -0.0840088
000310 58 71 a5 3f c1 b3 8b 3f 16 21 c6 be 46 91 83 be
       1.2925215 1.0914232 -0.38697118 -0.25696772
000320 5b d8 4a bf 0d 83 a0 bf c3 00 55 bf 64 c7 e7 3f
       -0.7923638 -1.2539994 -0.8320429 1.8107724
000330 87 6b f5 3f 2b e8 08 c0 7f 17 18 c0 e2 44 28 3e
       1.917344 -2.1391704 -2.376434 0.16432527
000340 8c 52 42 3e 97 2b 0b 40 1c 42 2f be ca c9 b0 3e
       0.18976802 2.1745355 -0.17115062 0.34528953
000350 d9 de 63 bf de 6b 2a bf 7d 45 d8 be b3 51 a7 bf
       -0.89011914 -0.6657084 -0.42240515 -1.3071808
000360 54 e5 40 bf 21 52 30 3f c8 3a ea bf 1e 82 73 be
       -0.75349927 0.6887532 -1.8299189 -0.23780105
000370 5a 61 17 3e 36 6a c6 be b6 89 17 40 2f d2 f8 3d
       0.1478323 -0.38752908 2.3677802 0.12149464
000380 fc 48 a7 be 6a 66 12 3e 23 08 b5 bf 02 36 22 3f
       -0.3267287 0.1429688 -1.4143108 0.6336366
000390 52 ff 2c 3f f4 71 3b be 48 2b 0b bf 28 fa a8 3f
       0.6757709 -0.18305188 -0.54362917 1.3201342
0003a0 11 4e be 3f be dc 6e bf 44 a8 e0 3f 24 1d 0a c0
       1.4867574 -0.93305576 1.755135 -2.1580286
0003b0 bd 7e 41 3e 52 fb f4 3f 02 f0 ff be 8b c4 86 3f
       0.18896003 1.9139197 -0.499878 1.052873
0003c0 f5 8b ca bf 8b 29 2d 40 3d ee 12 40 ec f9 5b 3e
       -1.5823961 2.7056606 2.295791 0.21482056
0003d0 00 4b 25 c0 ff 44 39 bf 17 4c e3 3f a2 f4 c2 3f
       -2.5827026 -0.72370905 1.7757596 1.5230906
0003e0 88 8e ae be a3 78 c5 3f ea f1 74 3e 6f 1a 03 3f
       -0.34093118 1.542744 0.23920408 0.5121221
0003f0 af db 1d 40 ca a5 09 3f 75 a5 10 40 6b 4d 20 bf
       2.4665334 0.537686 2.2600987 -0.6261813

fc3.bias f4 [4]
000000 5f 24 cf be 6b a9 0a 40 22 bf de 3f 01 4d 3f 40
       -0.40457436 2.1665905 1.7402079 2.989075
