p2_continuous-control/actor.pth (torch_old, 169478 bytes, 6 tensors)

fc1.weight f4 [256, 33]
1.6651143 -0.9546801 0.34108984 0.19631505 0.067218155 0.39478567 -0.78844595 0.36103263
1.2714736 1.5481974 0.9516716 -0.19450887 -0.09664948 -2.2360861 1.403527 -0.7884183
-0.35200194 -0.53326297 0.37218058 -0.0050957897 -0.3230038 1.0239832 -0.2073034 -1.2056234
-0.18199037 0.5120608 2.1901126 0.41587874 0.86381346 -0.04025285 -0.48261857 0.03066992
3.9183588 1.1339421 1.0406673 0.06692578 -1.393427 1.2768539 1.3143284 -2.369053
-0.86729264 2.230912 -1.3498926 -0.5598529 0.29211068 0.93897307 -1.1978596 0.09464181
1.0839097 -1.3434654 1.1525034 -1.57135 -1.8548254 0.11005088 0.16910478 2.0708165
-1.459462 -0.7641767 0.061993312 0.44926402 1.3659974 1.1007322 -0.008955769 -1.3360726
-0.038415596 0.1439547 2.6467645 1.1195946 1.4813253 0.30574292 0.77938074 -0.64306295
1.2328962 -0.41385868 -0.26564702 0.9857154 0.78395486 0.57120657 1.3368174 -2.0483716
-0.98229647 0.5224999 -0.3883596 -0.75745136 -1.1711677 0.1825046 0.109959334 0.17092024
-1.159001 -0.3728561 0.014266804 0.197414 -0.1244693 0.00882451 -1.3543382 -0.023866251
0.08589895 -0.024407677 -4.4784293 0.0005562346 -0.8378749 -0.52928597 -0.7640008 0.35861385
0.38481617 0.4635384 0.04494282 -1.0571117 0.34611514 1.0311702 -1.107156 -0.2910616
-0.94653356 1.6185029 0.9717985 -0.8589428 -0.21935861 0.09323401 -0.8002696 -0.09055146
0.6191828 -0.13555197 -1.0828731 -0.059884008 1.5065508 1.5159991 1.5060514 -0.42417613
0.0047627836 -1.5060741 -0.024718024 -0.9495717 -2.383475 -1.4484788 -0.08387546 0.25748986
-0.7898644 0.36111256 0.28835484 0.109648034 -0.670517 -0.21257013 -0.07644509 0.14589216
-1.0346034 -0.82014626 0.5306863 -0.5833002 0.32440165 0.45487964 0.07417501 0.47592986
-0.18894161 0.34529 -0.84075147 -1.3224449 0.41737396 -1.1116946 1.4498769 -0.62621766
-0.58443666 0.042830817 0.597482 -0.00044903904 -5.5295954 -1.002082 0.9449083 -0.08268841
-1.3588665 -0.37846386 -0.4336294 1.7060778 0.025275078 -1.4699504 -1.0325541 -0.6484596
1.009307 0.42856464 -1.7116657 2.263361 -0.40428552 1.1228942 -0.2537697 -0.04872702
-1.8992754 -0.1390332 -0.7176965 -0.33589053 -0.13441703 0.7955383 0.15018156 0.31532514
1.6993657 0.7854301 0.024949767 -1.6724273 -0.05884265 4.4940753 -1.0185575 2.2199702
-0.023514071 -1.173711 0.4283487 -2.4791243 -0.46469277 -0.47308996 -2.641382 0.4825601
0.6196842 1.1008722 0.16315138 -0.5983107 0.3222843 -0.44586757 -1.5625229 0.079047754
0.42043358 -0.42163914 -0.03288806 -0.76299846 -0.24331138 -0.19233805 0.21659791 -1.2998976
-0.28993312 0.17473167 -0.85330653 0.055453837 -0.17853272 -0.04841303 7.6368437 -0.54901814
1.8584162 1.7033153 -0.6668433 0.008792817 0.37347984 0.37633926 0.38413614 -0.9918406
-0.11369327 -0.28851208 -0.028271468 0.6676001 0.79456854 -2.8827796 -1.3165538 -1.2110666
-0.46826813 1.7973696 0.62578344 0.6429967 0.23861508 -0.8104927 0.9987559 -0.6154967
00000000: 7722 d53f ea65 74bf 54a3 ae3e d006 493e
00000010: aca9 893d 5921 ca3e 98d7 49bf 45d9 b83e
00000020: a6bf a23f 552b c63f c0a0 733f 552d 47be
00000030: 2af0 c5bd 091c 0fc0 c6a6 b33f c8d5 49bf
00000040: 9939 b4be ec83 08bf 748e be3e 95fa a6bb
00000050: c160 a5be e211 833f 5847 54be de51 9abf
00000060: af5b 3abe 6b16 033f ce2a 0c40 0fee d43e
00000070: e122 5d3f 2ce0 24bd c819 f7be 7c3f fb3c
00000080: 64c6 7a40 0425 913f 9634 853f 6210 893d
00000090: d15b b2bf f36f a33f ea3b a83f 909e 17c0
000000a0: e406 5ebf 43c7 0e40 48c9 acbf 8552 0fbf
000000b0: 888f 953e 8a60 703f 7753 99bf 91d3 c13d
000000c0: 8ebd 8a3f adf6 abbf 3b85 933f ff21 c9bf
000000d0: eb6a edbf 5b62 e13d ce29 2d3e 4288 0440
000000e0: a7cf babf 16a1 43bf b3ec 7d3d ef05 e63e
000000f0: 01d9 ae3f cbe4 8c3f 38bb 12bc 6d04 abbf
00000100: ac59 1dbd dc68 133e 9764 2940 e04e 8f3f
00000110: 119c bd3f 568a 9c3e 7f85 473f c69f 24bf
00000120: 8bcf 9d3f 49e5 d3be e302 88be d857 7c3f
00000130: 44b1 483f 983a 123f d51c ab3f 8518 03c0
00000140: c877 7bbf 8ec2 053f 12d7 c6be 55e8 41bf
00000150: d3e8 95bf 7ce2 3a3e 5c32 e13d b705 2f3e
00000160: 255a 94bf ffe6 bebe 50bf 693c e526 4a3e
00000170: c3e9 febd ad94 103c f45a adbf 2883 c3bc
00000180: caeb af3d 9cf2 c7bc 4b4f 8fc0 46d0 113a
00000190: f87e 56bf 497f 07bf 8e95 43bf 3c9c b73e
000001a0: a006 c53e e854 ed3e f615 383d 704f 87bf
000001b0: 0136 b13e 63fd 833f 4ab7 8dbf 0706 95be
000001c0: 0650 72bf 1a2b cf3f c9c7 783f ade3 5bbf
000001d0: 8b9f 60be 79f1 be3d 78de 4cbf 0b73 b9bd
000001e0: c482 1e3f 23ce 0abe 969b 8abf ef48 75bd
000001f0: a8d6 c03f 420c c23f 4bc6 c03f 9d2d d9be
00000200: 2011 9c3b 09c7 c0bf 747d cabc 2217 73bf
00000210: db8a 18c0 c167 b9bf e6c6 abbd b6d5 833e
00000220: 8e34 4abf bfe3 b83e 3fa3 933e 268f e03d
00000230: 01a7 2bbf fcab 59be 3e8f 9cbd c164 153e
00000240: e26d 84bf 1bf5 51bf 0fdb 073f 2953 15bf
00000250: f917 a63e fce5 e83e 11e9 973d 14ad f33e
00000260: e979 41be dac9 b03e 7d3b 57bf e045 a9bf
00000270: 0ab2 d53e 024c 8ebf 9195 b93f cd4f 20bf
00000280: a49d 15bf 5e6f 2f3d 95f4 183f 006d ebb9
00000290: 72f2 b0c0 3944 80bf 83e5 713f 8b58 a9bd
000002a0: 56ef adbf 04c6 c1be ac04 debe c260 da3f
000002b0: ae0d cf3c 5627 bcbf bc2a 84bf 7301 26bf
000002c0: f930 813f d36c db3e dd17 dbbf e8da 1040
000002d0: 83fe cebe ffba 8f3f 1aee 81be fc95 47bd
000002e0: 751b f3bf b85e 0ebe f5ba 37bf d8f9 abbe
000002f0: 9ea4 09be 66a8 4b3f 32c9 193e 4c72 a13e
00000300: d184 d93f f211 493f 7463 cc3c 1912 d6bf
00000310: fe04 71bd 77cf 8f40 1860 82bf fe13 0e40
00000320: 95a0 c0bc 293c 96bf 8550 db3e f9a9 1ec0
00000330: 36ec edbe d938 f2be 670c 29c0 1e12 f73e
00000340: a0a3 1e3f 61e9 8c3f 2811 273e e42a 19bf
00000350: 7302 a53e c148 e4be c000 c8bf cae3 a13d
00000360: 1243 d73e 16e1 d7be a1b5 06bd de53 43bf
00000370: 9e26 79be 44f4 44be d8cb 5d3e 0b63 a6bf
00000380: 1d72 94be dcec 323e 4c72 5abf 9023 633d
00000390: 48d1 36be be4c 46bd 0661 f440 748c 0cbf
000003a0: 95e0 ed3f 3c06 da3f 3eb6 2abf bf0f 103c
000003b0: c038 bf3e 8aaf c03e 7ead c43e 44e9 7dbf
000003c0: 04d8 e8bd dbb7 93be 9199 e7bc d7e7 2a3f
000003d0: d868 4b3f 767f 38c0 d684 a8bf 3b04 9bbf
000003e0: d7c0 efbe 3510 e63f 5833 203f 6f9b 243f
000003f0: 8357 743e 737c 4fbf 77ae 7f3f 3191 1dbf

fc1.bias f4 [256]
-0.6112946 -1.4751469 0.20468594 -1.411846 0.5307942 -1.5530151 -0.20311284 0.40962997
-0.24923904 -2.6045868 -2.9120631 -1.7343651 -0.6916502 0.27640712 -0.1738195 -1.6739079
-0.8925954 -1.5809346 -2.677147 0.4996584 -0.40408912 1.8405219 0.033971906 0.02146003
-0.41242582 0.5204236 -1.376414 -1.1773155 -1.9004567 -2.092458 -3.3591976 -1.3264033
-1.518357 -0.74252635 1.340634 -0.13139307 -1.4174367 -1.723531 -2.0658064 -1.4675618
-2.1980238 -2.4348388 -1.3381616 -0.030111397 -2.2665346 -2.4197755 0.86370987 -1.4461623
-0.44299853 -0.09430501 0.50771666 -3.1552963 -1.1722453 -1.469633 -2.2663987 -0.27962306
0.0036839775 -1.1943053 -0.81304896 0.2738223 -1.7421789 0.15668401 1.97444 -1.1476903
-1.0832893 -1.113865 -1.3935441 1.413455 0.15595461 -0.3233708 -0.22625187 -0.46102628
-1.4488554 -1.2932981 -0.89250195 -0.71965635 -1.9988048 -1.3830453 -2.380782 -1.1758077
-1.2160736 0.935993 1.1979609 -0.27197605 -0.87353724 -0.7525327 -1.1689702 -1.8182299
-2.2410302 -2.1299438 -3.2393749 -1.4212081 -0.58038384 -2.232918 -1.3598056 -1.0387845
-1.476306 -1.3119001 -1.2311437 -1.3891411 -0.860124 -0.8879975 -1.4617923 -0.09217182
-1.1524448 -1.8025955 -0.6325503 -0.67977726 0.22208332 -2.7859137 -2.9341948 -1.5530132
0.38351998 0.27659136 -0.8552244 -1.0390414 0.19548628 -0.873398 -0.33336368 0.6583264
-1.3365548 -1.7605532 -1.562258 -2.0127919 -1.2869084 -1.9710462 -1.2661922 -2.2309022
-0.919417 0.61970717 0.09135511 -1.5170398 -0.27287197 -0.38439208 -1.590334 -1.5012422
-1.9815187 -0.85543936 -0.72277236 -1.0705029 0.07013751 0.8361349 -1.4923979 -0.9646472
-0.93917435 -1.0504024 -0.32365727 -1.4040867 0.50420064 -1.8060772 1.095398 -2.074633
-1.7595655 -0.8388006 -0.84492046 0.26884276 -2.1783578 -2.414268 0.42000213 1.6549656
-3.415628 -1.0267767 0.345668 -1.4923133 -1.626297 -1.9690732 -0.8319681 -2.012254
-0.48860043 0.09599711 -1.224403 -2.2481165 0.41635722 -0.81665635 -0.17106992 -1.4990356
-0.9178281 0.03552665 -0.61094767 -1.3501866 -0.4094744 -0.88121057 -0.75472975 -2.6537158
-2.2944088 -0.993034 -2.783065 -1.771823 -1.0565236 -0.73823357 -1.5057176 -2.5603297
-0.8035576 -0.9415186 -2.7665784 -1.9916652 -0.61446697 -2.3300204 0.50206244 -1.1353697
3.1584964 -0.17152558 0.35283267 -0.49869984 -1.9659594 -2.370371 -0.6461851 -1.6438519
-2.024412 -1.0043958 -2.4009368 -1.6955227 -0.56438226 -0.3743086 -2.546783 -0.4211599
-2.214963 -0.59077966 -0.7279078 -0.4321909 -1.2475936 -3.150041 -0.08090634 -2.2993205
-1.1742852 -1.6725851 -1.6024176 -0.7599426 -1.9859133 0.27859914 0.22446334 0.5379713
-0.9569803 0.034623515 1.4289098 -1.3092557 0.18046278 -1.2482358 -1.723954 -1.8835558
-0.8437036 -1.2708019 -0.85573834 -1.437367 0.28738257 0.18872173 -2.8236232 -0.48909885
1.3392546 -1.0830442 -1.8671904 -0.2136601 -1.9798361 0.29592994 1.3096935 1.1990521
00000000: ce7d 1cbf 9dd1 bcbf 3199 513e 5fb7 b4bf
00000010: 21e2 073f 33c9 c6bf d0fc 4fbe 05bb d13e
00000020: 8538 7fbe 8db1 26c0 3e5f 3ac0 adff ddbf
00000030: fd0f 31bf 3c85 8d3e bdfd 31be 9d42 d6bf
00000040: 2281 64bf 115c cabf 6056 2bc0 3ad3 ff3e
00000050: c5e4 cebe 3996 eb3f 2026 0b3d f2cc af3c
00000060: 7a29 d3be 7b3a 053f 552e b0bf 46b2 96bf
00000070: 2a42 f3bf d5ea 05c0 18fd 56c0 95c7 a9bf
00000080: 8659 c2bf 3516 3ebf e599 ab3f e88b 06be
00000090: 916e b5bf aa9c dcbf 2c36 04c0 11d9 bbbf
000000a0: 6cac 0cc0 66d4 1bc0 e148 abbf 2dac f6bc
000000b0: e70e 11c0 9add 1ac0 171c 5d3f d91b b9bf
000000c0: b4d0 e2be fc22 c1bd b8f9 013f 60f0 49c0
000000d0: 220c 96bf ef1c bcbf ad0c 11c0 c12a 8fbe
000000e0: e36e 713b ffde 98bf fa23 50bf 7032 8c3e
000000f0: b8ff debf c671 203e 73ba fc3f 84e7 92bf
00000100: 39a9 8abf 2193 8ebf a75f b2bf 18ec b43f
00000110: 91b2 1f3e dc90 a5be 92ae 67be a30b ecbe
00000120: 1874 b9bf cb8a a5bf 027b 64bf 663b 38bf
00000130: d6d8 ffbf a107 b1bf bb5e 18c0 de80 96bf
00000140: 4da8 9bbf 3d9d 6f3f c856 993f 7240 8bbe
00000150: 23a0 5fbf fca5 40bf d1a0 95bf c2bb e8bf
00000160: 0a6d 0fc0 0051 08c0 eb51 4fc0 26ea b5bf
00000170: 0994 14bf 21e8 0ec0 1c0e aebf e4f6 84bf
00000180: 98f7 bcbf 58ec a7bf 1e96 9dbf 60cf b1bf
00000190: 1631 5cbf ce53 63bf 031c bbbf 94c4 bcbd
000001a0: 5083 93bf 73bb e6bf d1ee 21bf e205 2ebf
000001b0: cf69 633e 694c 32c0 d9c9 3bc0 23c9 c6bf
000001c0: bb5c c43e 629d 8d3e fcef 5abf 4fff 84bf
000001d0: 8e2d 483e 0397 5fbf a5ae aabe 1488 283f
000001e0: 3a14 abbf cf59 e1bf 12f8 c7bf 95d1 00c0
000001f0: 6ab9 a4bf 3e4b fcbf 9612 a2bf 1ac7 0ec0
00000200: ea5e 6bbf 21a5 1e3f 6318 bb3d 5c2e c2bf
00000210: e0b5 8bbe 0acf c4be 1190 cbbf b428 c0bf
00000220: 68a2 fdbf 13fe 5abf 9c07 39bf 3d06 89bf
00000230: 41a4 8f3d f00c 563f e506 bfbf 1ef3 76bf
00000240: bb6d 70bf 9673 86bf 68b6 a5be 1db9 b3bf
00000250: 4b13 013f 8a2d e7bf 0036 8c3f c9c6 04c0
00000260: 7139 e1bf a3bb 56bf b54c 58bf c2a5 893e
00000270: 376a 0bc0 5e83 1ac0 850a d73e ead5 d33f
00000280: a699 5ac0 6b6d 83bf 65fb b03e 1f04 bfbf
00000290: 802a d0bf 970a fcbf ddfb 54bf c5c8 00c0
000002a0: d629 fabe 229a c43d 3db9 9cbf 24e1 0fc0
000002b0: c62c d53e 6410 51bf f42c 2fbe 66e0 bfbf
000002c0: c8f6 6abf 6484 113d 1167 1cbf ead2 acbf
000002d0: a1a6 d1be 0497 61bf f835 41bf 7bd6 29c0
000002e0: 98d7 12c0 7a37 7ebf bd1d 32c0 19cb e2bf
000002f0: 2a3c 87bf e0fc 3cbf 5bbb c0bf 71dc 23c0
00000300: f3b5 4dbf 5d07 71bf 9f0f 31c0 e3ee febf
00000310: b54d 1dbf 0e1f 15c0 2a87 003f cb53 91bf
00000320: ce24 4a40 67a4 2fbe 7ca6 b43e 9655 ffbe
00000330: 8fa4 fbbf 29b4 17c0 636c 25bf bd69 d2bf
00000340: f78f 01c0 0b90 80bf f3a8 19c0 e306 d9bf
00000350: 5b7b 10bf 60a5 bfbe 7efe 22c0 45a2 d7be
00000360: f4c1 0dc0 563d 17bf 2a58 3abf 2048 ddbe
00000370: 26b1 9fbf 469a 49c0 39b2 a5bd 1128 13c0
00000380: fa4e 96bf 4517 d6bf 051c cdbf 998b 42bf
00000390: 6832 febf 8ca4 8e3e b8d9 653e 7db8 093f
000003a0: a9fc 74bf 63d1 0d3d 84e6 b63f b195 a7bf
000003b0: 3ccb 383e 31c6 9fbf 86aa dcbf 5b18 f1bf
000003c0: f6fc 57bf a3a9 a2bf ab11 5bbf a4fb b7bf
000003d0: cf23 933e 4540 413e 3eb6 34c0 2a6b fabe
000003e0: b26c ab3f 31a1 8abf 1800 efbf b7c9 5abe
000003f0: 456b fdbf 2184 973e 09a4 a73f 8a7a 993f

fc2.weight f4 [128, 256]
-2.5737488 0.049369942 -1.367683 0.3886881 -0.6539918 0.21583909 0.9056757 2.1384609
1.1605057 0.43475485 -1.8086103 -0.9128799 0.6379357 0.4739685 -1.3266342 -1.6427643
-1.3657225 0.05309183 -1.1231897 -0.08140185 -0.6794182 -2.5206172 0.94117177 -1.9029058
-0.0990418 -0.5627429 -2.180873 -0.39874634 0.8976286 -0.26450613 0.4056147 1.6929094
0.7244582 -0.8101501 0.63295686 -2.1273923 0.37934434 -2.3408923 1.9272904 -0.48327222
-0.3214651 -0.6991022 -0.95838344 0.84651405 -0.23085739 0.04047753 0.078200616 0.3338696
-1.6863924 1.241825 -0.34673068 -0.40190768 -0.6537372 0.45958924 -0.80511343 -0.8269787
0.117374994 -1.6149592 -0.65548605 -0.77054834 -1.7578728 -0.7436339 -0.46226642 1.1483499
-1.2328707 0.18639593 1.2926928 1.199585 -3.2491648 -1.8275822 -0.42886025 -0.8641633
-0.08877318 -0.9245972 0.5955175 -0.7217687 -0.4117305 -0.4044597 -0.96790594 -0.6636704
-0.36958122 -1.7036024 0.140292 -0.762338 1.1789869 -0.12399415 -1.9200318 -0.11720905
0.30977094 -0.409872 -0.35721365 -1.305965 0.22829972 -2.295471 -1.9216292 -0.62471545
-1.3230567 1.0741023 -0.89557064 -2.1788728 -2.0319648 1.093797 1.9698887 -2.3227901
-0.09347596 -2.2246385 1.0371797 2.0294724 1.3778286 -0.8935905 -0.05528785 -1.1742835
-1.771622 -0.6001599 0.21206664 -0.6391654 -0.22226577 1.2990521 2.6073716 -0.9638711
-0.92734903 0.41482285 -0.079830624 -0.22102366 -1.2861874 1.6974783 0.93812853 0.47544488
1.0495026 -0.47862574 0.5605227 -1.437202 -1.9668862 0.20488034 -0.4553896 -0.31837547
0.20869619 -2.0192876 0.824904 2.5903442 -0.76095754 -1.4293904 -1.9604288 0.5477065
-2.1225817 -1.6887478 1.6927811 -0.16673994 0.7138781 -0.42808205 -2.2193935 -0.72837514
1.79229 -1.6216283 -0.13827494 -0.39319414 -0.65439343 -0.4488022 -2.090784 1.9005084
0.16321486 -0.75296926 0.507703 -0.34884423 0.43494254 -1.841764 -2.6645741 -1.6028118
-1.2585238 -2.433936 -0.5283578 -0.18343535 -1.0444232 0.7555756 -0.57698756 0.82572526
-1.1548643 0.93481636 0.7178535 -0.5674573 -0.81399643 -2.6221015 -0.25294015 0.18384919
-0.4100643 -0.5337259 0.074928805 -0.29046574 -0.4645198 -0.8911103 -1.1700898 1.7531427
-1.1768745 -1.5452265 -0.9111992 0.2048728 2.8589664 -1.2966465 0.30223086 -0.9068738
1.0098729 -0.18191917 1.5620238 1.0413356 -0.77191556 -1.0062549 -0.8999432 -1.1605039
-0.16489075 -0.43545413 -0.9114634 -2.1763723 1.9434115 0.7750207 0.7730303 -0.98648983
-0.7906644 -2.1664517 -1.6404881 -1.2832195 -2.022474 -1.1746043 -0.46412072 -3.4274044
0.2446763 -1.5078223 -0.95101225 -0.010114021 -0.3201676 -0.50116575 -1.2146921 -2.1532815
-1.4631029 1.7135466 0.019745084 0.43866244 0.12953725 -0.35844892 1.688717 -1.3945476
-1.7527521 -0.3086114 -0.44909003 -0.7761734 1.7373035 -1.5336635 0.24867022 0.5545199
-0.70195436 -0.77025306 -2.0995016 -1.3340341 0.5316138 -2.0346746 -1.9455692 -0.60318255
00000000: 4db8 24c0 2338 4a3d 3d10 afbf 2002 c73e
00000010: 026c 27bf ec04 5d3e 5dda 673f 8bdc 0840
00000020: 738b 943f 3098 de3e 8b80 e7bf 7fb2 69bf
00000030: c14f 233f 00ac f23e 26cf a9bf 1a46 d2bf
00000040: ffcf aebf d276 593d aec4 8fbf 03b6 a6bd
00000050: 5aee 2dbf cb51 21c0 a2f0 703f 6b92 f3bf
00000060: 6dd6 cabd eb0f 10bf 6c93 0bc0 7b28 ccbe
00000070: fdca 653f 596d 87be bbac cf3e 41b1 d83f
00000080: 1876 393f ff65 4fbf 7609 223f 3227 08c0
00000090: 6c39 c23e 2ed1 15c0 74b1 f63f 756f f7be
000000a0: 1397 a4be 5df8 32bf 9e58 75bf 25b5 583f
000000b0: e165 6cbe c4cb 253d a527 a03d f5f0 aa3e
000000c0: b5db d7bf 1ff4 9e3f af86 b1be d8c6 cdbe
000000d0: 525b 27bf 484f eb3e ea1b 4ebf e0b4 53bf
000000e0: 4d62 f03d fcb6 cebf efcd 27bf a842 45bf
000000f0: fa01 e1bf cb5e 3ebf 2fae ecbe 21fd 923f
00000100: b5ce 9dbf 93de 3e3e f576 a53f 008c 993f
00000110: 51f2 4fc0 37ee e9bf 9293 dbbe ce39 5dbf
00000120: b7ce b5bd 67b2 6cbf d673 183f d5c5 38bf
00000130: 57ce d2be 5815 cfbe afc8 77bf 4ee6 29bf
00000140: c039 bdbe a50f dabf b5a8 0f3e 9528 43bf
00000150: 0be9 963f a5f0 fdbd 9ac3 f5bf 4c0b f0bd
00000160: 4c9a 9e3e beda d1be b5e4 b6be dc29 a7bf
00000170: 67c7 693e ffe8 12c0 f2f7 f5bf 5aed 1fbf
00000180: ec59 a9bf 2f7c 893f 1e44 65bf a772 0bc0
00000190: b60b 02c0 8a01 8c3f 5025 fc3f 98a8 14c0
000001a0: 5370 bfbd 7a60 0ec0 4ec2 843f e0e2 0140
000001b0: b05c b03f 59c2 64bf 8375 62bd ec4e 96bf
000001c0: 82c4 e2bf 14a4 19bf ff27 593e 58a0 23bf
000001d0: a399 63be 5747 a63f 2ddf 2640 42c0 76bf
000001e0: bf66 6dbf a963 d43e 3d7e a3bd 0754 62be
000001f0: caa1 a4bf f846 d93f 3129 703f 836d f33e
00000200: 1a56 863f 6f0e f5be 6a7e 0f3f 3cf6 b7bf
00000210: edc2 fbbf 27cc 513e d328 e9be 1c02 a3be
00000220: 74b4 553e 023c 01c0 e92c 533f 33c8 2540
00000230: 1dce 42bf 44f6 b6bf 55ef fabf 7e36 0c3f
00000240: 61d8 07c0 e328 d8bf 0dad d83f e0bd 2abe
00000250: b7c0 363f 922d dbbe 8b0a 0ec0 cb76 3abf
00000260: c269 e53f 8491 cfbf f297 0dbe be50 c9be
00000270: 5486 27bf 67c9 e5be 68cf 05c0 dc43 f33f
00000280: cc21 273e 98c2 40bf d3f8 013f b69b b2be
00000290: cab0 de3e ecbe ebbf 6288 2ac0 f028 cdbf
000002a0: 4f17 a1bf 9cc5 1bc0 7542 07bf 7ad6 3bbe
000002b0: a9af 85bf 676d 413f 75b5 13bf bb62 533f
000002c0: 98d2 93bf 2050 6f3f 3fc5 373f e244 11bf
000002d0: 1262 50bf 83d0 27c0 5f81 81be f642 3c3e
000002e0: f3f3 d1be 43a2 08bf 4674 993d edb7 94be
000002f0: 8ad5 edbe ce1f 64bf 81c5 95bf fb66 e03f
00000300: d3a3 96bf fbc9 c5bf 5a44 69bf 2dca 513e
00000310: 4ef9 3640 83f8 a5bf 01be 9a3e e228 68bf
00000320: 8443 813f 0549 3abe 65f0 c73f 7c4a 853f
00000330: 429c 45bf f6cc 80bf ad62 66bf 648b 94bf
00000340: 1fd9 28be d8f3 debe aa55 69bf af49 0bc0
00000350: b5c1 f83f c267 463f 50e5 453f 998a 7cbf
00000360: fb68 4abf 25a7 0ac0 84fb d1bf 8940 a4bf
00000370: 3770 01c0 6f59 96bf 3ba1 edbe 985a 5bc0
00000380: 6d8c 7a3e 5200 c1bf 8a75 73bf 47b5 25bc
00000390: 02ed a3be 664c 00bf 087b 9bbf 5dcf 09c0
000003a0: f546 bbbf 7f55 db3f 71c0 a13c 5d98 e03e
000003b0: 6aa5 043e 9e86 b7be e127 d83f 8980 b2bf
000003c0: 2e5a e0bf 5002 9ebe 21ef e5be 4db3 46bf
000003d0: f65f de3f 164f c4bf 68a3 7e3e 04f5 0d3f
000003e0: 48b3 33bf 4e2f 45bf 3c5e 06c0 a1c1 aabf
000003f0: d817 083f 1c38 02c0 6908 f9bf 2c6a 1abf

fc2.bias f4 [128]
1.1842583 -0.7860692 1.2257324 -0.9150646 -0.07687892 1.3335274 -2.4189672 -1.5708455
-2.209597 1.0250578 -0.010018909 0.34565803 -0.2710798 -0.74268174 -0.08370063 0.49138162
-1.3205669 0.10577104 0.88911694 -1.4892254 -1.7981414 -1.1758565 -0.08815047 0.8220716
-0.3098652 -0.90062976 -0.65333235 -0.62583447 -0.60775775 -0.31846234 -2.5262108 -0.41898388
-0.4070393 -0.15917526 -1.8800111 -0.09232041 1.5546744 1.5566814 -2.715829 -0.0032367026
-1.0108806 -2.3567336 2.1316311 -0.19730288 -1.8960891 -1.1905681 -0.26261058 -1.4957454
-0.8771112 -1.6067284 1.3069903 -1.7300338 2.196108 -2.3355925 -1.5268887 -0.32517362
-0.94409573 -0.41912177 -0.10541714 -0.23511583 -1.8319784 -1.2017004 0.08076564 -0.29432395
0.045239523 -0.69361067 0.4266127 -0.5408062 -1.7106586 -0.53327113 -0.30431256 0.0427698
-2.110312 0.06516574 -0.33408666 -1.0705783 -0.69663095 0.6674013 -0.8970111 -0.18636139
0.6023389 1.713461 -0.9324421 -1.472072 -0.4518571 -0.92260176 -0.100546464 -1.0196873
-0.70870435 -0.14343424 -2.5951269 -0.5373909 -0.3595627 1.0138861 1.1892387 -0.2799151
0.24659662 -1.1281339 1.150016 -1.2419863 -2.776227 0.43787774 -2.7372396 0.17173499
0.7827634 -2.3267841 0.46604314 -0.13877411 0.18490025 -0.69526625 -0.12482424 0.49671584
-1.3750433 -0.84296155 -1.9543616 -0.39350224 -1.6807926 1.0643079 0.90715903 -1.6884333
-0.5301723 -0.46191764 -0.046676654 -0.20120333 -1.1364114 0.1481913 -0.908646 1.1798191
00000000: c795 973f d53b 49bf cde4 9c3f ac41 6abf
00000010: b272 9dbd 07b1 aa3f 5cd0 1ac0 7711 c9bf
00000020: 0a6a 0dc0 1835 833f 5a26 24bc 17fa b03e
00000030: f9ca 8abe 6420 3ebf 3c6b abbd 5f96 fb3e
00000040: 5608 a9bf 7d9e d83d 2b9d 633f f09e bebf
00000050: 7f29 e6bf 7782 96bf 3c88 b4bd 4973 523f
00000060: a7a6 9ebe ac8f 66bf ca40 27bf b036 20bf
00000070: 0396 1bbf 7f0d a3be 70ad 21c0 0e85 d6be
00000080: 7567 d0be d7fe 22be 34a4 f0bf 7c12 bdbd
00000090: 92ff c63f 5641 c73f 24d0 2dc0 dc1e 54bb
000000a0: 8964 81bf b9d4 16c0 a56c 0840 c409 4abe
000000b0: 0cb3 f2bf 8964 98bf e574 86be 9674 bfbf
000000c0: 5c8a 60bf 47a9 cdbf 754b a73f bf71 ddbf
000000d0: 098d 0c40 597a 15c0 1771 c3bf 287d a6be
000000e0: 42b0 71bf 2197 d6be f1e4 d7bd 34c2 70be
000000f0: 457e eabf 52d1 99bf 7568 a53d a1b1 96be
00000100: 144d 393d 7890 31bf fb6c da3e 4672 0abf
00000110: dcf6 dabf 7584 08bf dbce 9bbe 632f 2f3d
00000120: 5a0f 07c0 9e75 853d 680d abbe b608 89bf
00000130: 6856 32bf d0da 2a3f 85a2 65bf 85d5 3ebe
00000140: e232 1a3f b152 db3f 87b4 6ebf db6c bcbf
00000150: d059 e7be a12f 6cbf 4eeb cdbd 1d85 82bf
00000160: a66d 35bf 6de0 12be 8f16 26c0 7392 09bf
00000170: 9a18 b8be 05c7 813f f938 983f 0851 8fbe
00000180: d383 7c3e b166 90bf b933 933f 68f9 9ebf
00000190: b4ad 31c0 8331 e03e ef2e 2fc0 4cdb 2f3e
000001a0: 2f63 483f 08ea 14c0 359d ee3e cd1a 0ebe
000001b0: 7e56 3d3e f8fc 31bf daa3 ffbd 8a51 fe3e
000001c0: 6b01 b0bf 54cc 57bf 8528 fabf 2079 c9be
000001d0: 3624 d7bf 3e3b 883f 933b 683f 951e d8bf
000001e0: 5fb9 07bf 7880 ecbe 0530 3fbd 3f08 4ebe
000001f0: ee75 91bf 76bf 173e 069d 68bf 5004 973f

fc3.weight f4 [4, 128]
0.32119074 0.78088635 0.6252213 1.0707217 -0.34180447 0.706784 1.9553086 -2.3010678
0.9472911 1.5845563 -0.044322513 0.34160405 0.5844123 1.9755558 1.0578922 1.7312361
3.7718377 -1.3546218 1.1625302 -0.12775494 -2.9813416 0.16547573 0.049221627 2.212337
-1.1675447 0.6065564 1.0956876 -0.541994 1.6752673 1.2860873 1.0819784 -0.68932027
0.8764318 -1.5939991 1.8322965 0.055652905 0.5943313 1.0585616 -1.6558284 0.5319144
0.014985641 0.737187 2.150227 0.30650902 1.5370936 1.025345 1.0727624 -1.1998965
-0.38622013 -0.016011242 1.1195984 0.21881145 2.4441166 0.8599157 -1.0474846 0.6666804
0.0048830737 1.0661172 0.01595137 0.332868 0.4665388 0.7038818 2.4414585 -0.08088803
1.4070483 -0.8340489 -0.06385996 0.5800904 1.8895143 1.9883506 -0.12933862 0.5694399
-0.028453084 -0.28426304 -2.2963424 -2.819847 -0.32833117 0.8896585 1.6837765 0.4974233
0.82839686 -0.17923197 0.1921931 -0.0100985635 0.15070274 -0.96963334 1.1961563 0.94713485
-1.1266233 0.35767746 -0.185726 0.28751406 0.36330616 -0.8526861 1.3415769 0.2782052
-0.17812043 2.0498843 1.0148722 -1.6526809 -0.29817185 -0.67175126 0.6335257 1.0728991
-0.22165175 -0.012925294 1.609185 2.0761695 -0.16628887 -0.5051541 -0.21960387 -0.80507493
-0.64310193 -0.7842524 -0.004433963 -1.8836832 0.055715177 -2.2598805 1.2271035 -1.674441
0.6669985 -0.96848214 -2.0118275 0.32788858 -1.0196463 -2.3964033 -1.1782693 0.25018233
-1.2744108 0.9563977 -1.3210094 -0.8177921 0.42847538 -0.33221674 -2.600186 2.627878
-3.2719347 1.0037909 0.48710248 -2.1629207 -2.4687324 -0.3357565 0.055041805 0.88353574
-0.18922976 -1.9740597 0.8550951 -1.6630644 -2.9053626 -0.06619082 -0.045073096 -0.42532644
0.37085745 -0.7632823 0.22584102 -2.56088 -2.4612355 -0.47627792 -0.4592575 2.0180693
0.35853627 1.5438259 -0.3534752 0.18807302 2.0319824 1.2536052 2.0107472 -0.51707596
2.2998035 -3.4103353 -0.8481905 0.03484287 0.674173 0.80837476 -1.2101773 -0.2461051
1.7703531 0.688378 0.9205183 0.8028749 -0.050243482 -1.6501471 -0.087270856 0.4012805
2.2958477 0.84356785 0.015549461 1.0736483 0.7087214 -3.237273 -1.6157783 -0.0052399216
-1.3138856 0.96623445 0.36173713 -1.0700758 1.6442058 0.9011589 -0.38697118 -0.25696772
-1.3610258 -0.50349253 -0.6702251 0.9627614 1.455925 -2.301011 -0.73942345 -0.057004016
1.0046363 1.3993784 -1.22146 0.27135375 -0.89011914 -1.537605 -0.42240515 -1.3081064
-0.63739145 0.6887532 -2.777861 -0.23780105 0.1478323 -0.55744463 1.9015081 0.12149464
-0.66730726 -0.8261545 -1.1806334 0.63811725 -0.3332888 -0.12916628 -0.04462009 1.3201342
-0.22858441 -0.51597977 0.68493706 -2.382194 0.18896003 1.3158079 -0.499878 0.74768704
-2.3211756 2.3498027 1.7705 -0.09754236 -2.5619788 -1.489707 1.0300376 1.8030006
-0.34093118 1.5964456 -1.0067614 0.5121221 1.0245948 0.6186388 1.4305558 -0.21185844
00000000: 1d73 a43e 2be8 473f 810e 203f 690d 893f
00000010: ff00 afbe ccef 343f 8d47 fa3f b244 13c0
00000020: ab81 723f bed2 ca3f 868b 35bd bae6 ae3e
00000030: 0b9c 153f 03df fc3f 0369 873f 2599 dd3f
00000040: ca65 7140 3f64 adbf cacd 943f 31d2 02be
00000050: 4dce 3ec0 7872 293e 9e9c 493d ee96 0d40
00000060: 1b72 95bf 4847 1b3f 7e3f 8c3f 1ec0 0abf
00000070: 296f d63f 829e a43f 457e 8a3f 4b77 30bf
00000080: d65d 603f 2a08 ccbf b188 ea3f 4df4 633d
00000090: 1926 183f f27e 873f 2ff2 d3bf 8b2b 083f
000000a0: 5686 753c 4ab8 3c3f 529d 0940 c0ee 9c3e
000000b0: 7cbf c43f 813e 833f 4750 893f 3596 99bf
000000c0: a5be c5be 022a 83bc 004f 8f3f 1c10 603e
000000d0: 686c 1c40 6f23 5c3f fa13 86bf 91ab 2a3f
000000e0: 3102 a03b 8776 883f 73ac 823c ad6d aa3e
000000f0: 2cde ee3e 9931 343f db40 1c40 a0a8 a5bd
00000100: 291a b43f 3b84 55bf 03c9 82bd ce80 143f
00000110: 9bdb f13f 4682 fe3f 5871 04be d0c6 113f
00000120: 7116 e9bc ed8a 91be 46f7 12c0 6078 34c0
00000130: 061b a8be a9c0 633f fd85 d73f 44ae fe3e
00000140: d111 543f 9688 37be 45ce 443e 7274 25bc
00000150: d251 1a3e e439 78bf a61b 993f 6e77 723f
00000160: 3135 90bf 8021 b73e f52e 3ebe 0b35 933e
00000170: 4403 ba3e a349 5abf cbb8 ab3f e970 8e3e
00000180: 3465 36be 4e31 0340 55e7 813f 0c8b d3bf
00000190: fba9 98be e4f7 2bbf be2e 223f c254 893f
000001a0: adf8 62be 9dc4 53bc c6f9 cd3f f6df 0440
000001b0: a147 2abe c751 01bf d6df 60be 6419 4ebf
000001c0: 54a2 24bf c4c4 48bf c74a 91bb 881c f1bf
000001d0: 9935 643d e2a1 10c0 ba11 9d3f 1554 d6bf
000001e0: 6ac0 2a3f 72ee 77bf c8c1 00c0 03e1 a73e
000001f0: c583 82bf ac5e 19c0 87d1 96bf e617 803e
00000200: e51f a3bf 7bd6 743f d616 a9bf d35a 51bf
00000210: 2061 db3e 5018 aabe 7369 26c0 272f 2840
00000220: 6167 51c0 387c 803f 7f65 f93e 4b6d 0ac0
00000230: b6ff 1dc0 47e8 abbe 8473 613d 662f 623f
00000240: 72c5 41be fdad fcbf 83e7 5a3f 4bdf d4bf
00000250: 76f1 39c0 0d8f 87bd 919e 38bd 63c4 d9be
00000260: 07e1 bd3e 7866 43bf de42 673e 75e5 23c0
00000270: e284 1dc0 b3da f3be cd23 ebbe 0c28 0140
00000280: 1192 b73e 169c c53f b4fa b4be 3796 403e
00000290: 000c 0240 2376 a03f 15b0 0040 175f 04bf
000002a0: fb2f 1340 ef42 5ac0 0323 59bf 66b7 0e3d
000002b0: 9a96 2c3f a6f1 4e3f 17e7 9abf fa02 7cbe
000002c0: ee9a e23f 8a39 303f 16a7 6b3f 3689 4d3f
000002d0: 1ccc 4dbd 0538 d3bf 10bb b2bd a374 cd3e
000002e0: 2bef 1240 10f4 573f 2bc3 7e3c 4f6d 893f
000002f0: c46e 353f 7b2f 4fc0 d3d1 cebf a6b3 abbb
00000300: 672d a8bf 245b 773f 9c35 b93e 3ef8 88bf
00000310: 5675 d23f 5ab2 663f 1621 c6be 4691 83be
00000320: 1836 aebf e3e4 00bf df93 2bbf 8877 763f
00000330: c05b ba3f c443 13c0 db4a 3dbf 0b7d 69bd
00000340: ec97 803f d51e b33f cd58 9cbf e1ee 8a3e
00000350: d9de 63bf 3ed0 c4bf 7d45 d8be 0870 a7bf
00000360: 162c 23bf 2152 303f 7ac8 31c0 1e82 73be
00000370: 5a61 173e b1b4 0ebf 9e64 f33f 2fd2 f83d
00000380: a6d4 2abf dc7e 53bf ff1e 97bf a75b 233f
00000390: d4a4 aabe 2a44 04be 8ec3 36bd 28fa a83f
000003a0: 0812 6abe 4017 04bf 0958 2f3f de75 18c0
000003b0: bd7e 413e 656c a83f 02f0 ffbe 6b68 3f3f
000003c0: 248e 14c0 2b63 1640 be9f e23f 4ac4 c7bd
000003d0: 76f7 23c0 b8ae bebf 46d8 833f b9c8 e63f
000003e0: 888e aebe 5458 cc3f 8fdd 80bf 6f1a 033f
000003f0: ec25 833f 1d5f 1e3f 741c b73f 6bf1 58be

fc3.bias f4 [4]
-0.06715601 2.293133 1.0822607 2.354588
00000000: 1789 89bd b1c2 1240 8587 8a3f 92b1 1640
