p2_continuous-control/critic.pth (torch_old, 169980 bytes, 5 tensors)

fcs1.weight f4 [256, 33]
000000 1e 68 85 be a2 0d a9 3d dc 54 10 bc 9e d9 f9 3b
       -0.26055998 0.082545534 -0.008809295 0.007624819
000010 4c 82 1f bf 3f ae 5a bf da 71 18 3f 1e 34 27 3e
       -0.6230819 -0.8542213 0.59548724 0.16328475
000020 6c 1a 83 3f fa 59 d5 3e eb 79 8c be a8 05 d6 3c
       1.0242438 0.4167021 -0.27436766 0.026125744
000030 d6 7f b6 3e 65 06 bb be 14 e7 a6 b9 52 4d 81 3f
       0.35644406 -0.36528316 -0.00031834154 1.0101721
000040 f8 72 27 3f bc 6f 6c bf e3 72 69 3e d4 d8 63 be
       0.65409803 -0.92357993 0.22797732 -0.22250682
000050 41 f2 c3 bd f5 18 41 3e 53 74 e5 3d 0e 3a 73 bd
       -0.09567691 0.18857177 0.11203828 -0.059381537
000060 c0 02 07 3e 6a 94 3d 3f 71 19 0c 3e 39 76 3c 40
       0.13184643 0.74054587 0.1368158 2.9447157
000070 76 ae 97 bf 5c bf 33 bd bb f5 3a c0 20 3a cf 3c
       -1.1850116 -0.043883666 -2.9212482 0.02529627
000080 6c a0 dd 3f f5 a0 1d 3e 13 6f bd be bf 56 9f 3e
       1.7314582 0.15393431 -0.36998805 0.3112087
000090 53 40 e9 be e7 30 95 bf 2b 68 c0 bd 56 6e d3 3e
       -0.45556888 -1.1655549 -0.093948685 0.41295117
0000a0 79 b3 df bd 3b b4 af 3d 68 2c 4b be 9f 14 8e bc
       -0.109229036 0.08579298 -0.19841158 -0.017343817
0000b0 74 1c 71 bc 19 d9 75 3c 8e 70 aa 3d d9 5a c3 3d
       -0.014716256 0.015005373 0.08322249 0.09538812
0000c0 23 44 1e bf 0c b1 96 3e 8d 00 db 3e 6b df 05 3e
       -0.6182272 0.2943195 0.42773858 0.13073508
0000d0 95 9a 72 be 48 b6 55 3c 6d e7 a0 bd e2 22 99 3c
       -0.23691781 0.0130439475 -0.07856641 0.018693391
0000e0 69 65 fe bd cf 27 ae bd a9 99 9d be 35 d5 ae bf
       -0.12421686 -0.08503687 -0.30781296 -1.3658816
0000f0 6e 01 33 40 f9 15 46 3f 28 98 bb 3c be 1c 35 c0
       2.7969623 0.7737728 0.022899702 -2.8298793
000100 f2 2e 3c bd 21 a0 2c 40 1b 89 62 3d a5 23 84 be
       -0.045943208 2.6972735 0.055306535 -0.25808445
000110 86 51 15 3f f0 61 95 bf b2 e2 9f bf f5 c9 f1 3e
       0.5832752 -1.1670513 -1.2491057 0.47224393
000120 2f a4 3a 3f 7c 96 db be b0 0f 01 bf 25 51 63 3e
       0.72906774 -0.42888248 -0.5041456 0.22198923
000130 5c 95 92 3e 56 4d 2e 3e a9 b7 c2 3c d1 93 65 3f
       0.28629577 0.17021689 0.023769217 0.89678675
000140 2c b3 8b be 01 a4 cf 3e 08 fc 0e 3e 29 e6 ee 3d
       -0.27285135 0.40554813 0.1396333 0.11664993
000150 5d 8f 84 3f b9 39 9d bc a7 8e ce bd 4d fd e5 3d
       1.0356251 -0.019192563 -0.100858025 0.11229954
000160 7d 77 ca 3b 6e e0 4f 3c ba d4 ea 3e 98 b3 9d 3d
       0.006178795 0.012687786 0.45865422 0.077002704
000170 09 0a b2 be 83 db a0 40 02 43 9e 3e a0 1c 31 3c
       -0.3477328 5.026796 0.30910498 0.010810047
000180 19 52 9f c0 00 93 fb 3b d2 da 19 c0 c9 3d d2 be
       -4.9787717 0.007677436 -2.4039807 -0.41062763
000190 d5 48 ad 3e 70 d6 fe be ea 8c 1d bf 3e 37 b7 be
       0.3384463 -0.49772978 -0.6154314 -0.35784334
0001a0 fc 85 cb 3e 86 7c c6 be 4a 40 98 3d e9 41 0a 3f
       0.3975066 -0.3876688 0.07434137 0.5400682
0001b0 90 8f b8 3e 6c 17 31 bd b2 8e a8 3d 24 a3 fb 3d
       0.3604703 -0.043235227 0.08230342 0.12286976
0001c0 10 5d 36 3e ba 03 99 be 69 f8 f0 be 42 1c 17 3f
       0.17808938 -0.29885656 -0.47064522 0.59027493
0001d0 ba e8 f9 3e db 59 be bf 43 d2 aa be 78 a4 26 be
       0.4881037 -1.4871172 -0.33363542 -0.16273677
0001e0 83 58 b6 3d 12 fc 19 3e fb 28 6b 3e 40 57 aa bd
       0.08903601 0.15037563 0.22964852 -0.08317423
0001f0 ec ac 13 3e 71 d8 c1 3e 4c 9e 5e 40 c1 14 7b 3f
       0.14421433 0.37860444 3.4784117 0.9807854
000200 ac be c7 3c 44 fd 5b c0 38 92 17 bd 62 59 81 c0
       0.024382912 -3.437333 -0.03700468 -4.042161
000210 85 8a 67 3e 57 d1 ce bd 5b 4f 90 bf 26 d0 42 bf
       0.22611435 -0.10098522 -1.1274217 -0.7609886
000220 ac d0 b8 bd 61 0d aa bd 89 45 6c bf be 91 0d bd
       -0.09024176 -0.08303333 -0.922936 -0.03456282
000230 2e da 09 bf 0d 18 78 bd 3a a5 a8 3e 07 f0 89 3e
       -0.5384854 -0.06056981 0.32938558 0.2694094
000240 da 7b 5a be b1 25 2f 3e ff 03 32 3f 8a d9 81 3f
       -0.21336308 0.17104222 0.6953735 1.0144513
000250 7c 75 1b bf 79 50 ab be 1c 62 5e 3d b0 54 a5 3f
       -0.6072614 -0.33459833 0.054292783 1.291647
000260 f2 19 48 3c df af 32 3e 76 11 37 be 41 19 bc 3d
       0.012213217 0.17449902 -0.17877755 0.09184504
000270 be fb cb 3e 35 6f 27 be 58 bb 5c 3f 83 3a 66 40
       0.39840502 -0.16351016 0.86223364 3.5973213
000280 f3 ec 85 be 8c b7 ed 3c b9 de 67 c0 08 1b 38 bc
       -0.2615734 0.029018186 -3.622969 -0.0112369135
000290 2d c2 84 40 50 0b 4d 3e a8 e7 93 3e 2f 85 a6 bd
       4.148703 0.20023847 0.28887677 -0.081308715
0002a0 a8 9a 70 3f 2c c9 5d 3f 0a 7b d2 c0 e2 f3 0e 3f
       0.93985987 0.8663509 -6.5775194 0.55840886
0002b0 8c c3 d8 3c 2f 33 00 3f b5 be 20 3f c5 95 07 be
       0.026460432 0.500781 0.62790996 -0.13240726
0002c0 19 d7 5d bd 4b c7 f3 bc 50 20 40 3d be ef 9f 3d
       -0.05416021 -0.029758116 0.046905816 0.07809399
0002d0 5e 59 32 3e 3d f7 52 3f 7a 97 6c bf 26 f6 3f be
       0.17416903 0.82408506 -0.92418635 -0.18746242
0002e0 03 a0 89 3f c9 f8 20 bd 64 1a 34 bd ba 5b 71 3c
       1.0751957 -0.03929976 -0.04397048 0.014731342
0002f0 5b 30 d5 bd c9 a7 bf bd c0 ae bc bd 02 a8 69 be
       -0.10409614 -0.09358174 -0.092130184 -0.22817996
000300 8b 39 d0 3f d7 6c 92 be 02 9b 30 3d 0d cc c9 bf
       1.6267561 -0.28598663 0.043116577 -1.5765396
000310 d0 f5 0e bd db d4 1e c0 14 7d 69 bf 9d cd 02 bf
       -0.034902394 -2.4817417 -0.9120648 -0.5109499
000320 b8 d4 8a 3e 78 7c 07 3f 7d 38 17 be ef ab 8a be
       0.27115417 0.529243 -0.14767642 -0.270843
000330 5b 12 af bd 7e 50 a7 be b9 63 9a 3e c1 65 ae 3e
       -0.08548423 -0.32678598 0.30154207 0.34062007
000340 d8 82 1e bd c9 31 f0 bc 72 09 5b be e2 ab a6 3f
       -0.038699 -0.029320614 -0.21390322 1.3021204
000350 b5 8f 2d 3f 53 b7 08 bf 4e d4 28 be 56 9c f4 3d
       0.67797405 -0.5340473 -0.16487238 0.11943881
000360 3a 94 69 be c3 77 2b 3b 0a bc 66 bd 1c 40 ad 3d
       -0.2281045 0.0026163913 -0.05633167 0.084594935
000370 7b f9 9b bd 71 70 2d 3e 79 fa 7d 3e f2 cf 75 3d
       -0.07615944 0.16937424 0.24802579 0.060012765
000380 9f 13 aa be c1 52 ba 3f d7 08 41 3f bc 5a fd bc
       -0.33218095 1.4556504 0.75404114 -0.030927055
000390 65 f9 bb bf 5e 10 12 3d c9 37 05 c0 d2 ff 77 bf
       -1.4685484 0.03566014 -2.0815299 -0.96874726
0003a0 6a fc 04 bf be 57 50 be 56 f9 96 bd eb 20 37 be
       -0.51947653 -0.20345971 -0.07371776 -0.17883651
0003b0 cf 4c 04 be a8 60 a2 3e 17 2c 24 be 25 40 3c bf
       -0.12919925 0.31714368 -0.16032444 -0.73535377
0003c0 cf 74 32 bf dc f9 f8 3d bb 65 0b be 1f 69 fa 3d
       -0.69709486 0.12157032 -0.13613026 0.122270815
0003d0 8e bd a5 3f 55 be 59 3c 2a bd 4f 3f 98 d5 30 be
       1.2948472 0.013290008 0.81148016 -0.1726898
0003e0 db d4 f7 3d be 15 41 be b9 06 1b 3f 8d ec 6d 3c
       0.12101146 -0.1885595 0.6055713 0.01452173
0003f0 d4 ab a7 bd c4 65 38 bd cd a0 03 3f 91 cf 92 3d
       -0.081870705 -0.045018926 0.5141724 0.071684964

fcs1.bias f4 [256]
000000 07 93 49 c0 30 65 3c c0 e7 52 9a c0 57 21 5d c0
       -3.1495988 -2.943676 -4.82262 -3.45516
000010 db 5e 6b c0 a1 a9 b7 bf 7d 53 bc bf 78 fe 0e c0
       -3.6776645 -1.4348642 -1.4712979 -2.2342815
000020 10 16 17 c0 5d 75 1f c0 e5 bd 58 c0 50 36 35 c0
       -2.3607216 -2.4915383 -3.3865902 -2.83144
000030 82 f8 19 c0 c6 e6 2e c0 57 0f 4c c0 6a c5 1e c0
       -2.4057927 -2.7328353 -3.1884363 -2.4807992
000040 54 06 34 c0 31 06 4d c0 32 f1 49 c0 d3 23 3f c0
       -2.8128862 -3.203503 -3.1553464 -2.9865615
000050 ef 2e 0c c0 24 a7 de bf b4 7c 2c c0 29 66 36 c0
       -2.1903646 -1.7394757 -2.6951113 -2.8499854
000060 f2 34 55 c0 a9 a9 0e c0 a0 8d 49 c0 6a 13 3e c0
       -3.3313565 -2.2291052 -3.149269 -2.969935
000070 6c f1 39 c0 33 08 1f c0 5a ac e8 bf 6e 66 2e c0
       -2.9053602 -2.4848754 -1.8177598 -2.7250018
000080 64 f2 1b c0 ff 30 5b c0 86 ff 20 c0 b4 75 af bf
       -2.4366693 -3.4248655 -2.515596 -1.3707795
000090 1b 82 70 c0 c2 a7 4d bf 6b 77 2d c0 50 80 1e c0
       -3.757941 -0.80334103 -2.7104137 -2.4765816
0000a0 7f f5 31 c0 7c 93 58 c0 45 d5 3a c0 f9 a2 4a c0
       -2.780609 -3.3840017 -2.919267 -3.166197
0000b0 da 0b 00 c0 fc 2b 77 c0 c8 63 12 c0 fa 09 ff bf
       -2.0007234 -3.8620596 -2.2873402 -1.992492
0000c0 c0 cc 50 c0 ab 8b 81 c0 de 6d c3 bf 62 53 62 c0
       -3.262497 -4.0482993 -1.5267904 -3.5363393
0000d0 79 c3 3d c0 14 d4 32 40 47 de 2c bf 60 d6 1d c0
       -2.9650557 2.7941942 -0.6752667 -2.4662094
0000e0 f8 13 17 c0 bc 31 b1 bf 09 69 1e c0 87 48 2c c0
       -2.3605938 -1.3843303 -2.4751608 -2.6919267
0000f0 87 19 34 c0 cb 19 3b c0 9d 85 ca bf 17 de ec bf
       -2.814058 -2.9234493 -1.5822026 -1.8505276
000100 62 3d 03 c0 48 1c 55 c0 56 78 54 c0 27 2d 3e c0
       -2.0506215 -3.3298512 -3.3198447 -2.9715059
000110 67 72 2c c0 83 1f 96 c0 2b 9a d8 bf f7 20 38 c0
       -2.6944826 -4.6913466 -1.6922048 -2.877012
000120 4b 1c 6d c0 fb 7b 24 c0 bf f6 34 c0 e6 26 1d c0
       -3.7048519 -2.5700672 -2.8275602 -2.4554992
000130 ac 18 98 bf ff 4d 4c c0 47 b8 30 c0 1b de 25 c0
       -1.1882529 -3.1922605 -2.7612474 -2.5916812
000140 ed fd 4f c0 a1 58 50 c0 67 52 49 c0 d7 1d 03 c0
       -3.2498734 -3.2554095 -3.1456544 -2.0486963
000150 d4 09 c9 3f 72 2b 3b c0 45 66 23 c0 10 04 1f c0
       1.5706124 -2.9245267 -2.553117 -2.484623
000160 69 76 67 c0 bd d2 37 c0 38 28 de bf 00 e6 ee bf
       -3.6166022 -2.8722374 -1.7356024 -1.866394
000170 32 ef 66 c0 9a fd 0f c0 85 b0 37 c0 7f 65 4f c0
       -3.6083493 -2.2498536 -2.870149 -3.2405698
000180 a7 6e f8 bf 59 8a 10 c0 2a e0 26 c0 20 28 2f c0
       -1.9408768 -2.258444 -2.607432 -2.736824
000190 9c 1d 6b c0 e2 45 24 c0 89 f3 2a c0 8b f5 f3 bf
       -3.6736822 -2.5667653 -2.6711142 -1.9059309
0001a0 37 13 cf bf 85 ac 3b c0 e7 4d 33 c0 f3 1e 21 c0
       -1.6177739 -2.9324048 -2.8016298 -2.517514
0001b0 5d 5e dd bf 41 82 18 be db 71 a1 bf c4 75 2a c0
       -1.7294422 -0.14893438 -1.2612871 -2.6634378
0001c0 a0 2a 42 c0 8f b6 08 c0 0d 87 7b c0 ce bf 41 c0
       -3.0338516 -2.1361425 -3.9301178 -3.0273318
0001d0 c8 f2 f1 bf 05 d9 6b c0 3e 53 4f c0 30 09 fc bf
       -1.8902216 -3.6851208 -3.2394557 -1.9690304
0001e0 8d c9 47 c0 d7 96 3b c0 e3 d1 68 c0 54 38 5f c0
       -3.1216767 -2.9310815 -3.6378105 -3.487813
0001f0 5d 94 42 bf bb 3e 34 c0 1a 4b 6c c0 fe de 03 c0
       -0.76007634 -2.8163288 -3.6920838 -2.0604854
000200 ce 4a 8b 3d e9 21 3f c0 e5 c2 36 bf 57 d8 e2 bf
       0.06801377 -2.9864447 -0.71391135 -1.7722272
000210 f8 d0 d5 bf 7f 13 21 c0 50 85 43 c0 0b 20 fb bf
       -1.6704397 -2.516815 -3.0550117 -1.9619154
000220 82 e2 4a c0 f1 d3 05 c0 36 26 56 c0 ee c9 82 c0
       -3.170075 -2.0910609 -3.3460822 -4.0871496
000230 dd 13 d5 bf fc 86 26 c0 f8 ae 04 c0 67 ba f1 bf
       -1.6646687 -2.6019888 -2.0731792 -1.888501
000240 01 e3 1f c0 bf 82 4a c0 00 04 2f c0 e2 fe 63 c0
       -2.4982302 -3.16423 -2.7346191 -3.5624318
000250 17 6a 14 c0 7c 0b 57 c0 15 71 32 c0 7b de 77 c0
       -2.3189752 -3.360076 -2.788152 -3.8729541
000260 56 f0 43 c0 c9 3c 67 c0 f5 2e 6b c0 f0 84 42 c0
       -3.061544 -3.613085 -3.674741 -3.0393639
000270 0c 16 53 c0 01 3b 73 c0 4d 0c ef bf e6 08 42 bf
       -3.2982206 -3.8004763 -1.8675629 -0.7579483
000280 33 ce 77 c0 b5 cd 1d c0 d2 84 2c c0 4b 65 33 c0
       -3.8719604 -2.4656804 -2.6956067 -2.8030574
000290 c4 99 54 c0 e0 45 e5 bf 61 f1 1b c0 92 54 4d c0
       -3.321885 -1.7911949 -2.4366076 -3.2082868
0002a0 7b e3 96 bf 30 4c 89 bf e3 79 ed be c0 54 0f c0
       -1.1788172 -1.0726376 -0.46382055 -2.2395477
0002b0 cf c0 3a c0 3e 6e 18 c0 64 06 30 c0 64 36 ff bf
       -2.918018 -2.3817286 -2.75039 -1.9938474
0002c0 68 22 3e c0 4e ba 46 c0 81 f0 2b bf 2b 26 57 c0
       -2.97085 -3.1051211 -0.67163855 -3.3617046
0002d0 53 5f 15 c0 14 3b 29 c0 f7 6a 30 c0 a4 17 4f c0
       -2.3339431 -2.6442308 -2.7565286 -3.235818
0002e0 5a 2a 0d c0 1a 64 16 c0 25 eb 19 c0 28 b3 70 bf
       -2.20571 -2.3498597 -2.404977 -0.9402337
0002f0 01 3f 00 c0 5e 32 81 c0 d5 57 56 c0 31 61 ef bf
       -2.0038455 -4.0373983 -3.3491108 -1.8701535
000300 e2 a2 ea bf 2a 89 6d c0 c3 5f 8f c0 ed 68 45 c0
       -1.8330958 -3.7114968 -4.4804397 -3.0845292
000310 7b 25 73 c0 a8 f3 e6 bf 5a 4a 15 c0 28 ca 27 c0
       -3.7991626 -1.8043108 -2.332663 -2.6217136
000320 25 8d 15 c0 d9 f6 41 c0 6c aa 5c c0 b3 fa 58 c0
       -2.3367398 -3.0306914 -3.4479017 -3.3903015
000330 33 66 d8 bf 2e 20 44 c0 91 7f 3d c0 26 59 52 c0
       -1.6906189 -3.064464 -2.960911 -3.2866912
000340 9b 54 00 c0 a3 21 16 bf c2 58 dd bf d5 d3 b6 bf
       -2.005164 -0.58645076 -1.7292712 -1.4283396
000350 e9 fa 79 c0 14 8f 31 c0 72 f0 4a bf ea 45 1c c0
       -3.9059393 -2.7743578 -0.7927314 -2.4417672
000360 4c 9b 12 c0 05 4a 4e c0 d4 8d 8c bf df 5c 4b c0
       -2.2907286 -3.2232678 -1.0980783 -3.1775434
000370 5a ff 4a c0 be 20 66 c0 59 34 cd bf 22 9e 36 c0
       -3.1718354 -3.5957484 -1.60316 -2.8534017
000380 b8 e3 74 c0 a5 65 31 c0 15 2d 53 bf b2 c4 10 c0
       -3.8263988 -2.771829 -0.82490665 -2.2620053
000390 aa 15 06 c0 79 ec 21 c0 a2 69 19 c0 47 9d 75 c0
       -2.0950723 -2.5300581 -2.3970723 -3.8377244
0003a0 3e bc 4c bf dd e1 95 bf f5 5c 33 c0 10 57 50 c0
       -0.79974735 -1.1709553 -2.8025486 -3.2553139
0003b0 05 f6 5c c0 f0 6d 17 bf 37 10 42 c0 7e 1d c7 bf
       -3.4525158 -0.59152126 -3.0322397 -1.5555875
0003c0 d8 d7 2c c0 fa cc ef bf db 1d 1c c0 2b 6c 53 c0
       -2.700674 -1.8734429 -2.4393222 -3.303477
0003d0 e1 bb 24 c0 7c f5 ca bf 9f 7f 21 c0 b2 2b f0 bf
       -2.5739672 -1.5856166 -2.5234144 -1.8763335
0003e0 ab 2e 54 c0 41 e2 0e c0 36 d0 7b c0 a8 c4 98 bf
       -3.3153484 -2.2325594 -3.9345832 -1.1935015
0003f0 31 e2 0f c0 0d 3e 45 c0 8c 44 2f be c8 4b 2d 3e
       -2.2481806 -3.0819123 -0.17115992 0.1692344

fc2.weight f4 [128, 260]
000000 31 28 b7 be 98 62 25 bf 77 77 86 3a 35 7d 6a 3d
       -0.3577285 -0.6460357 0.0010258992 0.057248313
000010 fe 05 44 bf 23 5b 81 bf 38 8f 76 bf 3b dd f1 bd
       -0.76571643 -1.0105938 -0.96312284 -0.118097745
000020 34 bc f5 bd 7c 21 e8 be ba 4c 01 be 71 8b 9d be
       -0.119987875 -0.45338047 -0.12626925 -0.30770448
000030 5c 27 20 3e 34 5e cd be b8 7c 25 3e a8 8a 1e bf
       0.15640014 -0.40110934 0.16160858 -0.6193032
000040 21 e3 fa bd 8f e5 6c 3e 8f de a7 3e 40 30 53 3e
       -0.12250353 0.23134445 0.32786986 0.20623875
000050 6b a1 da be 10 5a 12 bf 3c 27 7e bd d4 bf 99 bf
       -0.42701277 -0.57168674 -0.062049136 -1.2011666
000060 ad a2 7a bf 08 54 8f 3c fb 4e 4d bf db 09 27 bf
       -0.97904474 0.017496124 -0.8019864 -0.65249413
000070 30 be 94 be b5 aa 3a 3d 41 75 cb bf ee b5 ad be
       -0.29051352 0.045572955 -1.5895158 -0.33927864
000080 fe 34 10 bf 9a 71 91 3d 0a 74 3a bf ef e4 17 bf
       -0.5633086 0.07101746 -0.7283331 -0.593337
000090 bc 7d 40 bf f9 46 97 bf 22 fc 0f bf ba a1 66 bf
       -0.75191855 -1.1818534 -0.562441 -0.90090525
0000a0 e1 d1 47 bf 07 df 27 bf da d6 50 bf bd 14 1d bf
       -0.78054625 -0.6557469 -0.8157784 -0.6135977
0000b0 40 97 e9 bc 38 d8 0f bf 58 81 32 bf 9c c3 ba be
       -0.028514504 -0.561893 -0.6972861 -0.36477363
0000c0 62 5e 3a bc 0e fb 08 3d 9c bf 53 bf 79 8c 89 be
       -0.011375042 0.03344255 -0.8271425 -0.26864985
0000d0 50 d0 11 bf 57 dd 21 be 6e fb 57 bf 11 80 55 bf
       -0.56958485 -0.1580709 -0.84368026 -0.8339854
0000e0 6d 42 9b 3c 2b 93 04 bf 80 dd ae be f7 20 43 be
       0.018952573 -0.5178706 -0.34153366 -0.19055544
0000f0 b5 8c ea be 5c fc 1a be 75 33 d8 be aa d1 8d be
       -0.45810476 -0.1513533 -0.4222676 -0.27699023
000100 b0 26 d2 bd a6 30 b8 3e 39 f9 3a be c7 81 53 bf
       -0.10261285 0.35974616 -0.18259133 -0.826199
000110 f2 9b db bd 20 19 15 bf f6 78 b2 bf 37 74 89 bf
       -0.107231036 -0.5824146 -1.3943164 -1.0738591
000120 50 17 de 3e 64 a0 98 bf cb da 34 bf 0c d0 75 bf
       0.4337716 -1.1923947 -0.7064635 -0.9602058
000130 82 33 c2 bc bd fe 9e bd fc 79 e3 3e dd 44 5e bf
       -0.023706201 -0.07763431 0.44429004 -0.8682383
000140 72 43 b4 be 43 c6 fd be 8b 3c a8 bf 28 29 3f bf
       -0.35207707 -0.49565324 -1.3143476 -0.74672174
000150 7c 00 68 bf 34 93 53 be 71 4d 08 bf 82 c0 b9 be
       -0.9062574 -0.20661622 -0.53243166 -0.36279684
000160 fd 37 2b bf a3 21 16 3f 90 2e ac bd 6b 24 bb be
       -0.66882306 0.58645076 -0.084073186 -0.36551222
000170 80 39 18 bf 6a 66 31 bf 96 95 19 bf 55 06 da be
       -0.5946274 -0.69296896 -0.59993875 -0.42582956
000180 fe b7 19 bf af e4 d7 3d 88 f0 c1 be dd 72 f2 bd
       -0.60046375 0.10541665 -0.37878823 -0.11838315
000190 01 ee d3 bc e2 bf 11 c0 fb dd f1 be e0 82 bf 3d
       -0.025870325 -2.2773366 -0.4723967 0.09351134
0001a0 4b 3c 24 bf 53 9b 4f be bc bb e9 bc 27 5d 3d bf
       -0.641545 -0.20274095 -0.028531902 -0.73970264
0001b0 64 f5 55 bd 47 e3 e5 bf c6 98 3b bf 6f 45 41 be
       -0.052235976 -1.7959985 -0.7327999 -0.18874143
0001c0 03 5b 5c bf 58 1d ee be 76 c1 a0 be f1 1b 95 be
       -0.8607637 -0.46506763 -0.313976 -0.2912288
0001d0 2e 26 85 3c ff 16 ee be f9 ee 84 bf 1f 45 48 bf
       0.016253557 -0.4650192 -1.0385429 -0.7823047
0001e0 ca b0 44 bf ee 62 d1 3e 28 96 2c 3d 74 22 27 3e
       -0.7683226 0.4089579 0.042135388 0.16321737
0001f0 c1 fd 0d bf fa 62 1b 3d bb a0 f4 3c 26 49 0f bf
       -0.5546532 0.03793619 0.029861799 -0.5597099
000200 14 0a 59 bf 88 4b 79 bf 4a e0 20 bf f3 89 8b bf
       -0.84781003 -0.97380877 -0.6284224 -1.0901474
000210 d7 a7 25 bf 18 da a4 be 93 db 8a be af 80 52 bf
       -0.6470923 -0.32197642 -0.27120647 -0.82227606
000220 e5 00 2f be d1 9f 3d 3e 39 5e a4 be 1c d1 82 be
       -0.17090185 0.18517996 -0.32103136 -0.25550163
000230 ea f3 a2 be a0 b2 27 bf fc 5a c6 be b3 af 21 be
       -0.31826717 -0.65506935 -0.3874129 -0.1578968
000240 4c 21 46 bf fd a9 b5 3e 07 1d 1f bf 65 2f 17 bf
       -0.77394557 0.35481253 -0.6215367 -0.59056693
000250 e8 93 0e bf 71 9e 5f bf a4 d4 e6 3d 9b de 8e be
       -0.5569444 -0.8735114 0.11271027 -0.2790421
000260 1c 33 4d be c3 c2 87 be b7 7d 20 bf cf 5b 93 bf
       -0.20039028 -0.2651578 -0.62691826 -1.1512393
000270 36 1d c2 be 7f 0e 6a be 83 8a 3b be db f5 06 c0
       -0.3791291 -0.22857092 -0.18314557 -2.1087558
000280 77 2e 1d bd 1e 9d d4 bc d2 f2 49 be 19 80 b5 3d
       -0.03837439 -0.025953826 -0.19721535 0.08862323
000290 48 11 51 bf eb c5 b3 3e 6e 56 4f 3e 61 c5 1f bf
       -0.81666994 0.35111937 0.20247814 -0.6241055
0002a0 2c f7 95 3e 03 9a 35 bf 38 69 0d bf d4 ae 4a bf
       0.2929014 -0.7093813 -0.55238676 -0.79173017
0002b0 53 28 05 bf d0 f3 6b bf d1 b6 53 bd 12 38 7e be
       -0.52014655 -0.92168903 -0.05168802 -0.24826077
0002c0 0b 3d c3 3e fd 15 a3 be a5 89 dc be 42 31 b6 3d
       0.3813251 -0.31852713 -0.43073764 0.08896114
0002d0 ad b9 0d bf f7 8c 50 be 5a ca 0e bf 65 f7 29 bf
       -0.55361444 -0.20366274 -0.55777514 -0.6639312
0002e0 52 9d 5c 3e 71 a9 b1 3e bc b7 77 3e f0 7e 90 3e
       0.21544388 0.34699586 0.24191183 0.28221846
0002f0 a4 52 49 bf a1 3d a2 3e 88 da 1c bd 4b 3e 67 bf
       -0.78641725 0.31687644 -0.038294345 -0.90329427
000300 1a aa 83 bf 20 cf c9 3e ad 69 15 bf 1c 67 50 be
       -1.0286286 0.39415836 -0.58364373 -0.20351833
000310 1a f8 47 bf 62 81 3b be 4d f9 fc 3e 1d c7 ca 3d
       -0.7811295 -0.18311074 0.4940895 0.09901259
000320 d3 33 b4 3e 57 a1 c5 bb 4e 30 da bd 2c 16 1b be
       0.3519579 -0.006031196 -0.10653745 -0.15145177
000330 f6 8f 04 bf d6 f3 06 bf d2 11 0b bf 24 d4 9b be
       -0.51782167 -0.52715814 -0.54324067 -0.30435288
000340 46 32 05 bd 16 0b 63 bc b8 b9 32 bf 86 fe eb bf
       -0.032518648 -0.013857624 -0.69814634 -1.8437049
000350 8d 99 af bc 7b d9 21 be e3 e2 f9 3b e0 bf 85 bf
       -0.021435523 -0.15805618 0.007625924 -1.0449181
000360 3b 03 5d 3f 2b f2 17 bf 64 29 ac 3e 3b 31 be be
       0.86333054 -0.59353894 0.3362533 -0.37146935
000370 8d 9c 2a bf 95 d6 ce be af 86 15 bf e0 ab aa bf
       -0.6664513 -0.40398088 -0.58408636 -1.3333702
000380 b7 db 23 bf ae f4 0b bf 83 32 7c be 42 c5 e2 be
       -0.64007133 -0.54670227 -0.24628644 -0.4429112
000390 db 80 ce be 4f 61 b1 bf 36 b9 a5 be 6d 6d 29 be
       -0.40332684 -1.3857821 -0.32367867 -0.16545649
0003a0 1f 5f 88 bd 34 ba 07 bf 3a 46 24 3e 66 b0 bb be
       -0.06658768 -0.530185 0.16042414 -0.3665802
0003b0 a5 b2 78 bd ce 29 c2 be 3c 17 80 3e 63 d3 05 bf
       -0.060717244 -0.3792252 0.25017726 -0.52275676
0003c0 05 90 48 bf d2 1f 5e be 85 8c a2 bf 21 f4 90 be
       -0.78344756 -0.21691826 -1.2699133 -0.28311256
0003d0 e8 cd 42 3e df 92 57 bf 47 be 9f be 75 60 8a 3e
       0.1902386 -0.8420848 -0.31199858 0.27026716
0003e0 8d 0c 8b 3c 66 b5 05 3e 7e aa 5e bf fa c8 94 bf
       0.016973758 0.1305748 -0.869789 -1.1623833
0003f0 a4 68 5c be 2d b0 a2 bf 1e f6 8c bf c7 08 2e bf
       -0.21524292 -1.2710015 -1.1012609 -0.67982143

fc2.bias f4 [128]
000000 d2 cd 37 bf 6a a7 61 bf b0 ba 2e be 2c cf 53 40
       -0.7179843 -0.8814608 -0.17063403 3.3095198
000010 11 f5 1d be 81 f5 01 bf 8e 31 48 bf 90 9c be be
       -0.15425517 -0.50765234 -0.78200614 -0.37228823
000020 96 29 08 be 74 af be bd 7f 00 01 be 12 6c d8 bd
       -0.13297114 -0.09310809 -0.12597845 -0.10567488
000030 7f 92 99 bd 5c c6 43 c0 c7 e5 22 c0 b4 34 2b be
       -0.07498645 -3.058982 -2.5452745 -0.16719323
000040 ed 01 96 bd bb 3f 28 40 32 af 21 bf 08 a0 14 be
       -0.07324586 2.6288898 -0.6315795 -0.14514172
000050 7c cd 17 be 97 d7 34 3f 7b af c1 bd 4b fe 0c be
       -0.1482448 0.70641464 -0.09457298 -0.1376888
000060 ae d7 21 40 31 9f af be 00 16 00 be f7 66 95 be
       2.528789 -0.3430114 -0.12508392 -0.29180118
000070 99 c0 06 bc 19 98 0f bf 27 46 11 be 32 4d de bf
       -0.00822463 -0.5609146 -0.14186917 -1.7367308
000080 25 c2 e9 bd 8e f7 d3 bd 0c 0e 5a 3f 1b 80 0f be
       -0.11413983 -0.10349952 0.85177684 -0.14013712
000090 3a bb 4a be 35 0e fa bd 71 7a c1 bd 33 46 28 be
       -0.19797984 -0.12209741 -0.09447182 -0.16433029
0000a0 77 d6 95 bd 3b 27 cb 3e c2 79 0d 40 44 ad 39 be
       -0.073162965 0.39678368 2.2105565 -0.18132502
0000b0 3e ea 31 be 19 fe f9 bd 99 38 15 be e0 76 0f 40
       -0.17374513 -0.122066684 -0.14572372 2.2416306
0000c0 a3 5f 4d be fc eb 89 bf 5a fe 26 be 1c 9b e0 bd
       -0.20056014 -1.0775142 -0.16307965 -0.10967085
0000d0 4e b8 8d be 10 70 d0 bd 09 74 12 bd 4b bd 66 be
       -0.27679676 -0.10177624 -0.03575519 -0.22533147
0000e0 a0 6d 66 be 64 c8 81 be 3d 86 2c bf 07 9a 99 3f
       -0.22502756 -0.25348198 -0.6739233 1.200013
0000f0 6a b7 27 be aa 63 0c bf fc 25 20 be 70 c9 63 be
       -0.1637856 -0.54839575 -0.1563949 -0.22244811
000100 95 0d e4 bd f6 85 0a be c9 47 dc be 13 35 4e be
       -0.11135403 -0.13527665 -0.43023518 -0.20137434
000110 47 d6 00 bf 7e ca 20 be 1f 00 03 bf 97 32 98 3f
       -0.5032696 -0.15702245 -0.5117206 1.1890439
000120 5e 96 8d bf d0 de f9 bf 9c c1 07 be 7a e5 b6 bd
       -1.1061513 -1.9521122 -0.1325745 -0.08930488
000130 5d 09 35 be 82 ca e4 be 7d 7b 58 be 1c a7 25 bf
       -0.17679353 -0.4468575 -0.21140857 -0.64708114
000140 3d 24 82 be 1a f8 65 be cd c7 f2 bd 65 78 7b be
       -0.25418273 -0.22457924 -0.11854515 -0.24557646
000150 ec d9 49 be 3a f8 2b be 5d 43 e7 bd ab e0 4c bf
       -0.19712037 -0.1679391 -0.112921454 -0.80030316
000160 b1 3e 52 be 1d 29 61 40 99 b6 1c be db 67 0d c0
       -0.20531727 3.5181344 -0.1530403 -2.2094638
000170 22 29 cc bd 1e 39 a8 40 bd 6e 5e be 88 b9 29 3c
       -0.09968783 5.2569723 -0.21721931 0.0103591755
000180 2a 70 92 be 89 84 dd bd 0e e6 3d 40 e1 9f 5a bf
       -0.286012 -0.10816295 2.9671664 -0.85400206
000190 16 ff 3b be 9b fd 42 be 21 9b db bd 38 b3 b0 be
       -0.18359026 -0.19042055 -0.10722948 -0.34511733
0001a0 78 c6 16 be c1 fd 19 be 52 f6 87 3b 2e c1 39 be
       -0.14724147 -0.15038206 0.0041492367 -0.18140098
0001b0 21 74 1f be 5f 40 a0 be ca 72 2c be 2a 50 53 3f
       -0.15571643 -0.3129911 -0.16840664 0.82544196
0001c0 67 ed be bd b1 38 0f be bb 21 23 be 47 04 7b 3f
       -0.09322625 -0.1398647 -0.15930836 0.980534
0001d0 05 0d a3 3f 6c d0 c7 be 7a 20 78 be c8 fb 1f be
       1.2738348 -0.390262 -0.24231139 -0.1562339
0001e0 d6 89 28 be 74 dc 49 be 84 67 d8 bd c6 2b 81 40
       -0.1645883 -0.19713002 -0.10566619 4.0365934
0001f0 b5 1a 8c be 10 63 0b c0 ad 29 42 3e a5 f7 87 bf
       -0.27364126 -2.1779213 0.1896121 -1.062245

fc3.weight f4 [1, 128]
000000 18 f2 80 bd cb 93 88 bd bd a1 b8 3c 24 8e 3d 3c
       -0.06296176 -0.06668814 0.02253806 0.0115695335
000010 af b0 ef bc 7c b5 ac bd ba 1f 9d 3c 37 d8 0a be
       -0.029259054 -0.08433053 0.019180167 -0.13559042
000020 46 c5 d2 ba d7 87 9f 3b c1 c0 8e 3b 73 28 83 bc
       -0.001608052 0.0048684883 0.004356474 -0.016010499
000030 59 d1 06 3d b5 c5 7b bc a1 df 9a bc f2 9f 2a bc
       0.032914493 -0.015366961 -0.018905463 -0.0104141105
000040 64 d0 9f 3c 4c bd bb 3c 48 5f ad bc f0 ab 81 bc
       0.019508548 0.022917412 -0.021163598 -0.015829057
000050 fb c9 5f bb 42 4c f7 3c f6 ab 59 bc 22 92 af bc
       -0.003414749 0.03018773 -0.013285628 -0.021431986
000060 7b fa 1f 3d c9 be 69 3d 07 fa ed 3b f1 b9 c4 bd
       0.039057236 0.057066713 0.0072624716 -0.09605778
000070 cb a7 ce b9 29 c4 58 3b dd 43 88 bc d5 6c 5b bc
       -0.00039416397 0.0033075905 -0.016633922 -0.013392647
000080 df 0b ca 3c 2f 6e b4 ba 3c c0 d5 3c e4 b1 f1 3c
       0.024663864 -0.0013765747 0.026092641 0.02950377
000090 66 c3 99 3a 5f 49 5a bb 06 65 b9 bc 7c d1 c5 bc
       0.0011731207 -0.0033307893 -0.02263118 -0.024147741
0000a0 8f 2c a0 bb 87 62 bb bc 5b e2 a2 3c 32 ca 09 bc
       -0.0048881243 -0.02287413 0.019883325 -0.0084100235
0000b0 5b bb d2 39 8f 55 c4 bb 49 31 88 3c d0 f9 ac 3c
       0.00040193912 -0.0059916447 0.016625063 0.021115214
0000c0 0c 27 d1 3c cb 81 bf 3c d2 85 ea 3b 9c 2e 95 3c
       0.025531314 0.02337732 0.007157066 0.018210702
0000d0 35 c2 fb 3c 96 4b 4f 3b 4e 84 82 3c e0 b2 81 bc
       0.030732254 0.0031630746 0.015932228 -0.015832365
0000e0 df 2b 28 3c a9 37 d6 bc fe dd c3 bc 70 c5 9a 3c
       0.010264366 -0.026149588 -0.023909565 0.018892974
0000f0 7b f9 b1 bd 16 24 0e bc 04 92 51 3c 7b 90 e8 bb
       -0.08690163 -0.008675596 0.0127911605 -0.0070973015
000100 cd 62 76 3c 45 5c 75 3a df 6f 50 bc 12 a4 e4 3c
       0.015038204 0.00093597575 -0.012721985 0.027910266
000110 e6 42 05 be 0e 25 8b bc 23 f5 a9 bd af 63 f9 3c
       -0.13013801 -0.016985442 -0.08298709 0.03044304
000120 f8 22 16 3b 63 29 83 bc ed 46 cf b9 d3 7e 10 3c
       0.0022909027 -0.016010946 -0.0003953496 0.0088193
000130 7b e1 7b ba ad 14 a9 bd 26 4c 2b 3b cd 7c ee bc
       -0.00096084893 -0.08255897 0.0026137917 -0.029112244
000140 07 92 83 bc 1e de 7c bc c3 2e 98 bc 50 bc 93 3b
       -0.016060842 -0.015433816 -0.018576985 0.0045085326
000150 cd 7d ab 3c a4 bc 87 3b 8b ca 29 bc 77 fd 8a 3b
       0.02093401 0.0041423608 -0.010363231 0.004241641
000160 3e 4d f1 bc 25 8c 52 3d 78 8f c6 bc ee 67 95 bc
       -0.029455777 0.051403183 -0.024238333 -0.018238034
000170 1d 49 df 3c 6e 98 81 3d b9 64 e4 bb 47 95 b5 bc
       0.027256543 0.06327902 -0.006970015 -0.022165908
000180 bc 6e bb 3c 15 42 72 3c 3e ab 1e 3d 45 db a6 3c
       0.02287995 0.014786263 0.038737528 0.020368228
000190 50 a6 3a bc e3 aa 93 3c ee a4 0e bc 59 e0 ee 3c
       -0.011392191 0.018025821 -0.0087063145 0.029159712
0001a0 5d 72 0e 3c 35 da dd bb b2 75 45 bc e3 23 81 bc
       0.0086942585 -0.006770397 -0.0120519865 -0.015764182
0001b0 2a 5b 19 3c 00 0d c1 3c 53 82 38 3b e7 41 b9 3c
       0.009360114 0.02356577 0.002815385 0.022614432
0001c0 5a 31 a5 bc 96 81 18 bb 42 8f 0b bc e5 26 cd 3c
       -0.020165134 -0.0023270599 -0.008518042 0.02504296
0001d0 cb 51 89 3c 19 4c 91 3b 7f e0 64 3d 7c ad 5a bc
       0.016762635 0.0044341204 0.05587816 -0.013347026
0001e0 57 cc d3 bb a1 ad 67 bc 50 5d 79 bc ac 14 04 3d
       -0.006463568 -0.014140517 -0.015220001 0.032246277
0001f0 0b 15 cf 3c f4 02 4d bc d6 23 81 3c 1f 09 01 bc
       0.025278589 -0.012512911 0.015764158 -0.00787571
