p2_continuous-control/critic.pth (torch_old, 169980 bytes, 5 tensors)

fcs1.weight f4 [256, 33]
000000 c7 ea 9b 3e fc f3 b6 3e e2 2f a1 bf 05 cb 84 be
       0.30452558 0.3573302 -1.2592738 -0.25936142
000010 84 13 36 bf 65 03 aa bf 62 18 83 3e b3 17 8a 3f
       -0.7112353 -1.3282286 0.2560454 1.0788482
000020 1a 7d 6d 3e aa 73 c3 3e 48 1b 01 3f 76 0a 1d 3f
       0.23192254 0.38174182 0.5043225 0.6134409
000030 4e 47 0e 3f 10 34 a9 be 66 bd a4 3f 63 3b a4 3d
       0.5557755 -0.33047533 1.28703 0.080191396
000040 02 86 ea bd 08 f2 d3 be a1 ff 7a be 3f 9f 48 3f
       -0.11451341 -0.41395593 -0.24511577 0.7836799
000050 47 53 b2 3e d5 4d 7d be 52 1b 04 bf 63 15 26 bf
       0.3482916 -0.24736722 -0.5160419 -0.64876384
000060 c3 5f 51 3f 1b d6 6a 3f 0b ca 04 3e 16 dc 4d 40
       0.81786746 0.9173295 0.12967698 3.216558
000070 19 f4 57 bd 5c bf 33 bd 98 5b 4c c0 20 3a cf 3c
       -0.052723024 -0.043883666 -3.1930904 0.02529627
000080 d5 eb d6 3e d5 2a d4 3e ec 0d d0 3d e4 7c 43 bd
       0.419768 0.41438928 0.101589054 -0.047726527
000090 65 84 a7 be 6b 97 01 be c0 38 c1 be 9f 64 05 bd
       -0.32718197 -0.12655418 -0.3773861 -0.032566663
0000a0 93 4c c7 3c d5 1c 96 be 9a 2c 9b 3d aa 95 5b 3d
       0.024328506 -0.29318872 0.075768664 0.053609528
0000b0 c9 bc dd 3d 12 02 8e bd 78 b9 ad 3d 97 1b 4f 3e
       0.108270235 -0.06933989 0.08482641 0.20225368
0000c0 6b a8 a7 3d 34 ea 1b 3e 4f 7c 76 bd 03 1f 85 3f
       0.0818642 0.1522606 -0.060177144 1.0400089
0000d0 5e d9 c8 be 16 b7 48 bc 0b 59 52 bd 2a f7 cc bd
       -0.39228338 -0.012250682 -0.05135445 -0.1000808
0000e0 11 46 0c be af 38 49 3e 31 2f 19 be c3 47 db bf
       -0.13698603 0.1965053 -0.14959408 -1.7131275
0000f0 39 33 62 40 54 e9 10 3e 28 98 bb 3c 89 4e 64 c0
       3.5343764 0.14151508 0.022899702 -3.5672934
000100 f2 2e 3c bd 79 32 0d 40 f0 dc a5 bf 99 1a 87 3c
       -0.045943208 2.2062056 -1.295805 0.016492175
000110 a6 cc 2d be 98 2c 05 bf 84 47 b3 bf 69 a6 b9 be
       -0.16972598 -0.5202117 -1.40062 -0.36259773
000120 4c 28 ad 3f d1 2e 68 be 2a 9e 2f bd 9c 2a 3c bf
       1.3527923 -0.22674109 -0.042875446 -0.73502517
000130 c8 99 93 be 75 77 fb 3d 18 d7 39 3e 39 4a 15 3f
       -0.28828263 0.12278644 0.18148458 0.5831638
000140 b9 62 00 bf c0 02 cf be db 32 37 3f 70 bc 9b 3e
       -0.5015064 -0.40431786 0.71561974 0.30417204
000150 f4 38 ae 3e 5d 50 7b 3e e9 1f 0a bf 1f d4 b4 bb
       0.34027827 0.24542375 -0.5395494 -0.005518451
000160 92 27 67 3e 71 f0 59 3e 88 46 e3 bd bf 37 28 3e
       0.22573689 0.21283127 -0.11097437 0.16427515
000170 48 67 35 be 28 6b 9f 40 d1 f5 87 3f a0 1c 31 3c
       -0.1771518 4.9818306 1.0621892 0.010810047
000180 be e1 9d c0 00 93 fb 3b 62 25 67 c0 f2 9e 35 bf
       -4.9338064 0.007677436 -3.6116567 -0.70945656
000190 89 44 b0 3e 16 4e f3 3e 39 55 94 bd c1 83 93 be
       0.34427288 0.47520512 -0.072428174 -0.28811458
0001a0 43 bb b6 be 10 94 d2 be 62 3d a5 3e e3 a4 95 3e
       -0.35689744 -0.41128588 0.32273394 0.2922736
0001b0 31 56 b5 3f 66 f1 8f be e7 3a 79 be df 27 50 be
       1.4166929 -0.2811386 -0.24338876 -0.2032771
0001c0 7e 59 ae 3e 8b eb 9c bd d7 a2 2e bf b5 91 e4 3e
       0.34052652 -0.07662114 -0.68217224 0.44642416
0001d0 ba a8 e5 be 60 2a 6b bf c0 84 2f bf 48 8d e0 3d
       -0.4485529 -0.91861534 -0.68561935 0.10964447
0001e0 1a 46 7b be 1f ff 9c 3e 97 b8 ab bd e1 dd 1e be
       -0.2453846 0.30663392 -0.08384817 -0.15514328
0001f0 1a c6 f3 be 10 83 61 3f f1 6c 68 40 fd 3b 42 3f
       -0.47612077 0.8809061 3.6316493 0.75872785
000200 ac be c7 3c e9 cb 65 c0 38 92 17 bd 8c 8b a0 c0
       0.024382912 -3.5905707 -0.03700468 -5.0170345
000210 a1 25 3c 3f 6a 41 30 3e 3c 2c 2c c0 40 be 04 3f
       0.7349492 0.17212453 -2.6901999 0.518528
000220 bd 8e d7 3f a8 ab f2 3f 7a 66 24 c0 9d 59 5f 3e
       1.6840435 1.8958635 -2.5687547 0.21811529
000230 c9 3c 95 bf 6e 2b 4c 3c 1a 7a 0e 3e c3 05 93 bd
       -1.1659175 0.012461526 0.13913766 -0.07178833
000240 68 49 d6 be 4f d5 4f bf c6 2c f8 be 12 70 8c 3f
       -0.4185288 -0.8118486 -0.4847166 1.0971701
000250 a3 2f 03 bf 22 a5 a5 be 50 8d 23 bf 0e c5 04 be
       -0.5124456 -0.3235255 -0.638875 -0.12965795
000260 a8 fc 5e 3d 06 ab 3e 3b 78 cc ea bd 60 aa 5f be
       0.05444017 0.0029093637 -0.114647806 -0.21842337
000270 31 58 c2 bd 28 85 3c 3e 68 87 3f 3f b3 69 7d 40
       -0.094894774 0.1841017 0.7481599 3.9595764
000280 fd e9 9a 3e 8c b7 ed 3c bb 0e 7f c0 08 1b 38 bc
       0.30256644 0.029018186 -3.985274 -0.0112369135
000290 96 2b 64 40 be 28 43 3e a4 ac 98 3e d8 9c 16 bf
       3.5651603 0.1905851 0.29819214 -0.58833075
0002a0 c5 4f b6 be ee bd 10 3f 79 d2 eb c0 70 9c d2 3f
       -0.35607734 0.5653981 -7.3694425 1.6453991
0002b0 d3 f2 70 3d 02 a9 b5 3d 29 e7 43 3e be 5f 87 bd
       0.058825325 0.08870126 0.1913115 -0.06610058
0002c0 d0 d4 c6 bb 1b f3 5a bd 4c 01 0e be 2c 2d b6 3d
       -0.0060678497 -0.0534545 -0.13867682 0.088953346
0002d0 33 b1 95 3e a9 b6 fc be 10 a0 95 bf 12 46 36 be
       0.29236755 -0.4935811 -1.1689472 -0.17800167
0002e0 f5 87 72 3f e3 55 56 3c 33 f7 b5 bd 73 a5 8a bc
       0.94738704 0.013082 -0.0888504 -0.016924595
0002f0 c3 13 36 bc 70 46 62 3d ee 96 42 bd 4d da 3d be
       -0.01111311 0.055242956 -0.04750722 -0.18540306
000300 30 08 d8 3f 55 94 45 bd 02 9b 30 3d b2 9a d1 bf
       1.6877499 -0.048237164 0.043116577 -1.6375334
000310 d0 f5 0e bd 81 f1 74 c0 4e 6b 7a bf fd 3d f8 be
       -0.034902394 -3.8272402 -0.97819984 -0.48484793
000320 2f 7d 82 3f ce ae 9a 3e f4 00 3f bf 0d e8 d8 be
       1.0194453 0.3021149 -0.7461083 -0.4236454
000330 7e 95 d5 3e 05 b6 a0 be 97 d4 dd bd ac 8d 27 3d
       0.41715616 -0.3138887 -0.10831564 0.040906593
000340 fa 69 d0 b9 3e 0d 92 bd e4 cb 31 be a9 36 bd 3f
       -0.0003975181 -0.07131432 -0.17362934 1.4782306
000350 fe ff cf 3e c4 f6 70 bf d0 f2 d9 be dc 0f 9f 3e
       0.40624994 -0.94126534 -0.42568064 0.31066787
000360 08 58 eb bd 95 56 fe bd 2f 3b e4 39 f1 76 25 3e
       -0.114914 -0.12418858 0.00043531644 0.16158654
000370 31 69 1d 3e c3 d9 1c 3f f7 73 ff 3d 65 40 dd bd
       0.15372159 0.6126978 0.124732904 -0.10803298
000380 8e bb ba be f8 83 ce 3f 8e 20 2b 3f bc 5a fd bc
       -0.36471218 1.6134024 0.6684655 -0.030927055
000390 9c 2a d0 bf 5e 10 12 3d 6f dd 42 c0 0c ce af bf
       -1.6263003 0.03566014 -3.0447652 -1.3734756
0003a0 67 30 1a 3e 38 1c 09 be 40 12 c4 3d 6a 2b 08 bf
       0.15057527 -0.13389671 0.095737934 -0.53191245
0003b0 10 0f f6 3e 31 ad a5 3e 17 65 86 bc 0b b8 4f 3e
       0.48058367 0.32358697 -0.016405625 0.2028505
0003c0 0f 21 21 3e 96 8e 3a 3e 0c 9c 03 3c bc a7 f8 3d
       0.15735267 0.18218455 0.00803281 0.12141368
0003d0 5d e5 c2 3f 7b 9d e2 3d 88 9d dd 3e a4 b7 c3 3e
       1.5226246 0.11065193 0.4328425 0.38226044
0003e0 2c 49 27 be b3 6e 29 bf eb b6 f4 be ae 31 2d 3e
       -0.16336507 -0.6618454 -0.47795805 0.16913483
0003f0 2f d0 23 bc 9a 0e 72 bd 3e 24 b3 3e a4 ad 07 bd
       -0.009998365 -0.059095956 0.34988588 -0.03312458

fcs1.bias f4 [256]
000000 e6 f8 5a c0 ff 96 6b c0 8c e2 98 c0 f8 ef 66 c0
       -3.4214416 -3.681091 -4.7776546 -3.6083965
000010 28 47 81 c0 41 78 bf bf b4 84 d0 bf 4c ef 17 c0
       -4.039936 -1.4958574 -1.6290498 -2.3739805
000020 c4 14 46 c0 9e 7a 1b c0 49 f4 76 c0 3d 6b 31 c0
       -3.0950174 -2.429359 -3.85866 -2.7721703
000030 e0 f0 24 c0 6b a9 2a c0 fb 14 70 c0 67 bc 1f c0
       -2.5772018 -2.6665905 -3.7512805 -2.4958742
000040 9b 5d 22 c0 ea eb 1e c0 73 d3 7d c0 00 0e 42 c0
       -2.5369632 -2.483149 -3.9660308 -3.0321045
000050 09 84 2b c0 7a 9a 46 c0 cd 9c 18 c0 58 4b 57 c0
       -2.6799338 -3.1031785 -2.3845704 -3.3639736
000060 59 3c 7b c0 cf 11 f8 bf a0 a9 44 c0 ef 8c 74 c0
       -3.9255583 -1.9380435 -3.072853 -3.821102
000070 81 66 4a c0 c4 4e 40 c0 43 20 0d c0 7f cc 22 c0
       -3.1625063 -3.0048075 -2.205094 -2.5437315
000080 f9 74 22 c0 a4 60 81 c0 6f 93 39 c0 11 9b 61 bf
       -2.5383894 -4.043047 -2.8996236 -0.8812724
000090 79 fc 85 c0 df 4e 6d bf a1 28 3c c0 c8 0e 2c c0
       -4.1870694 -0.9269847 -2.9399798 -2.6884022
0000a0 54 90 39 c0 4d 01 5c c0 e9 b7 3a c0 d9 26 8f c0
       -2.899434 -3.4375794 -2.917475 -4.473492
0000b0 a1 db fe bf 05 65 7b c0 67 45 4a c0 8e cd e1 bf
       -1.9910775 -3.9280407 -3.160486 -1.7640855
0000c0 41 41 57 c0 f7 51 86 c0 35 a0 1c bf d3 69 59 c0
       -3.3633578 -4.1975055 -0.61181957 -3.397084
0000d0 22 26 f7 bf b3 d6 41 40 aa 97 cb bf 04 c3 40 c0
       -1.9308512 3.0287292 -1.5905659 -3.0119028
0000e0 6d ec 43 c0 d3 81 f9 bf bc df 25 c0 94 19 3d c0
       -3.0613053 -1.9492744 -2.5917807 -2.9546862
0000f0 36 a3 5c c0 b1 d5 42 c0 75 13 e0 bf 22 73 ec bf
       -3.4474616 -3.0442927 -1.7505938 -1.8472636
000100 fa ae f8 bf 14 ba 4e c0 dc bd 75 c0 e3 79 4f c0
       -1.9428399 -3.2301073 -3.839713 -3.2418144
000110 7a f6 fe bf fc 31 95 c0 46 ff f4 bf 4d 08 0a c0
       -1.9918969 -4.6623516 -1.9140403 -2.1567566
000120 06 e5 74 c0 7a cb 34 c0 f2 6d 3d c0 c2 0e 24 c0
       -3.8264785 -2.8249192 -2.9598355 -2.5634007
000130 5e cd e3 bf 42 96 3e c0 ed 3b 2b c0 79 99 29 c0
       -1.7797048 -2.977921 -2.6755326 -2.6499922
000140 73 86 77 c0 7b 6f 70 c0 f8 61 50 c0 71 69 02 c0
       -3.8675811 -3.7568042 -3.2559795 -2.0376856
000150 ca 02 84 3f 92 ec 54 c0 ae 3f 16 c0 f4 aa 35 c0
       1.0313351 -3.326939 -2.3476367 -2.8385592
000160 31 80 5a c0 01 cc 37 c0 bd 93 22 c0 53 53 01 c0
       -3.4140742 -2.8718264 -2.5402672 -2.0207107
000170 77 cd 83 c0 80 e3 34 c0 82 2e 3e c0 77 7a 4a c0
       -4.118831 -2.8263855 -2.9715886 -3.1637247
000180 f7 32 00 c0 ec 42 4b c0 bc 0d 36 c0 7f 1a 20 c0
       -2.0031106 -3.1759596 -2.8445883 -2.5016172
000190 be 18 83 c0 c4 32 36 c0 12 12 26 c0 5c b7 1e c0
       -4.0967703 -2.8468485 -2.594853 -2.4799414
0001a0 8e 35 c9 bf 13 7d 4d c0 95 c4 5b c0 3d b1 39 c0
       -1.5719469 -3.210759 -3.4338734 -2.9014428
0001b0 d5 fa de bf 31 60 f1 be d0 e3 e5 bf d0 a7 3e c0
       -1.7420298 -0.471437 -1.7960148 -2.9789925
0001c0 48 b9 56 c0 72 8e 17 c0 4c 5b 91 c0 fa 89 29 c0
       -3.3550587 -2.3680692 -4.5423946 -2.6490464
0001d0 6a 93 e7 bf 9a b3 73 c0 a2 26 76 c0 04 3b ff bf
       -1.8091862 -3.807837 -3.846108 -1.9939885
0001e0 c7 e5 53 c0 26 d6 4e c0 fe 50 80 c0 09 35 6c c0
       -3.3108995 -3.2318206 -4.0098867 -3.690737
0001f0 d4 69 df bf c5 e4 4b c0 d3 02 75 c0 66 13 d2 bf
       -1.7454171 -3.185838 -3.8282974 -1.641217
000200 da 15 07 3e 0e 8c 50 c0 2f 7e 3e bf 92 b9 0d c0
       0.1319193 -3.2585483 -0.7441129 -2.2144513
000210 b8 b5 f1 bf 1a a7 60 c0 6d 4d 6d c0 50 d4 0f c0
       -1.8883581 -3.510199 -3.7078507 -2.2473335
000220 6f c0 77 c0 a1 88 49 c0 92 c8 63 c0 dd b3 6e c0
       -3.8711202 -3.1489642 -3.5591168 -3.729728
000230 43 6d 95 bf a6 0d 2c c0 f8 11 0f c0 5d cb e7 bf
       -1.1673969 -2.688333 -2.2354717 -1.8108937
000240 77 84 18 c0 88 c8 68 c0 9e 3c 41 c0 8a ec 6f c0
       -2.383085 -3.6372395 -3.0193248 -3.7488122
000250 f1 76 11 c0 71 32 3d c0 f0 10 59 c0 fa bb 95 c0
       -2.2728846 -2.9562037 -3.3916588 -4.6791964
000260 35 98 8d c0 b6 b0 68 c0 04 dd 5d c0 18 46 8c c0
       -4.42483 -3.6357856 -3.4666147 -4.3835564
000270 ae dc 88 c0 5e c2 80 c0 e7 49 01 c0 a5 8d 42 bf
       -4.2769384 -4.0237265 -2.0201356 -0.7599738
000280 4a 1c 83 c0 e8 78 23 c0 7d 44 3a c0 0d fc 59 c0
       -4.0972033 -2.5542545 -2.9104302 -3.406009
000290 e6 79 71 c0 d7 76 24 c0 79 98 0a c0 0c e1 77 c0
       -3.773065 -2.5697534 -2.1655562 -3.8731108
0002a0 39 51 f7 bf d6 e4 85 bf 90 f5 0e bf 55 00 53 c0
       -1.9321662 -1.046046 -0.5584345 -3.2968953
0002b0 c8 66 26 c0 82 05 25 c0 37 f5 41 c0 c0 d4 e5 bf
       -2.6000233 -2.5784612 -3.0305917 -1.7955551
0002c0 cc 6c 6c c0 98 fc 4a c0 ab d5 fc be 27 e3 51 c0
       -3.6941404 -3.171667 -0.49381766 -3.2794893
0002d0 d8 1a 43 c0 a7 e9 36 c0 c9 3b 40 c0 41 2b 7f c0
       -3.0485134 -2.858011 -3.003649 -3.987015
0002e0 09 83 f4 bf 59 c0 32 c0 c8 2c 2c c0 d0 60 87 bf
       -1.9102489 -2.79299 -2.6902332 -1.057642
0002f0 84 5d e1 bf 7f 69 84 c0 76 f5 44 c0 d8 24 ee bf
       -1.7606664 -4.137878 -3.0774817 -1.8604994
000300 b1 fe 0b c0 27 23 88 c0 c9 d9 8b c0 8a 52 49 c0
       -2.1874201 -4.254291 -4.370335 -3.1456628
000310 78 91 87 c0 50 ee 0a c0 04 c6 44 c0 21 a0 31 c0
       -4.2365074 -2.1707954 -3.074586 -2.7753985
000320 f7 10 1f c0 f4 95 4a c0 af d9 63 c0 0b 46 64 c0
       -2.4854105 -3.1654024 -3.5601614 -3.566775
000330 2e 3c f5 bf 9b c7 50 c0 e1 ce 49 c0 f7 25 5d c0
       -1.915899 -3.262183 -3.153252 -3.4554422
000340 c4 3d 24 c0 a9 ec 4d bf 69 f9 dd bf 10 b1 03 c0
       -2.5662699 -0.8043924 -1.7341739 -2.057682
000350 d2 57 8d c0 bf c9 5a c0 ed 04 27 bf 82 db 32 c0
       -4.4169703 -3.4185636 -0.6524189 -2.7946477
000360 d1 06 13 c0 62 aa 5e c0 b2 d7 8d bf bf 52 48 c0
       -2.297291 -3.4791493 -1.108145 -3.1300504
000370 0d 59 5b c0 9f 6d 89 c0 15 80 05 c0 d3 05 55 c0
       -3.4273102 -4.2946315 -2.0859425 -3.3284805
000380 55 1d 88 c0 50 64 55 c0 df 3f f4 bf 44 0b 17 c0
       -4.2535806 -3.3342476 -1.9081992 -2.3600626
000390 7b 8a 1c c0 f7 db 4e c0 6b 13 28 c0 a6 95 98 c0
       -2.4459522 -3.2321756 -2.6261852 -4.7682676
0003a0 de 43 94 bf f4 ac 96 bf 28 9c 48 c0 7c 5b 5e c0
       -1.1583211 -1.1771531 -3.134531 -3.4743338
0003b0 88 2d 47 c0 e7 a2 f3 3d 49 de 45 c0 12 14 ce bf
       -3.112154 0.118963055 -3.0916922 -1.6099875
0003c0 34 63 5a c0 ee ab d9 bf 1c 50 10 c0 1e 99 6d c0
       -3.4123049 -1.7005594 -2.2548895 -3.7124705
0003d0 82 82 4c c0 31 ae 01 c0 9c 60 00 c0 ed 96 27 c0
       -3.1954656 -2.0262568 -2.0058966 -2.6185868
0003e0 41 a2 52 c0 8c f1 1a c0 db 1d 7f c0 b9 2e ec bf
       -3.2911532 -2.4209929 -3.9861972 -1.8451759
0003f0 3e d6 f0 bf f2 3c 66 c0 de f2 80 3d 84 5b bc 3e
       -1.8815382 -3.5974698 0.06296323 0.3678857

fc2.weight f4 [128, 260]
000000 31 28 b7 be 98 62 25 bf 77 77 86 3a 35 7d 6a 3d
       -0.3577285 -0.6460357 0.0010258992 0.057248313
000010 fe 05 44 bf 23 5b 81 bf 38 8f 76 bf 3b dd f1 bd
       -0.76571643 -1.0105938 -0.96312284 -0.118097745
000020 34 bc f5 bd 7c 21 e8 be ba 4c 01 be 71 8b 9d be
       -0.119987875 -0.45338047 -0.12626925 -0.30770448
000030 5c 27 20 3e 34 5e cd be b8 7c 25 3e a8 8a 1e bf
       0.15640014 -0.40110934 0.16160858 -0.6193032
000040 21 e3 fa bd 8f e5 6c 3e 8f de a7 3e 40 30 53 3e
       -0.12250353 0.23134445 0.32786986 0.20623875
000050 6b a1 da be 10 5a 12 bf 3c 27 7e bd d4 bf 99 bf
       -0.42701277 -0.57168674 -0.062049136 -1.2011666
000060 ad a2 7a bf 08 54 8f 3c fb 4e 4d bf db 09 27 bf
       -0.97904474 0.017496124 -0.8019864 -0.65249413
000070 30 be 94 be b5 aa 3a 3d 41 75 cb bf ee b5 ad be
       -0.29051352 0.045572955 -1.5895158 -0.33927864
000080 fe 34 10 bf 9a 71 91 3d 0a 74 3a bf ef e4 17 bf
       -0.5633086 0.07101746 -0.7283331 -0.593337
000090 bc 7d 40 bf f9 46 97 bf 22 fc 0f bf ba a1 66 bf
       -0.75191855 -1.1818534 -0.562441 -0.90090525
0000a0 e1 d1 47 bf 07 df 27 bf da d6 50 bf bd 14 1d bf
       -0.78054625 -0.6557469 -0.8157784 -0.6135977
0000b0 40 97 e9 bc 38 d8 0f bf 58 81 32 bf 9c c3 ba be
       -0.028514504 -0.561893 -0.6972861 -0.36477363
0000c0 62 5e 3a bc 0e fb 08 3d 9c bf 53 bf 79 8c 89 be
       -0.011375042 0.03344255 -0.8271425 -0.26864985
0000d0 50 d0 11 bf 57 dd 21 be 6e fb 57 bf 11 80 55 bf
       -0.56958485 -0.1580709 -0.84368026 -0.8339854
0000e0 6d 42 9b 3c 2b 93 04 bf 80 dd ae be f7 20 43 be
       0.018952573 -0.5178706 -0.34153366 -0.19055544
0000f0 b5 8c ea be 5c fc 1a be 75 33 d8 be aa d1 8d be
       -0.45810476 -0.1513533 -0.4222676 -0.27699023
000100 b0 26 d2 bd a6 30 b8 3e 39 f9 3a be c7 81 53 bf
       -0.10261285 0.35974616 -0.18259133 -0.826199
000110 f2 9b db bd 20 19 15 bf f6 78 b2 bf 37 74 89 bf
       -0.107231036 -0.5824146 -1.3943164 -1.0738591
000120 50 17 de 3e 64 a0 98 bf cb da 34 bf 0c d0 75 bf
       0.4337716 -1.1923947 -0.7064635 -0.9602058
000130 82 33 c2 bc bd fe 9e bd fc 79 e3 3e dd 44 5e bf
       -0.023706201 -0.07763431 0.44429004 -0.8682383
000140 72 43 b4 be 43 c6 fd be 8b 3c a8 bf 28 29 3f bf
       -0.35207707 -0.49565324 -1.3143476 -0.74672174
000150 7c 00 68 bf 34 93 53 be 71 4d 08 bf 82 c0 b9 be
       -0.9062574 -0.20661622 -0.53243166 -0.36279684
000160 fd 37 2b bf a3 21 16 3f 90 2e ac bd 6b 24 bb be
       -0.66882306 0.58645076 -0.084073186 -0.36551222
000170 80 39 18 bf 6a 66 31 bf 96 95 19 bf 55 06 da be
       -0.5946274 -0.69296896 -0.59993875 -0.42582956
000180 fe b7 19 bf af e4 d7 3d 88 f0 c1 be dd 72 f2 bd
       -0.60046375 0.10541665 -0.37878823 -0.11838315
000190 01 ee d3 bc e2 bf 11 c0 fb dd f1 be e0 82 bf 3d
       -0.025870325 -2.2773366 -0.4723967 0.09351134
0001a0 4b 3c 24 bf 53 9b 4f be bc bb e9 bc 27 5d 3d bf
       -0.641545 -0.20274095 -0.028531902 -0.73970264
0001b0 64 f5 55 bd 47 e3 e5 bf c6 98 3b bf 6f 45 41 be
       -0.052235976 -1.7959985 -0.7327999 -0.18874143
0001c0 03 5b 5c bf 58 1d ee be 76 c1 a0 be f1 1b 95 be
       -0.8607637 -0.46506763 -0.313976 -0.2912288
0001d0 2e 26 85 3c ff 16 ee be f9 ee 84 bf 1f 45 48 bf
       0.016253557 -0.4650192 -1.0385429 -0.7823047
0001e0 ca b0 44 bf ee 62 d1 3e 28 96 2c 3d 74 22 27 3e
       -0.7683226 0.4089579 0.042135388 0.16321737
0001f0 c1 fd 0d bf fa 62 1b 3d bb a0 f4 3c 26 49 0f bf
       -0.5546532 0.03793619 0.029861799 -0.5597099
000200 14 0a 59 bf 88 4b 79 bf 4a e0 20 bf f3 89 8b bf
       -0.84781003 -0.97380877 -0.6284224 -1.0901474
000210 d7 a7 25 bf 18 da a4 be 93 db 8a be af 80 52 bf
       -0.6470923 -0.32197642 -0.27120647 -0.82227606
000220 e5 00 2f be d1 9f 3d 3e 39 5e a4 be 1c d1 82 be
       -0.17090185 0.18517996 -0.32103136 -0.25550163
000230 ea f3 a2 be a0 b2 27 bf fc 5a c6 be b3 af 21 be
       -0.31826717 -0.65506935 -0.3874129 -0.1578968
000240 4c 21 46 bf fd a9 b5 3e 07 1d 1f bf 65 2f 17 bf
       -0.77394557 0.35481253 -0.6215367 -0.59056693
000250 e8 93 0e bf 71 9e 5f bf a4 d4 e6 3d 9b de 8e be
       -0.5569444 -0.8735114 0.11271027 -0.2790421
000260 1c 33 4d be c3 c2 87 be b7 7d 20 bf cf 5b 93 bf
       -0.20039028 -0.2651578 -0.62691826 -1.1512393
000270 36 1d c2 be 7f 0e 6a be 83 8a 3b be db f5 06 c0
       -0.3791291 -0.22857092 -0.18314557 -2.1087558
000280 77 2e 1d bd 1e 9d d4 bc d2 f2 49 be 19 80 b5 3d
       -0.03837439 -0.025953826 -0.19721535 0.08862323
000290 48 11 51 bf eb c5 b3 3e 6e 56 4f 3e 61 c5 1f bf
       -0.81666994 0.35111937 0.20247814 -0.6241055
0002a0 2c f7 95 3e 03 9a 35 bf 38 69 0d bf d4 ae 4a bf
       0.2929014 -0.7093813 -0.55238676 -0.79173017
0002b0 53 28 05 bf d0 f3 6b bf d1 b6 53 bd 12 38 7e be
       -0.52014655 -0.92168903 -0.05168802 -0.24826077
0002c0 0b 3d c3 3e fd 15 a3 be a5 89 dc be 42 31 b6 3d
       0.3813251 -0.31852713 -0.43073764 0.08896114
0002d0 ad b9 0d bf f7 8c 50 be 5a ca 0e bf 65 f7 29 bf
       -0.55361444 -0.20366274 -0.55777514 -0.6639312
0002e0 52 9d 5c 3e 71 a9 b1 3e bc b7 77 3e f0 7e 90 3e
       0.21544388 0.34699586 0.24191183 0.28221846
0002f0 a4 52 49 bf a1 3d a2 3e 88 da 1c bd 4b 3e 67 bf
       -0.78641725 0.31687644 -0.038294345 -0.90329427
000300 1a aa 83 bf 20 cf c9 3e ad 69 15 bf 1c 67 50 be
       -1.0286286 0.39415836 -0.58364373 -0.20351833
000310 1a f8 47 bf 62 81 3b be 4d f9 fc 3e 1d c7 ca 3d
       -0.7811295 -0.18311074 0.4940895 0.09901259
000320 d3 33 b4 3e 57 a1 c5 bb 4e 30 da bd 2c 16 1b be
       0.3519579 -0.006031196 -0.10653745 -0.15145177
000330 f6 8f 04 bf d6 f3 06 bf d2 11 0b bf 24 d4 9b be
       -0.51782167 -0.52715814 -0.54324067 -0.30435288
000340 46 32 05 bd 16 0b 63 bc b8 b9 32 bf 86 fe eb bf
       -0.032518648 -0.013857624 -0.69814634 -1.8437049
000350 8d 99 af bc 7b d9 21 be e3 e2 f9 3b e0 bf 85 bf
       -0.021435523 -0.15805618 0.007625924 -1.0449181
000360 3b 03 5d 3f 2b f2 17 bf 64 29 ac 3e 3b 31 be be
       0.86333054 -0.59353894 0.3362533 -0.37146935
000370 8d 9c 2a bf 95 d6 ce be af 86 15 bf e0 ab aa bf
       -0.6664513 -0.40398088 -0.58408636 -1.3333702
000380 b7 db 23 bf ae f4 0b bf 83 32 7c be 42 c5 e2 be
       -0.64007133 -0.54670227 -0.24628644 -0.4429112
000390 db 80 ce be 4f 61 b1 bf 36 b9 a5 be 6d 6d 29 be
       -0.40332684 -1.3857821 -0.32367867 -0.16545649
0003a0 1f 5f 88 bd 34 ba 07 bf 3a 46 24 3e 66 b0 bb be
       -0.06658768 -0.530185 0.16042414 -0.3665802
0003b0 a5 b2 78 bd ce 29 c2 be 3c 17 80 3e 63 d3 05 bf
       -0.060717244 -0.3792252 0.25017726 -0.52275676
0003c0 05 90 48 bf d2 1f 5e be 85 8c a2 bf 21 f4 90 be
       -0.78344756 -0.21691826 -1.2699133 -0.28311256
0003d0 e8 cd 42 3e df 92 57 bf 47 be 9f be 75 60 8a 3e
       0.1902386 -0.8420848 -0.31199858 0.27026716
0003e0 8d 0c 8b 3c 66 b5 05 3e 7e aa 5e bf fa c8 94 bf
       0.016973758 0.1305748 -0.869789 -1.1623833
0003f0 a4 68 5c be 2d b0 a2 bf 1e f6 8c bf c7 08 2e bf
       -0.21524292 -1.2710015 -1.1012609 -0.67982143

fc2.bias f4 [128]
000000 d2 cd 37 bf 6a a7 61 bf b0 ba 2e be 39 0c 5a 40
       -0.7179843 -0.8814608 -0.17063403 3.406996
000010 11 f5 1d be 81 f5 01 bf 8e 31 48 bf 90 9c be be
       -0.15425517 -0.50765234 -0.78200614 -0.37228823
000020 96 29 08 be 74 af be bd 7f 00 01 be 12 6c d8 bd
       -0.13297114 -0.09310809 -0.12597845 -0.10567488
000030 7f 92 99 bd a2 81 34 c0 0a 3c 19 c0 b4 34 2b be
       -0.07498645 -2.8204122 -2.3942895 -0.16719323
000040 6b 53 d6 bd 90 18 1c 40 32 af 21 bf 08 a0 14 be
       -0.104651295 2.4389992 -0.6315795 -0.14514172
000050 7c cd 17 be 01 6f 29 3f 7b af c1 bd 4b fe 0c be
       -0.1482448 0.66185004 -0.09457298 -0.1376888
000060 ce 95 25 40 ca ad bf be aa 35 1f be f7 66 95 be
       2.5872684 -0.37437278 -0.15547815 -0.29180118
000070 99 c0 06 bc 19 98 0f bf 27 46 11 be b5 0c 95 bf
       -0.00822463 -0.5609146 -0.14186917 -1.1644503
000080 25 c2 e9 bd 8e f7 d3 bd 67 77 8e 3f 1b 80 0f be
       -0.11413983 -0.10349952 1.1130189 -0.14013712
000090 e9 02 6c be 08 dc 13 be 71 7a c1 bd c4 20 35 be
       -0.23047985 -0.14439404 -0.09447182 -0.1768828
0000a0 77 d6 95 bd 26 94 be 3e c6 8e 30 40 44 ad 39 be
       -0.073162965 0.37222403 2.7587142 -0.18132502
0000b0 3e ea 31 be 19 fe f9 bd 99 38 15 be b8 f3 22 40
       -0.17374513 -0.122066684 -0.14572372 2.5461254
0000c0 a3 5f 4d be db 4e 98 bf 5a fe 26 be 1c 9b e0 bd
       -0.20056014 -1.1899065 -0.16307965 -0.10967085
0000d0 4e b8 8d be 10 70 d0 bd 07 77 1d be 4b bd 66 be
       -0.27679676 -0.10177624 -0.15377437 -0.22533147
0000e0 a0 6d 66 be 64 c8 81 be 3d 86 2c bf 4e 42 9a 3f
       -0.22502756 -0.25348198 -0.6739233 1.2051485
0000f0 6a b7 27 be fb 3c 1c bf fc 25 20 be 70 c9 63 be
       -0.1637856 -0.6103055 -0.1563949 -0.22244811
000100 95 0d e4 bd f6 85 0a be 0f 62 b2 be 13 35 4e be
       -0.11135403 -0.13527665 -0.34840438 -0.20137434
000110 47 d6 00 bf 7e ca 20 be 5f 1f 0b bf ea 7a 9e 3f
       -0.5032696 -0.15702245 -0.54344743 1.238126
000120 de fe 83 bf bf 27 eb bf 9c c1 07 be 7a e5 b6 bd
       -1.0312154 -1.8371505 -0.1325745 -0.08930488
000130 5d 09 35 be 82 ca e4 be 7d 7b 58 be 56 6e 2e bf
       -0.17679353 -0.4468575 -0.21140857 -0.6813711
000140 3d 24 82 be 1a f8 65 be cd c7 f2 bd 65 78 7b be
       -0.25418273 -0.22457924 -0.11854515 -0.24557646
000150 ec d9 49 be 3a f8 2b be 5d 43 e7 bd 3a fa 5d bf
       -0.19712037 -0.1679391 -0.112921454 -0.8670994
000160 b1 3e 52 be 76 e8 6c 40 99 b6 1c be 2f 56 20 c0
       -0.20531727 3.7016883 -0.1530403 -2.5052602
000170 22 29 cc bd 84 b3 b9 40 bd 6e 5e be 17 8d 8a be
       -0.09968783 5.8031635 -0.21721931 -0.27060768
000180 5b 5f a2 be 89 84 dd bd d9 d0 3b 40 e1 9f 5a bf
       -0.31713375 -0.10816295 2.934622 -0.85400206
000190 16 ff 3b be 9b fd 42 be 21 9b db bd 42 6d e4 be
       -0.18359026 -0.19042055 -0.10722948 -0.44614607
0001a0 78 c6 16 be c1 fd 19 be 52 f6 87 3b 2e c1 39 be
       -0.14724147 -0.15038206 0.0041492367 -0.18140098
0001b0 21 74 1f be 5f 40 a0 be 9e 91 d2 bc 06 b8 41 3f
       -0.15571643 -0.3129911 -0.025704201 0.7567142
0001c0 67 ed be bd b1 38 0f be bb 21 23 be a6 1f c5 3f
       -0.09322625 -0.1398647 -0.15930836 1.5400283
0001d0 48 ca 52 3f cb 09 c7 be 7a 20 78 be c8 fb 1f be
       0.82339907 -0.3887466 -0.24231139 -0.1562339
0001e0 d6 89 28 be 74 dc 49 be 84 67 d8 bd dd ab 8f 40
       -0.1645883 -0.19713002 -0.10566619 4.4897294
0001f0 b5 1a 8c be 51 2c 1e c0 47 80 11 3f e6 53 93 bf
       -0.27364126 -2.4714549 0.5683636 -1.1509979

fc3.weight f4 [1, 128]
000000 18 f2 80 bd cb 93 88 bd bd a1 b8 3c 67 8b 3d 3c
       -0.06296176 -0.06668814 0.02253806 0.011568881
000010 af b0 ef bc 7c b5 ac bd ba 1f 9d 3c 37 d8 0a be
       -0.029259054 -0.08433053 0.019180167 -0.13559042
000020 46 c5 d2 ba d7 87 9f 3b c1 c0 8e 3b 73 28 83 bc
       -0.001608052 0.0048684883 0.004356474 -0.016010499
000030 59 d1 06 3d 53 8b c1 bc ef fe 59 bc f2 9f 2a bc
       0.032914493 -0.023626005 -0.01330541 -0.0104141105
000040 63 79 45 bc b1 7a d9 3c 48 5f ad bc f0 ab 81 bc
       -0.012052867 0.026547762 -0.021163598 -0.015829057
000050 fb c9 5f bb 1b 32 0a 3d f6 ab 59 bc 22 92 af bc
       -0.003414749 0.03373919 -0.013285628 -0.021431986
000060 18 59 f0 3c 77 d8 16 3d 3d f6 c7 bc f1 b9 c4 bd
       0.029339358 0.03682753 -0.024409408 -0.09605778
000070 cb a7 ce b9 29 c4 58 3b dd 43 88 bc d9 a1 e4 bc
       -0.00039416397 0.0033075905 -0.016633922 -0.027909206
000080 df 0b ca 3c 2f 6e b4 ba ea 12 eb 3c e4 b1 f1 3c
       0.024663864 -0.0013765747 0.028695542 0.02950377
000090 db b1 0b 3c 17 32 c9 3c 06 65 b9 bc 01 23 1b bd
       0.008526291 0.024560018 -0.02263118 -0.03787518
0000a0 8f 2c a0 bb a4 cd 9a bc bc 46 07 3d 32 ca 09 bc
       -0.0048881243 -0.018896885 0.033026442 -0.0084100235
0000b0 5b bb d2 39 8f 55 c4 bb 49 31 88 3c dc 0a a7 3c
       0.00040193912 -0.0059916447 0.016625063 0.02039092
0000c0 0c 27 d1 3c 2b 7e 4d 3c d2 85 ea 3b 9c 2e 95 3c
       0.025531314 0.012542288 0.007157066 0.018210702
0000d0 35 c2 fb 3c 96 4b 4f 3b 5f c7 69 3c e0 b2 81 bc
       0.030732254 0.0031630746 0.014268725 -0.015832365
0000e0 df 2b 28 3c a9 37 d6 bc fe dd c3 bc b9 03 8f 3c
       0.010264366 -0.026149588 -0.023909565 0.01745783
0000f0 7b f9 b1 bd 14 aa 23 bc 04 92 51 3c 7b 90 e8 bb
       -0.08690163 -0.00998928 0.0127911605 -0.0070973015
000100 cd 62 76 3c 45 5c 75 3a 38 e0 fa bc 12 a4 e4 3c
       0.015038204 0.00093597575 -0.030624494 0.027910266
000110 e6 42 05 be 0e 25 8b bc 61 de 51 bd da 98 b9 3c
       -0.13013801 -0.016985442 -0.051237468 0.022655893
000120 c8 c6 d0 3d e3 7e 8c bc ed 46 cf b9 d3 7e 10 3c
       0.101941645 -0.017150348 -0.0003953496 0.0088193
000130 7b e1 7b ba ad 14 a9 bd 26 4c 2b 3b a3 df bd 3b
       -0.00096084893 -0.08255897 0.0026137917 0.005794482
000140 07 92 83 bc 1e de 7c bc c3 2e 98 bc 50 bc 93 3b
       -0.016060842 -0.015433816 -0.018576985 0.0045085326
000150 cd 7d ab 3c a4 bc 87 3b 8b ca 29 bc eb 1b e9 3c
       0.02093401 0.0041423608 -0.010363231 0.028455695
000160 3e 4d f1 bc bc 66 68 3d 78 8f c6 bc 78 87 89 bc
       -0.029455777 0.0567386 -0.024238333 -0.01678823
000170 1d 49 df 3c 40 e8 9c 3d b9 64 e4 bb e4 a5 fd bc
       0.027256543 0.07661486 -0.006970015 -0.030962892
000180 a0 05 11 bc 15 42 72 3c aa 25 10 3d 45 db a6 3c
       -0.008851439 0.014786263 0.03519217 0.020368228
000190 50 a6 3a bc e3 aa 93 3c ee a4 0e bc 60 9f 5d bc
       -0.011392191 0.018025821 -0.0087063145 -0.0135267675
0001a0 5d 72 0e 3c 35 da dd bb b2 75 45 bc e3 23 81 bc
       0.0086942585 -0.006770397 -0.0120519865 -0.015764182
0001b0 2a 5b 19 3c 00 0d c1 3c 6a 95 3c 3c cd e5 c4 3c
       0.009360114 0.02356577 0.011510232 0.024035359
0001c0 5a 31 a5 bc 96 81 18 bb 42 8f 0b bc ea cd 0b 3d
       -0.020165134 -0.0023270599 -0.008518042 0.03413192
0001d0 be 4a aa 3c ad 2f c3 3b 7f e0 64 3d 7c ad 5a bc
       0.020787593 0.005956611 0.05587816 -0.013347026
0001e0 57 cc d3 bb a1 ad 67 bc 50 5d 79 bc 7c 92 01 3d
       -0.006463568 -0.014140517 -0.015220001 0.03163384
0001f0 0b 15 cf 3c 41 e8 8a bc c3 c9 d2 3c 86 c2 b4 3c
       0.025278589 -0.01695645 0.025730973 0.022065412
