p2_continuous-control/critic.pth (torch_old, 174505 bytes, 9 tensors)

fcs1.weight f4 [256, 33]
00000000: e148 afbf 081c b63e 6bc0 10bf 1851 e73e
00000010: 4592 05c0 3cd8 95c0 63f7 9bc0 541f cb3e
00000020: 4252 813f 8198 87be f2cb 9ebe 406b 2fbe
00000030: a280 993e 6be2 dcbe e291 0dbf 40bf b33f
00000040: 974a 39bf 6825 babe afad 523f 3f1f 9440
00000050: dae1 3bbe 80e4 f13c 085a a83e 3562 22bf
00000060: a705 12bd 1809 463f 6d94 813f c9d2 343a
00000070: e496 213f c096 ec3c 8591 823b b02b c53c
00000080: 45a8 0240 2421 8a3e 5eab 0e3f 1246 0f3f
00000090: ded6 a03d 37f7 a4bf 72c9 843f cdc3 453f
000000a0: 07ed 9f3e 9f4a 12bf 2f25 f43e 11d5 433d
000000b0: 063c 193e b81a aebd 88c2 83be 458e dabd
000000c0: 8061 0f3f cfb7 b13e a3b6 f83b ed56 d6be
000000d0: 589d abbe 249f 91be 441b 82be 97ea f6bd
000000e0: b1b3 c4be 8c09 6c3e 9ac4 823d 125f 96bf
000000f0: 8ab1 f9bb cc71 b1bf 80d1 18bd 6220 323d
00000100: e8a5 f73c 7b9b 32c1 44c5 29c0 5e89 cebf
00000110: 2c17 e2bf 6293 6d3f 26cb ff3f 0898 dcbe
00000120: 8111 dd3d 7d5d a7bd 5512 2ebc 776e c33f
00000130: cfdf 8cbe 586a 8ebe 6588 c53d f34c 0c40
00000140: 5bc6 943f f2a3 993f 645a 0f3d a624 c53d
00000150: 7300 923e 7ddc 14be 4167 123e 6969 cc3e
00000160: 0c78 d0bd acc7 b63e 8644 3d3c 7fb1 9f3e
00000170: e205 b1bf ee9c 96bc e61f 823e b2f8 7dbd
00000180: 7e67 ea3c 64dc b53c 5676 18c0 d995 e53e
00000190: 7ff4 e5be 397b 96bf 658c 83bc afaa d0bf
000001a0: 05c7 dbbf 6f41 cebf 90a8 453d 0d08 8d3f
000001b0: 6066 28bf d835 28be e218 78bf 4d84 84bf
000001c0: fc1f 593f e9c4 4940 ed6a 53bf 34ed 303f
000001d0: 1c3f 413f 5a15 edbf cdd9 d4bf 907b 22bf
000001e0: c449 163f 6964 2abf 1521 ae3f 382b aabf
000001f0: b514 a13f d27a 883f a6a8 eabb ef42 453d
00000200: 787a 24bc a877 b73c d0c4 ae3c 01b6 893f
00000210: 2edb 313f dd07 3440 ba37 20bf 6e0d d7bf
00000220: 7218 1140 75f6 b0be 80c2 2c40 a778 1d40
00000230: 307a 2abe e43e 7d3f e342 65be 4158 3b3e
00000240: 0eb2 c0bf a637 d0bf 38e7 743f 29fd 85be
00000250: 1cbb 61c0 3683 f63f 1f72 04c0 de6c babe
00000260: 94eb 14bf 8b98 acbf 6c41 26bd 767b ec3e
00000270: 95d6 59be 9575 81bf eea7 3e3f 4f46 453d
00000280: abf2 0bc0 2606 11bd e203 a93c 7239 3dbd
00000290: d120 083f c424 a1be c09a 623f 92f2 a93f
000002a0: 8bcd ccbe 40d9 173f bd5c 8a3f 7de3 c1bf
000002b0: e1d1 e5be 29e5 9d3f 62e2 0540 fafb e43e
000002c0: 9ed7 2ebe 1d19 343f 0084 213f 017b 01bc
000002d0: 6f7a 1440 5dbb aa3e c829 9f3f f71d 0fbf
000002e0: 21a2 16c0 84ef 6f3f 7361 6ebf 2df4 8a3e
000002f0: 8224 3f3f ca2d 07bf 03c6 1abe 8455 8c3e
00000300: 6aa8 81bc 681f 17c0 6ea9 25bd 9004 453d
00000310: c008 7a3b 4f3c 5a40 bda4 73c0 6875 bc3f
00000320: a9a9 b93d 2579 ccbf c6a9 d7bf a6ac d9bf
00000330: 0f43 88c0 00d8 ee3e 1f20 c43f db59 32bf
00000340: e18c 91be fd42 3d3e b4cf a9be 3334 623d
00000350: 7372 a8bf fcd6 2b40 434c 65be 368f 343e
00000360: ed09 123f 279d b73f 7121 01be e9be 8dbe
00000370: ea98 e13d 9d42 e2bd 67f8 61be 5565 c9bc
00000380: d31b 37bf 0cae d1bc 88f1 41bf 18af 1e3c
00000390: 5779 753d ee37 0b3d df71 ea3e b11e 3bbc
000003a0: 851e c1bc 93f0 b93c 88ae 86bd f9c3 a6bd
000003b0: 1511 9b3d 4c82 77bd c620 42bd d9dd b43d
000003c0: 8bd5 b6bd 3d88 273d 1165 173c c6f4 b83d
000003d0: 21e3 933d 750a 95bd e218 dd3d 7245 01bc
000003e0: ae95 7f3d 0ba2 2a3b b6fd 02bd 42bc 8b3d
000003f0: ee1c fcbc d0f3 5bbe 816c 393e 9138 03be
-1.3694116 0.3556826 -0.56543607 0.45179057 -2.0870526 -4.682646 -4.8739486 0.3967234
1.0103228 -0.2648354 -0.31014973 -0.17130756 0.29980952 -0.43141493 -0.55300725 1.404274
-0.7237944 -0.36356664 0.8229627 4.628814 -0.18347874 0.029527903 0.32881188 -0.634311
-0.03564992 0.77357626 1.0123421 0.00068978645 0.63120866 0.028880477 0.0039846324 0.024068683
2.0415204 0.2697841 0.55730236 0.55966294 0.07853483 -1.2887944 1.0373976 0.77251893
0.31235525 -0.5714511 0.4768462 0.047810618 0.14964303 -0.0850119 -0.25734353 -0.10671667
0.5600815 0.34710547 0.0075901314 -0.41863194 -0.3351848 -0.28441727 -0.25411427 -0.12056463
-0.38418344 0.23050517 0.06385155 -1.1747763 -0.0076200413 -1.3862853 -0.03730917 0.043487914
0.030230477 -11.162959 -2.6526651 -1.6135671 -1.7663321 0.92803013 1.9983871 -0.4308474
0.10794354 -0.08172128 -0.010624488 1.5268086 -0.27514502 -0.2781551 0.09645156 2.1921966
1.1623033 1.2003157 0.034998313 0.09626131 0.28515968 -0.14537235 0.142972 0.39924172
-0.10179147 0.35699213 0.011551982 0.31190106 -1.382992 -0.018385377 0.25414962 -0.062004752
0.028613802 0.022199817 -2.3822227 0.44840887 -0.44913098 -1.1756355 -0.016058156 -1.6302088
-1.7170111 -1.6113719 0.048256457 1.1018082 -0.6578121 -0.1642679 -0.9691297 -1.0352875
0.8481443 3.1526434 -0.8258503 0.69111943 0.7548692 -1.8522141 -1.6628968 -0.6346979
0.5870631 -0.66559464 1.3603846 -1.3294439 1.2584444 1.0662482 -0.0071612177 0.048159536
-0.010038964 0.022395924 0.021334082 1.0758668 0.69475067 2.81298 -0.6258503 -1.6800973
2.267117 -0.34563032 2.6993713 2.460489 -0.16648173 0.9892409 -0.22388797 0.18295385
-1.5054338 -1.6266983 0.9566531 -0.26169708 -3.5270452 1.9258792 -2.0694654 -0.36411184
-0.58171964 -1.3484052 -0.040589735 0.46187943 -0.21273263 -1.0114008 0.7447499 0.048162755
-2.1866863 -0.035406254 0.020631734 -0.046197362 0.53175074 -0.31473362 0.8851738 1.3277152
-0.40000567 0.5931587 1.0809551 -1.5147549 -0.44886687 1.2335559 2.0919423 0.44723493
-0.17074439 0.7035082 0.6309204 -0.007902862 2.3199728 0.33346072 1.2434626 -0.559051
-2.3536456 0.93724847 -0.93117446 0.27139416 0.7466508 -0.52804244 -0.15114598 0.27408993
-0.015827376 -2.361292 -0.040444784 0.048100054 0.0038152188 3.409931 -3.8069298 1.472333
0.09065563 -1.597447 -1.6848686 -1.7005813 -4.258186 0.4664917 1.5322303 -0.6966836
-0.28427795 0.18482585 -0.33166277 0.055225562 -1.3159927 2.6849966 -0.22392373 0.17632756
0.57046396 1.4344834 -0.12610413 -0.27684715 0.11015494 -0.11047862 -0.22067414 -0.024584452
-0.7152683 -0.025595687 -0.7575917 0.0096853 0.05993017 0.033988886 0.45790002 -0.011420892
-0.023574123 0.022697723 -0.06576258 -0.081428476 0.075716175 -0.060426995 -0.047394536 0.088313766
-0.08927449 0.04090141 0.009240405 0.09031062 0.07221056 -0.07277385 0.10795762 -0.007890092
0.062398605 0.0026036527 -0.03198024 0.06823017 -0.030775513 -0.21479726 0.18107797 -0.12814547

fcs1.bias f4 [256]
00000000: 396d 2bbe bd57 2dbe b965 293e 13df 093d
00000010: 01a9 70bd 686e 1e3e 6142 f4bc 1979 9d3c
00000020: 8f4b 31be 9c6e 25be c325 2fbe 5eb0 7a3d
00000030: b6d2 f13d 46e1 ccbd 4ad6 9c3d da2c 303e
00000040: 56f7 2c3d 8db8 fc3b 610e 33bd 5ca7 ee3c
00000050: 50ea 073e cc91 e33d 97b4 2dbe ed9f 883d
00000060: c128 b8bd d41d 0b3e eb76 fabd 5b07 2cbe
00000070: 45ca b53d eb88 6bbd 0038 833b 659d a7bc
00000080: 5bf6 8c3c 6b56 55bd 792e f73c 0835 a4bd
00000090: 602d e43d 4b31 903d ea6c cdbd 7f0c 12bd
000000a0: 6def 8aba 0dd6 47bb 8278 0c3e 6318 87bd
000000b0: 3e4f aa3d 94f8 01be 8eed 3039 a162 e6bd
000000c0: ca07 fabc 5261 773d 5a39 24bd a3a1 143e
000000d0: d9f3 18bd 7335 bb3d 0518 80bc 343f 01be
000000e0: 90e9 333d a10b 7cbd 0c0a b73d 1bf3 66bd
000000f0: cf0d 04be 956b 1f3e 137e 2fbe 9099 e13c
00000100: 4452 2c3e c836 e5bd 6de8 2fbe 540f f93d
00000110: 63d9 a93c 5ecd f23d b737 163d c38e 753b
00000120: 7897 7b3d 57ac 2fbe 8440 983d b75a 92bd
00000130: 5341 dabd 2825 473d c82e b53b 5034 183e
00000140: ef88 d0bd d0c8 13be 9957 9f3c 2594 793c
00000150: 9f73 bebd ccbd 7cbd 76a3 0e3e 6388 0d3e
00000160: 090a aabd 99b7 3abd 0ea1 52bd 1ca0 8dbd
00000170: 984d 2ebc 746e 553d 9f34 c6bd 102f 01bd
00000180: 37b0 22be afc4 df3d 4328 3cbd 628e e6bd
00000190: 8b29 283e 126e 803d 8b39 c03d 76fc f13d
000001a0: 5e14 6a3d 37d6 c4bd aac8 25be 5c8f 89bd
000001b0: 52b5 48bd 0a56 0abd 158d c73d 6c0a 29be
000001c0: 190f b73d 8538 c33d 819e 853c e1a4 11bd
000001d0: 3bf3 bd3d 2ccd e5bd 6064 4ebc 7e5a 753d
000001e0: 45d4 243d aef5 173c 2012 2e3d 5c30 0fbe
000001f0: 5d66 cc3d 8937 0abe 63b4 8b3d 6816 c5bc
00000200: f1d4 a0bd cd1f 6d3b 2a72 1dbd 12d0 213e
00000210: fd83 143e 6aa7 873d 4fb7 e1bb 0fdd 113e
00000220: a242 1abe f234 213e 1cf6 953d c12b f23d
00000230: 4d94 243e 179c 733c b516 453d c6d1 b73d
00000240: e655 f2bd 7c4b 2e3e 2a4b 2abc db98 813d
00000250: 3ef7 e8bd a138 1e3e 9818 073d 1cb0 09be
00000260: e9de f33d 35a4 6b3d 8f8e ad3d 2b35 88bc
00000270: 6a28 023d 2c3d f0bd 297d 193e b854 fc3d
00000280: 5fa2 bfbb 554c 1cbe c3e6 ebbd 3bd4 aabd
00000290: 41a5 ef3d 6866 e5bd 0540 aabd 7774 93bd
000002a0: 5343 0dbe 8ecc 863d 9bbc 6b3d 61ba 15be
000002b0: 1b1a 023e 4c9b cc3b e649 d4bd 24bd 153c
000002c0: a135 1a3d a2d6 583d 9b67 cdbd fe79 2e3e
000002d0: adc1 0b3e 2fd2 1e3e 1f35 0ebc 66f5 67ba
000002e0: cde4 09be 4fda 253e 8391 cdbc bc8e 35bd
000002f0: e5f4 2fbd e4b1 e6bd 39a8 13be 5584 b9bb
00000300: ecc0 12be bb2a b9bd ea87 e43d 0713 8a3d
00000310: 1232 04be 1a0d e8bc c2f4 94bd aa89 743d
00000320: 5ba3 82bc 572a 8d3d 404f 353d 354a 173d
00000330: 1d13 eb3d d6ca 833d eded 2ebe f451 1a3e
00000340: ad6f 12be 69d8 d43d 65a5 84bc 3dc3 ae3d
00000350: a210 85bd 2356 a2bc 3aeb 34bd 3944 243e
00000360: 1c71 d3bd c813 dd3d 4319 18be e452 6a3d
00000370: 6e72 17be 6661 c3bd ff02 c03d 34d2 e23d
00000380: d6f7 c3bc 502e 0fbe 028a 09be 095f 043d
00000390: f434 cb3d a0ed 953d 2841 2ebe d1c4 a4bd
000003a0: 1249 8c3d a9bd fb3d 80b5 bb3d 79d8 2ebd
000003b0: 0d28 bbbc 7772 6bbd fdc3 79bd 03fd febc
000003c0: 6cde 653d 8668 c2bb a92c 253d 938e 85bc
000003d0: 7243 b83d 036d 8abd cd0f 9e3c 4257 22bc
000003e0: 5741 f5bd bb5b c0b9 21a4 1a3d 3d78 f63c
000003f0: 8ae0 1a3d 8e79 b2bd b9f0 05be 33ca 763d
-0.16740884 -0.16928001 0.1654271 0.033660006 -0.058754925 0.15471804 -0.029816808 0.019222783
-0.1731398 -0.16155475 -0.17104249 0.061203353 0.11807768 -0.10003905 0.0765806 0.1720461
0.042228065 0.00771243 -0.043714885 0.029132538 0.13272977 0.11111793 -0.16963421 0.066711284
-0.08992148 0.13585597 -0.12229713 -0.16799681 0.088764705 -0.057503622 0.0040044785 -0.020460794
0.017207315 -0.052084368 0.030173527 -0.080179274 0.11141467 0.07040652 -0.10030539 -0.03565645
-0.0010599919 -0.0030492574 0.13717845 -0.06596448 0.083158955 -0.12692481 0.00016873164 -0.11249281
-0.030521292 0.060395546 -0.040093757 0.14514785 -0.037341926 0.09141054 -0.015636453 -0.12621766
0.043923914 -0.061534528 0.08937463 -0.056384187 -0.12895893 0.15568383 -0.17137937 0.027539045
0.16828257 -0.11192089 -0.17178507 0.12161127 0.02073354 0.11855577 0.036674228 0.0037469126
0.06142375 -0.17155586 0.074341804 -0.07146209 -0.10656991 0.04861942 0.0055292584 0.14863706
-0.10182368 -0.14432073 0.01945095 0.015233074 -0.09299397 -0.061704442 0.13929543 0.13821559
-0.08302695 -0.04558525 -0.051423125 -0.06915304 -0.010638617 0.05210729 -0.096780054 -0.031539023
-0.15887533 0.10926186 -0.045936834 -0.11257626 0.16422097 0.06270994 0.093859755 0.11815731
0.05714833 -0.09611171 -0.16189829 -0.06716797 -0.049001046 -0.03377346 0.09743706 -0.16507882
0.089384265 0.095322646 0.016310932 -0.03555763 0.09274908 -0.11220774 -0.012597173 0.059900753
0.0402415 0.009274883 0.042497754 -0.13983291 0.09980462 -0.13497747 0.068215154 -0.024058536
-0.07853115 0.0036182285 -0.038438953 0.15802029 0.14503475 0.066237286 -0.006888307 0.14244483
-0.15064481 0.15742853 0.07322332 0.11824752 0.16072197 0.014868758 0.04811736 0.08975558
-0.1183279 0.17020983 -0.010393897 0.06327983 -0.11375283 0.1545129 0.03298244 -0.13446087
0.11907751 0.057529647 0.084744565 -0.016626915 0.031776823 -0.117304176 0.14989151 0.12320846
-0.0058482136 -0.15263493 -0.11518624 -0.08341261 0.117014416 -0.11201173 -0.08312992 -0.07199948
-0.13795213 0.065819845 0.057552915 -0.14621879 0.12705271 0.006244099 -0.103656575 0.009139333
0.0376488 0.052939065 -0.10029527 0.17038724 0.136481 0.15509866 -0.008679657 -0.0008848518
-0.13466187 0.1619656 -0.0250938 -0.044325575 -0.04295816 -0.11264399 -0.1441964 -0.005661527
-0.14331406 -0.09041353 0.11158736 0.067419104 -0.12909725 -0.02832656 -0.07273246 0.0597016
-0.015947035 0.06892841 0.04426503 0.036936004 0.11478255 0.06435172 -0.17082949 0.15070325
-0.14300413 0.103928395 -0.016192148 0.085333325 -0.06497313 -0.019816464 -0.044169642 0.1604165
-0.10324308 0.107947886 -0.14853387 0.057207957 -0.14789745 -0.09540062 0.093755715 0.11075249
-0.023921888 -0.1398251 -0.13431552 0.032317195 0.099222094 0.07320714 -0.17017043 -0.08045352
0.068498746 0.12292034 0.09165478 -0.042686913 -0.022846246 -0.05748221 -0.060977925 -0.031126505
0.05612032 -0.0059328703 0.040325794 -0.016303336 0.08997239 -0.067590736 0.019294644 -0.009908499
-0.11975353 -0.00036689438 0.03775418 0.030086631 0.037811793 -0.08714591 -0.1308011 0.060251426

bn1.weight f4 [256]
00000000: dde2 0a3f 20c8 363f 5fdc 483f 1a65 a93c
00000010: acd1 0b3f eda8 0a3f 55c3 013f 6801 bcbb
00000020: c298 bc3e ea1e 523f 8ce8 083f c8dc b63e
00000030: e296 6d3f e009 3c3f 1f8d 913e a4e6 8e3e
00000040: 2604 2f3f 353b 273f bf53 063f dde9 113f
00000050: fc3c 3e3b 0acb ba3e 8df8 3a3b 248d 6bbc
00000060: af56 2e3f d962 e43e 97d4 103f 3b74 3a3f
00000070: a8c3 4d3f a365 233f 8499 5f3f c398 213f
00000080: 5da8 363f dfe4 933e 0d67 ec3e c965 d13e
00000090: c62c f13e 1ffb 703e 64f2 b63e 8eb2 233f
000000a0: 7e26 0c3f c669 013f 4eb1 c03e 45a9 043f
000000b0: 4928 dc3e 5517 0c3f 1722 023f 9257 323e
000000c0: 0866 213f 99a8 023f dbd6 453f 649b cb3e
000000d0: 15de e23e 28bf cf3e e686 b23e a7a2 e83b
000000e0: 222f a93e 1b07 d33e 2fb0 023a adcd 1d3f
000000f0: cc60 df3e 9943 9f3e c0c0 023f c07f 5b3f
00000100: ade7 363f 5ae7 393f 517e 0b3f 43e5 a93e
00000110: 3640 33bb 1b7c 553f c4ec d43e 1a92 183f
00000120: 3bd1 04bc 87de e23e 66dc 013f 806e 9a3e
00000130: 2661 383f b6df 2d3f 7b31 3b3f dff4 0e3f
00000140: dfce 6c3f 6608 b23e ec06 443f 863b c83e
00000150: fbf1 423f 5f05 283f e9bb b63e 4716 363f
00000160: 40c7 2b3f 7c4e 0d3f a131 983b e8f2 ca3e
00000170: 6608 943e fd35 f13e 7659 fb3e 25a0 fb3e
00000180: 31db 173f 3c3d bc3e 676c a33e c968 bb3e
00000190: 2ca9 913e e370 ef3e 7890 113f 8bb7 913e
000001a0: ab45 1f3f 34d5 df3e 1d1c 2f3f b387 bd3e
000001b0: 7666 cb3e e30e f93e 8cbe 153f 8627 513f
000001c0: 4bf7 e73e da6e 7b3e 3053 c63e f74b d13e
000001d0: 85f8 053f 6e5b 153f d218 223f 0b09 6f3f
000001e0: 0501 133f 0880 0d3f 66c1 ed3e ab5b e23e
000001f0: 1593 1e3e fba3 a03e 614f 523f 753a fb3e
00000200: 549f 3d3f 049a f03e 0c03 1e3f 8606 443c
00000210: da75 793e bd2d 5e3f 2cb6 4c3f 10bf 6c3f
00000220: a9be 9c3e 6db9 ce3e 3a9c c73e ee12 163f
00000230: 2d51 da3e 3c24 d43e 7144 483f 94ac 203f
00000240: baa6 1a3f ce5e 303f 56b7 493f 0e7c 8c3e
00000250: 518b e63e c48d 113f be47 cd3e 085e 653f
00000260: 53a5 273f 4e7d 353f a5ea e13e b71b b53e
00000270: fd80 f03e 3d3f fb3e 642b 143f f3e8 d13e
00000280: f53d 0d3f 934f 7d3e 16f5 3f3e 54c8 593e
00000290: ea06 043f 0aad 173c 2960 2c3f 081d 6b3e
000002a0: 3327 5b3e c047 b33e 31ef d53e 00bf 473f
000002b0: b98a bc3e 2d6b 2b3f 01c2 2b3f 5799 163f
000002c0: cf7c dd3e 69f2 3d3f ec9f 223f f8d4 f43e
000002d0: 1c14 1a3e d657 d33e 00ad e73e 28bf 003f
000002e0: fb31 563f 3a71 203f 7387 243f 82f9 0f3f
000002f0: 76d0 8c3e 6bba 4e3f 8b70 a63e 6e3a 083f
00000300: e5d3 2f3c 8fb7 b73e 2223 973e 63ce e83e
00000310: 632c 913e 0cc1 ea3e 47c9 e83e 2f50 053f
00000320: 8d83 063f 8746 fb3e ed24 d43e 6859 443f
00000330: 4c60 103f f483 663e 67f0 043f 0ddb db3e
00000340: 0ab6 1f3f 1f6d ff3e 602c 983e c67f d73e
00000350: 2828 a83f 9745 173f ce8a 713f f381 ea3e
00000360: e589 253f 1352 bf3e 6652 163f b70d 623e
00000370: 9388 343f b081 833e f993 413f 8a0b 0b3f
00000380: 8968 0a3f 8719 693f 831a fd3e b89f ab3e
00000390: bacb bf3e 6cac bd3f f4d7 463f 694a ec3e
000003a0: 77b2 2c3f 8018 073f 01f3 d63e c8d3 0540
000003b0: d20b 363f 8095 813e c250 723e 3621 993d
000003c0: ecb5 d43e 5e5c 143f 85e0 693f bcd7 083f
000003d0: 54aa 283f 3bf3 383f 9398 d03e c3d6 393f
000003e0: 46b4 2e3f c6ab d03e a93c c43e af41 863e
000003f0: b926 0b3f ae1a 2f3f 50f6 2a3f 2762 fb3e
0.54252416 0.71399117 0.7846126 0.020678092 0.5461681 0.5416401 0.5068868 -0.0057374723
0.36835295 0.8207842 0.5347984 0.35715318 0.92808354 0.7345257 0.2842798 0.2791034
0.68365705 0.6532472 0.52471536 0.5699747 0.0029028049 0.36483032 0.0028529495 -0.014376912
0.6810102 0.44606665 0.56574386 0.72833604 0.8037667 0.6382696 0.8734362 0.6312372
0.7135065 0.28885552 0.46172372 0.40897968 0.47104472 0.23533295 0.35731804 0.6394433
0.54746234 0.5055202 0.37635273 0.51820785 0.42999485 0.547231 0.50833267 0.17416218
0.6304631 0.5103851 0.7728097 0.3976699 0.4431006 0.40575528 0.34868544 0.007099468
0.33043772 0.4121636 0.000498536 0.6164196 0.43628538 0.3110626 0.51075363 0.85741806
0.7144726 0.7261864 0.5448962 0.33182725 -0.0027351505 0.83392495 0.41586888 0.59597933
-0.008106525 0.443104 0.50726926 0.3016243 0.72023237 0.6791948 0.73122376 0.55842394
0.9250316 0.34772032 0.7657306 0.39107913 0.7615048 0.65633196 0.3569024 0.7112774
0.67100906 0.5519788 0.004644588 0.39638448 0.28912657 0.47111502 0.4909169 0.49145618
0.59318835 0.36765468 0.31918642 0.36603382 0.2844938 0.46765813 0.56861067 0.28460345
0.6221568 0.4371735 0.6840227 0.37017593 0.3972661 0.4864417 0.58493876 0.8170093
0.45305857 0.24554005 0.38735342 0.4087827 0.52332336 0.58342636 0.6331912 0.93373173
0.5742343 0.55273485 0.46436614 0.44210562 0.15485795 0.31375107 0.8215237 0.49068037
0.7407124 0.46992505 0.617234 0.011964446 0.24361363 0.8678854 0.7996547 0.9247904
0.30614212 0.40375844 0.3898638 0.58622634 0.42640057 0.41433895 0.78229433 0.62763333
0.60410655 0.6889466 0.78795373 0.27438396 0.45028165 0.5685694 0.40093797 0.89596605
0.6548664 0.70894325 0.44124332 0.35372707 0.4697341 0.49071684 0.5787871 0.4099804
0.55172664 0.24737386 0.18745837 0.21267825 0.5157305 0.009257564 0.6733423 0.22960293
0.21401672 0.35015678 0.4178405 0.7802582 0.36824587 0.6696041 0.670929 0.5882773
0.43259284 0.74198014 0.6352527 0.47818732 0.15046734 0.4127795 0.45249176 0.5029168
0.83670014 0.6267277 0.6426918 0.56240094 0.27502793 0.807532 0.32507738 0.53214157
0.010731672 0.35882232 0.29518992 0.4546996 0.28354177 0.45850408 0.45466062 0.52075475
0.5254448 0.49077246 0.41434422 0.76698923 0.5639694 0.22511274 0.51929325 0.4294056
0.62387145 0.4988794 0.29721355 0.4208967 1.3137255 0.5909056 0.94352424 0.45802268
0.64663535 0.37367305 0.5871948 0.22075544 0.70520896 0.2568488 0.75616413 0.5431448
0.5406576 0.91054577 0.4943429 0.33520293 0.3746012 1.4818244 0.7767327 0.4615052
0.67459816 0.5277176 0.41982272 2.091051 0.71111786 0.25309372 0.23663619 0.074770376
0.41545045 0.5795344 0.91358215 0.53454185 0.658849 0.7224614 0.40741405 0.72593325
0.68243825 0.40756053 0.3832753 0.26221988 0.5435596 0.68400085 0.66782093 0.49098322

bn1.bias f4 [256]
00000000: 27d8 5bbf a2ab 32bf 8fb4 5bbf 3aa9 8fbe
00000010: c702 81bf fb83 58bf 4d5d 34bf acc5 0dbe
00000020: 88be 69bf 8e92 86bf b3c7 44bf f9bb 01bf
00000030: 2c91 1dbe e1e4 fdbe 9583 02bf 2fc8 b6be
00000040: d8d9 8cbf 0c23 67bf 3cf8 acbf 8721 a4bf
00000050: df4c 88bc 07bb 77bf fd77 8ebd 1144 a2bd
00000060: 0d31 90bf 949d 13bf dc7d 4ebf 3584 dcbf
00000070: 41aa acbe 91d3 39bf 96db bbbe 9742 5bbf
00000080: dce7 91bf 4570 b3bd 72d6 29bf 03ef aabe
00000090: fdc0 f4be 94dc a1bd ca8c e7be cc6b 6ebf
000000a0: 6d8c 5ebf adeb 5bbf f552 aabe 06c6 33bf
000000b0: 3d0d 6bbe 65db 66bf 3f24 04bf 0185 01bf
000000c0: 741b 3fbf 9e0f 22bf 0518 43bf 29c6 53bf
000000d0: b7b5 9fbe 837c 14bf 982c c4bf 6906 8ebd
000000e0: 6614 d0be 6c77 11bf 524d 3abc f743 8fbf
000000f0: 740d 0fbf 95e7 2ebf 79a7 15bf ec86 9bbf
00000100: bdc1 cebf 7206 99bf 14bf 49bf cb1e 29be
00000110: 5195 8dbd 738a 96bf 6805 1fbf 4ad2 22bf
00000120: c3c2 b7bd 47b0 cabe c498 86bf 8b61 debe
00000130: 4307 cbbf 0f14 1fbf ef25 64bf 95a3 8abf
00000140: c222 92bf f25c 0dbe 9684 81bf 806c 04bf
00000150: 9223 28be 1190 06bf 4c71 6fbe 104f 6cbf
00000160: 18eb 5ebf abc0 ecbe 5c1b bbbc cabd 91bf
00000170: fad3 a1be d6d0 12bf 70d9 b7be 13fd 89bf
00000180: d5d7 51be 82d8 cfbe 05dc 1dbc 5fe5 18bf
00000190: d1b8 15be 92e3 38bf ed23 5cbf 939a 15be
000001a0: d4fe 72bf b3a2 adbe 587d 8abf 4f16 febe
000001b0: 913a 10bf 475d 53bf 0767 4abf 0c83 7dbf
000001c0: 9fed d2be 52da 8ebe b968 efbe 6bde d43c
000001d0: decd 03bf 6601 37bf 472c 88bf e04d 83bd
000001e0: 024b 9abf 9e5e 11bf 374e 1dbf 635c 63bf
000001f0: 0858 11bf 9639 0bbf 9710 dfbb 719e 65bf
00000200: a190 9abf a863 e1be 6e05 47bf 4471 c6bd
00000210: c9fd 8abd 5890 2ebf 6753 a8bf 694b 4dbf
00000220: 8f3b 93be 6476 e5be c067 39bf 9322 2ebf
00000230: 7d50 d9be 0fc9 4fbf 8ef9 22bf 6bab 4bbf
00000240: b6c5 28bf 9cc6 4abf 09fa 56bf 71f8 9ebe
00000250: be8a bfbe 85b7 53bf 5e44 afbe a2d0 75bf
00000260: 4dc7 66bf a077 173f 3555 55bf 3260 96be
00000270: 63ad 16bf 6fbd 2abf 0138 71bf 6cbf adbe
00000280: 8a59 a0bf 1316 94be 1e61 21be 78bd d7bd
00000290: 07b5 cbbe e495 debd 371f 23bf 577b 31be
000002a0: 9c30 5abe b302 84bd d29b 96be 82ef 4abf
000002b0: 8fb7 26bf 70fe 6abf 8628 6dbf 2c0c 50bf
000002c0: aa8c 34bf 69fb 8dbf 2df2 65bf 103d a9bd
000002d0: 63f2 473d 60ea 7cbe 8d8f 07bf ac0a 4bbf
000002e0: c694 68bf 5a76 4dbf 7ba1 a5be 9422 92bf
000002f0: 0d17 c4be 1390 56bf 1e7c b2be fa37 2bbf
00000300: e356 babd e63b 27bf 4466 9b3e cef4 17bf
00000310: dbb8 a33e 8a21 0fbe 51de 19bf 9ccb 40be
00000320: bb9d b33e 99e8 ecbe d958 29be 142a 99bf
00000330: b93c 17bf 0409 9fbe 2969 93be 6c2f 48bf
00000340: 8547 34bf 46fe 41bf a3aa 78be 8ea8 13be
00000350: 65d8 aebf 1d34 97be e2b9 78bf cf8c 12bf
00000360: 7909 73bf 35fd 4f3d d59b 3bbf efce 82be
00000370: 3799 3ebf c910 91bd dc09 91bf 0880 48bf
00000380: 1177 0cbf e5b0 7fbf 5c07 51bf 15ff 19bf
00000390: a7d3 06bf cd71 a03e a314 38bf 65a7 50bf
000003a0: 3498 2bbf ef8d 3bbf ea60 2bbd 3d2e 14bb
000003b0: 80c3 4ebf 1858 debe 1401 d1be cd7f d3be
000003c0: 724c 97be 86cb 53bf 1d13 23bf 5cc6 33bf
000003d0: 1d29 d5be a0d3 83bf fe5f 10bf d6d0 6bbf
000003e0: 77fc 8bbf 878f dbbf 904b 85be 4c8c b3bd
000003f0: beb2 0dbf 0831 9dbf e8f7 59bf b7ae 36bf
-0.858767 -0.6979314 -0.85822386 -0.28058797 -1.0078973 -0.84576386 -0.70454866 -0.13844937
-0.9130635 -1.0513475 -0.76867217 -0.5067745 -0.1538741 -0.49588683 -0.5098203 -0.35699603
-1.1003981 -0.9028785 -1.3513255 -1.2822732 -0.016638217 -0.96769756 -0.0695648 -0.07923139
-1.1264969 -0.5766232 -0.80660796 -1.7227846 -0.33723643 -0.7258845 -0.36690968 -0.85648483
-1.1398883 -0.08761648 -0.6634284 -0.33385476 -0.47803488 -0.079034 -0.452246 -0.93133235
-0.8693302 -0.8590649 -0.33266416 -0.70224035 -0.22954269 -0.9017852 -0.5161781 -0.5059357
-0.74651265 -0.6330508 -0.76208526 -0.82724243 -0.31193325 -0.5800249 -1.5326109 -0.069348164
-0.40640563 -0.5682285 -0.011370974 -1.1192616 -0.558799 -0.68322116 -0.5845867 -1.215055
-1.6152874 -1.1955092 -0.7880719 -0.16515653 -0.069132455 -1.1761001 -0.62117624 -0.63602126
-0.08972695 -0.39587614 -1.051537 -0.43433794 -1.5861591 -0.6213998 -0.8912038 -1.0831171
-1.1416857 -0.13804987 -1.0118587 -0.5172806 -0.16419819 -0.5256358 -0.23383063 -0.9230814
-0.87077475 -0.46240744 -0.022840194 -1.1386044 -0.31607038 -0.5734991 -0.3590808 -1.0780357
-0.2049249 -0.4059487 -0.009634976 -0.5972499 -0.14621283 -0.72222245 -0.8599232 -0.14609747
-0.94920087 -0.33913192 -1.0819502 -0.49626395 -0.56339365 -0.82564205 -0.7906346 -0.99028087
-0.41196916 -0.2790094 -0.46759585 0.025984963 -0.51486003 -0.7148651 -1.0638512 -0.06411338
-1.205414 -0.56785 -0.6144747 -0.88812846 -0.5677495 -0.54384744 -0.0068073976 -0.8969489
-1.2075387 -0.44021344 -0.7774266 -0.096895725 -0.06786687 -0.68189 -1.3150452 -0.8019319
-0.28756377 -0.44816887 -0.72423935 -0.68021506 -0.4244422 -0.81166166 -0.6366204 -0.7955844
-0.6592668 -0.79209304 -0.83975273 -0.3104892 -0.3741054 -0.82701904 -0.34231848 -0.96021473
-0.9014786 0.5916691 -0.8333314 -0.29370266 -0.5885832 -0.666953 -0.9422608 -0.33935106
-1.2527325 -0.2892309 -0.15759704 -0.10534185 -0.3978655 -0.10868433 -0.63719505 -0.17332207
-0.21307606 -0.06445827 -0.29415756 -0.7927171 -0.6512384 -0.9179449 -0.9263996 -0.8126857
-0.70527136 -1.1092349 -0.89822656 -0.082636 0.048815142 -0.24698782 -0.52953416 -0.7931316
-0.9085201 -0.80258715 -0.32349762 -1.1416802 -0.38298836 -0.8381359 -0.3486032 -0.6688229
-0.090986036 -0.6532577 0.3035146 -0.5935792 0.3197697 -0.13977638 -0.6010485 -0.18827671
0.35081276 -0.46271208 -0.16537799 -1.1965966 -0.5907703 -0.31061566 -0.28791168 -0.7819736
-0.7042163 -0.75778615 -0.24283843 -0.14419767 -1.3659788 -0.29531947 -0.97158635 -0.57246107
-0.9493633 0.050778586 -0.73284656 -0.25548503 -0.7445254 -0.0708328 -1.1331134 -0.7832036
-0.5486918 -0.99879295 -0.81651855 -0.6015485 -0.52666706 0.31336823 -0.7190649 -0.81505424
-0.6702912 -0.7326345 -0.04184047 -0.0022610568 -0.8076706 -0.43426585 -0.40821135 -0.41308442
-0.2955051 -0.8273243 -0.6370104 -0.7022455 -0.4163293 -1.0298958 -0.5639647 -0.92115533
-1.0936421 -1.7153176 -0.26034212 -0.08766994 -0.55350864 -1.2280588 -0.851439 -0.71360344

bn1.running_mean f4 [256]
00000000: c44c 1640 c3ca ddbf 8715 1040 a492 cec0
00000010: 95ff 20c1 f5fd 99c0 34c0 08bd 3491 493e
00000020: 9875 bbc0 dd9d 0cc0 a963 af3f d2ec be3f
00000030: 7b8d 543f 10a9 19c0 6a51 81bf f3c7 0b40
00000040: efba 29c0 d990 ac40 a127 9f3f eb23 a640
00000050: 73e0 283e 1308 2041 cb15 fc3e af93 e43b
00000060: 3db9 e73f d9fd 8140 d7e1 b2c0 cbcd 18c1
00000070: 7546 acbf fa33 0240 8c31 e4bf d16c 323f
00000080: 6421 f9c0 bf96 2fbe 8f63 ad3f fb0f 0440
00000090: 717b 3a3f 9ae8 8b40 d95a bfc0 5a75 9c40
000000a0: fc96 80bf 12f7 e040 ef43 2fc0 b1e0 1d40
000000b0: bbc8 3dbd 0e42 83c0 2295 0740 28ee d7be
000000c0: a397 da3e c66a 3cc0 5fce bebf b85a 34c0
000000d0: 6924 d0bf 46e7 3cc0 6051 b1c0 cae1 8dbe
000000e0: bd05 e13f 3e84 50c0 23bb 763e 3527 a1c0
000000f0: a0ce 5ec1 534a 9dbf a04b 84c0 2963 de3f
00000100: 82a0 9e3f e407 11bf 5529 a2c0 54b4 f63e
00000110: 295f 3abe fa48 b8bf db16 2540 a1d4 42c0
00000120: 0070 a63e e2b0 ba3f f8bb 2cbe 282e bb40
00000130: 4a59 14c1 2b5d 43bf f841 633f 153c 84bf
00000140: a142 49c0 7914 5dc1 b1f7 59c0 cf97 b0c0
00000150: 8bd2 9fbf 4750 60c0 45d9 88be ef77 e9bf
00000160: 49cc d03e d1dc 5140 0f4e 8dbe fb29 d8bd
00000170: 7f61 ba3f aba6 44c0 c052 32bc e7bf f83f
00000180: 8524 6240 fa03 55bf 14a2 3840 30bf 05c0
00000190: a2b2 1e40 4885 5340 97b1 58c0 7f7b 4c40
000001a0: 3dde 933f dddd f7be 7185 aac0 225e 133f
000001b0: 9876 ccc0 6b26 74c0 3c72 973e 7195 7c40
000001c0: a7ba 7cc0 2ad1 b1c0 3be4 89be 7416 0440
000001d0: df80 d0bf 5499 b2c0 2044 22c0 84b5 983e
000001e0: b19e 09c1 d9b0 ad40 4b68 32c0 a2a9 44c0
000001f0: 016e 8e40 0549 93c0 350d 273e 7681 11be
00000200: 2715 413f ad83 3140 bdae 93c0 c433 5e3e
00000210: 9c7b 0540 7ce3 18c0 587e 8e3e 1e0e 3640
00000220: ece6 48c0 51b7 c1bf 3ac8 1ec1 edb7 13c0
00000230: 763f eec0 1932 733e db9b ee3f 75f5 94c0
00000240: 4256 4f3f 8a2b 0940 9f12 d43f 401e 87bf
00000250: 0e28 6e40 6297 11c0 9494 d13f 5ce6 c4bf
00000260: 6e71 d43f 30fb 8b40 b884 13c0 6609 2a3f
00000270: 06b0 1940 8c03 64c0 624b 9f3f ca32 06c0
00000280: 4209 86c0 73d4 66c0 7acf ad40 d5bb 983f
00000290: 0bfe 8940 a96b c1bc a866 6cbf 5bea 29bd
000002a0: 16da 8440 d287 0e3f a83f 88bf e4b7 be3c
000002b0: 09db 4940 ef69 2ec0 67b9 37c0 cb63 9cc0
000002c0: abc9 16c1 333e d140 bbd9 2dc0 cf26 9ac0
000002d0: f375 6dc0 7a0a abbf 567e 7b3f ca67 c340
000002e0: 7f5d 173f 36c4 eec0 f4cd 1fc0 b463 b0c0
000002f0: 9751 c83f 354a c43f 1c9b a3c0 f5c6 2540
00000300: 1ecd 9b3d 7639 f1c0 456d ba40 08a6 dbc0
00000310: c70d 9e40 d3e3 1bc0 abbc 7ac0 3037 86bf
00000320: 9c3e 0d41 929c 0940 1571 e63f 0d87 c2bf
00000330: a0f8 e2c0 2bb8 33c0 fb01 d3bf 8246 d73f
00000340: 639c 2cbf ddc4 35c0 0c9c 2bbf bb33 dbc0
00000350: caa1 9fbf 22c2 2a40 03e9 463e 2400 46c0
00000360: 4179 2bc0 c5f2 b1c0 4727 33bd 3d95 b93c
00000370: e534 fabf bad3 3641 ff0e 2240 1bc0 1c41
00000380: a3a5 d540 0a55 83c0 31ea acc0 a912 cfc0
00000390: c350 82c0 2ac0 2f3f a871 d1be c115 c0bf
000003a0: f609 fa3e 3d26 5040 7f87 1c40 194a bdbf
000003b0: 41d1 943e 036b 023f f3c8 df40 72f0 763f
000003c0: 7b2b 8cbe 0966 1f40 4077 f7bf f501 bd3f
000003d0: 0eae 09bc 2e3e 0ac0 764e 1741 5f9b 83bf
000003e0: e5f9 5cc0 67de 7940 2463 a440 65e7 33c0
000003f0: 35cd 3f40 decf 06c1 555e bbc0 6951 babf
2.3484354 -1.7327503 2.251314 -6.4554005 -10.062398 -4.8122506 -0.033386424 0.19684297
-5.8581047 -2.1971352 1.3702289 1.4916022 0.8302838 -2.4009438 -1.0102971 2.184079
-2.6520345 5.3926816 1.2433969 5.1918845 0.1649187 10.001971 0.49235377 0.006975613
1.8103405 4.0622373 -5.5900683 -9.550242 -1.3459002 2.0344224 -1.782762 0.6969729
-7.785326 -0.17147349 1.3546008 2.0634754 0.72844607 4.3721437 -5.97984 4.889325
-1.0046077 7.03016 -2.7385213 2.466839 -0.04633401 -4.1018133 2.1184773 -0.42173886
0.42693815 -2.944017 -1.490673 -2.818037 -1.6261111 -2.9516158 -5.5411835 -0.27711326
1.7579876 -3.2580714 0.24094824 -5.036036 -13.925446 -1.2288307 -4.1342316 1.7374011
1.2392733 -0.56652665 -5.0675454 0.48184454 -0.18200363 -1.4397271 2.57952 -3.0442278
0.32507324 1.458523 -0.1686858 5.8493843 -9.271799 -0.7631404 0.88772535 -1.0330836
-3.1446917 -13.817498 -3.405743 -5.5185313 -1.2486128 -3.5048997 -0.26728263 -1.8239726
0.40780857 3.2791026 -0.27598616 -0.10554882 1.4561003 -3.0726726 -0.010883987 1.9433564
3.533479 -0.8320919 2.8848925 -2.0897942 2.479653 3.3050098 -3.3858392 3.1950376
1.1552197 -0.48411456 -5.328789 0.5756551 -6.389477 -3.8148448 0.2957934 3.9466212
-3.9488924 -5.5567827 -0.2693194 2.0638704 -1.6289328 -5.581217 -2.535408 0.29825985
-8.601243 5.427838 -2.7876155 -3.0728536 4.450928 -4.6026635 0.16313632 -0.14209542
0.754229 2.7736619 -4.6150804 0.21699435 2.0856695 -2.3888845 0.27830768 2.8446116
-3.1390944 -1.5134069 -9.923883 -2.308101 -7.4452467 0.2374958 1.8641313 -4.654963
0.80990994 2.1432824 1.6568183 -1.0556107 3.7211947 -2.2748647 1.6373467 -1.53828
1.6597116 4.3744125 -2.3049755 0.6642059 2.4013686 -3.5627165 1.244488 -2.09685
-4.18863 -3.6067169 5.4315767 1.1932322 4.312261 -0.023610907 -0.9234414 -0.041483264
4.151622 0.55675995 -1.0644426 0.023281045 3.1539938 -2.7252157 -2.870691 -4.8871818
-9.424235 6.5388427 -2.7164142 -4.8172374 -3.710324 -1.3362572 0.9823965 6.1064196
0.5912704 -7.4614515 -2.4969454 -5.512171 1.5649899 1.5335146 -5.1126842 2.5902684
0.076074824 -7.5382643 5.8258386 -6.8640175 4.939182 -2.4357803 -3.9177654 -1.0485592
8.8277855 2.1501813 1.800326 -1.5197464 -7.0928497 -2.8081157 -1.6484979 1.6818392
-0.6742613 -2.8401406 -0.67034984 -6.8500648 -1.2471249 2.668099 0.19424824 -3.0937586
-2.6792758 -5.560885 -0.04373863 0.02265417 -1.9547392 11.426691 2.5321653 9.796901
6.6764693 -4.1041307 -5.403588 -6.471028 -4.0723586 0.68652594 -0.40907025 -1.5006639
0.48835725 3.2523339 2.44577 -1.4788238 0.29065898 0.50944537 6.99328 0.9646064
-0.27376923 2.4906027 -1.9333267 1.4766222 -0.008403314 -2.1600451 9.4566555 -1.028179
-3.4527524 3.9041994 5.137102 -2.8109982 2.9968998 -8.425749 -5.855265 -1.4556094

bn1.running_var f4 [256]
00000000: d56e 5942 5ccd f342 0d1c ec41 22d6 4f43
00000010: 3602 d043 8411 8642 a913 1e43 6b26 f73f
00000020: 91bc 5f42 f4b9 f441 63cf 4d43 d562 9042
00000030: efc7 a342 bc52 5f42 c148 0542 539e b842
00000040: af7d 2b42 7121 1543 b4a4 f042 abce a842
00000050: 5473 9b3e 4cb0 0643 02ce c83e 5c18 aa3f
00000060: e75c 4742 aae1 b743 6171 b442 1467 1d43
00000070: 0c49 d342 7a36 ce42 979b 8042 6a2f 8c42
00000080: 708c b942 a95b a642 afc9 8643 a993 d642
00000090: ab02 0b42 d27e 8742 d4c0 2943 ba5b 1743
000000a0: 5011 6343 6b87 3743 498d fb41 294f 9c42
000000b0: bc7e 9242 67d7 d641 991f 1642 caa3 d342
000000c0: 27e4 e742 5a8c 4942 797e 1d42 1288 9a42
000000d0: e135 9741 04e2 c942 25d3 0c43 47e8 be3e
000000e0: 6ed7 5243 d34d f642 ca79 653e 9736 ab42
000000f0: b86b b542 347b 8943 325a 9042 35a3 1343
00000100: 7950 d742 8395 e842 8e7f 3142 4735 0a43
00000110: 2bdb c73d 5ae9 2243 2abf 8c42 fa9a 4c43
00000120: d1cc ea3e 6bb3 7442 27a5 d442 daff e642
00000130: 2a54 2743 b57a ad42 1018 0542 eb6a d742
00000140: 5545 0e43 e7d7 7c42 ef3d b142 664b 5042
00000150: 8293 2443 7c30 c343 a5d7 b241 a8d6 eb42
00000160: 1f13 6c43 d30c 7842 79d8 653f fde6 d642
00000170: b999 9e43 7609 e442 cdea 5b43 383c 8c42
00000180: 0d6d 1e43 a544 a342 052f 0442 03b4 1043
00000190: 6649 3442 7508 a641 a1cd 7a42 37e3 5c42
000001a0: 6ee1 5442 f185 ef40 5bbd 1743 57c6 8442
000001b0: d917 a042 0fa6 8842 7ad0 b142 eeeb 6843
000001c0: e4bd b742 d101 8442 bdff 9e42 4f26 0341
000001d0: a3a8 0d42 f763 c142 580e dd42 4798 0143
000001e0: e389 8e42 efe1 2342 78e3 a142 631b ac42
000001f0: f8b1 ac42 80c1 f642 0eb1 2843 047c 3242
00000200: 2897 0b43 33f3 3d42 db7a 2242 b743 963e
00000210: 6498 9e42 729d 5f43 bb1e 8942 abbd 8442
00000220: dc21 b541 b0f4 d141 cada d942 0d21 c742
00000230: 18b2 ef42 5298 1743 d7a9 e142 c281 4442
00000240: ed64 eb42 5fee c641 484a 8542 c66c 6941
00000250: 1a75 8441 2a9f 8142 5287 6442 0aa7 9a42
00000260: a6e8 a842 6eec a743 2c46 ed42 1219 a742
00000270: 64f3 2d42 9c9d cb43 e9ba 8d41 7855 4942
00000280: 8e5b 3f42 8f10 3c42 1d11 e442 2842 7142
00000290: 75e2 c841 9e0f 003f 5b97 8742 e224 3843
000002a0: fc99 8542 43ca 3741 464a a242 8a56 6b42
000002b0: 06c2 6a42 5ed7 8042 0e78 e942 458c aa42
000002c0: aa78 2c43 8b02 9443 680b 2443 d374 aa43
000002d0: 18a2 cb42 bb0e 7442 ab00 9c42 449b 0643
000002e0: f075 8442 5513 a642 cf39 d342 518c 4d43
000002f0: ac8b 9b41 a2e8 ed42 0983 f042 f380 b142
00000300: 5944 6c3f 8fbb 7242 b2a8 5242 8e9d cf42
00000310: 0691 3e42 184e c041 4be3 1d43 0337 7b42
00000320: 817f 3a42 94e0 5c41 cbad d341 8ec5 3f42
00000330: 76a9 a042 d032 8d42 98bd 3d42 aa2b 7d42
00000340: af4f 8d41 7775 8a42 60bb 8642 ca3d 0743
00000350: 4325 7743 afde 0743 c87f 7443 ae00 c042
00000360: 42c7 a742 629b f542 bdf7 6c43 60c9 8142
00000370: f8d2 bf42 21b0 d842 b2a7 b642 1881 a943
00000380: c871 0843 8fa7 d642 8b98 1642 90cd 1242
00000390: cfcd 9842 dc09 0a43 3966 7342 c8e1 6e42
000003a0: b94d f542 6d03 3c43 a2ad 4441 2e17 3243
000003b0: 9789 0a43 8811 7642 dc7b 1e43 fb62 7a43
000003c0: 2541 4a42 ea2d 9e43 a0ee 1943 7736 d542
000003d0: 9c24 8841 a49c f542 84f5 2643 0ac1 a942
000003e0: 60e1 0843 24ff 3443 218c bc42 71bc f542
000003f0: 7c15 ba41 723a 8143 86ab 1a43 0f6e ad42
54.358234 121.90109 29.513697 207.83646 416.01727 67.03421 158.0768 1.9308599
55.934147 30.590797 205.8101 72.19303 81.890495 55.830795 33.32105 92.30923
42.872738 149.13063 120.321686 84.40365 0.30361426 134.68866 0.3921967 1.3288684
49.840725 367.763 90.22144 157.40265 105.64267 103.1064 64.30389 70.092606
92.77429 83.17902 269.57565 107.2884 34.752605 67.747696 169.75323 151.3583
227.06763 183.52898 31.443987 78.15461 73.24753 26.855177 37.530857 105.8199
115.94561 50.387062 39.37351 77.26576 18.901308 100.94144 140.82478 0.3728659
210.84152 123.152 0.2240974 85.60662 90.71039 274.96252 72.17616 147.63753
107.65717 116.292015 44.374565 138.20811 0.097586 162.91153 70.37337 204.60538
0.45859388 61.175213 106.32256 115.49971 167.32877 86.73966 33.2735 107.708824
142.27083 63.210842 88.620964 52.07363 164.5762 390.37878 22.355295 117.91925
236.07469 62.012524 0.89783436 107.45115 317.20096 114.01848 219.91719 70.117615
158.42598 81.63407 33.045918 144.70317 45.07168 20.75413 62.70081 55.22189
53.220146 7.4851003 151.73967 66.38738 80.04658 68.32433 88.90718 232.9216
91.87088 66.00355 79.49949 8.196853 35.414684 96.695244 110.528015 129.59483
71.26931 40.97064 80.944275 86.05349 86.347595 123.37793 168.69162 44.62111
139.59045 47.4875 40.619976 0.29348537 79.29764 223.61502 68.56002 66.370445
22.641533 26.244476 108.92732 99.56455 119.84784 151.595 112.83172 49.126717
117.69712 24.866392 66.64508 14.589056 16.557178 64.81087 57.13215 77.32625
84.45439 335.8471 118.637054 83.548965 43.487686 407.23132 17.716265 50.333466
47.83941 47.01617 114.033424 60.314606 25.110575 0.5002383 67.795616 184.14407
66.80075 11.48688 81.145065 58.83451 58.689476 64.42064 116.73448 85.273964
172.47134 296.01987 164.04456 340.9127 101.81659 61.014385 78.001305 134.6065
66.23035 83.03776 105.61291 205.54811 19.4432 118.95436 120.25593 88.751854
0.9229179 60.683163 52.66474 103.807724 47.641624 24.038132 157.88786 62.803722
46.624516 13.804829 26.45986 47.942924 80.33098 70.59924 47.43515 63.29264
17.663908 69.22942 67.36597 135.24136 247.14555 135.86986 244.49915 96.00133
83.889175 122.80348 236.96773 64.89331 95.91205 108.344 91.32753 339.00854
136.44446 107.32726 37.648968 36.700745 76.40197 138.03851 60.849827 59.72049
122.6518 188.01338 12.292391 178.09055 138.53746 61.51712 158.48383 250.38664
50.563618 316.3587 153.93213 106.60638 17.017876 122.80594 166.95905 84.87703
136.88037 180.99664 94.27369 122.86805 23.26049 258.4566 154.67001 86.71496

fc2.weight f4 [128, 260]
00000000: 228f 7ebf a6df 5bbf d992 aa3c b03d 95be
00000010: a574 5fbe 56ef d7bd 8983 49bf 125c 6ebb
00000020: 7a53 99bf f1b6 9abd b264 663e 2697 ecbe
00000030: 7ed3 31bd 982e 7ebe e8b7 22bf 3a62 01be
00000040: b4df 10be 2a89 05bf afaa a9be 2add f3bd
00000050: ea83 babd 6602 cfbe 4e32 653c 8435 80bc
00000060: 92f8 51be c1c3 a43d 64dc 09bf 066e 09be
00000070: 3e0e 11bf 99bc 4cbe b084 ffbc 37e8 35bf
00000080: 004e c2bd 2580 503c c8cf c2be acc1 ccbe
00000090: 6d93 d4bd d4b4 ccbb f7b3 c8bc 563f 4dbe
000000a0: 3b8d 11bf d779 77be bd80 073e b66b 02bf
000000b0: 71c6 69be 44d8 e4be 8715 73be c4dd e5be
000000c0: b2b2 3b3e be98 29be d129 48be 21fa 6f3e
000000d0: 97e9 77bf e218 41bf d703 7fbe 1f64 aa3d
000000e0: e50d 02be f83f 4bbd 1bd2 d7bc 2ff6 e0be
000000f0: 9f1c 3bbf 1ccb 8cbe a57c 05bf 471c 56bf
00000100: b9c8 05be eb90 9bbf 9958 e0be dc6c aebe
00000110: b583 d03c d463 febe 6f90 37be f92d 87be
00000120: 2ce2 38bd 8091 27be 17b0 8dbe dc35 8ebe
00000130: d311 27be f32f debd 71ff 28bf 424c 223e
00000140: 332e 1dbe 81d7 23bf b86e 77be 29c1 1ebf
00000150: c5e7 b33d 73ea f0be 9f15 f2be 558f 93be
00000160: 035a 39be 3b5b 5cbe 1471 cebd 6170 99be
00000170: eade 1ebf 963b 14bf cc3b 92bd a52c 0fbf
00000180: 7777 09be 5f37 bbbf bea7 6bbf 3435 8a3d
00000190: c7ed 0bbf b241 27bd fda1 21be 6306 0bbf
000001a0: 7df2 18bd dd01 b33c c8a4 02be c5f9 ffbd
000001b0: 866f 57bf 3a48 21bf 6803 69be d8ce 80be
000001c0: e57b ea3e ec91 55bf 99aa 91be f4b4 82bf
000001d0: 4010 45be 1a11 3bbe 8ece 29bd 2504 fcbe
000001e0: ce3c cabe bd62 1ebf e42c 92bf 515c 30bf
000001f0: bf3a b03e c667 d8be 1d90 6bbc 2974 1dbe
00000200: 2ffb 863e aa7e 0bbf 7f73 a1be 393b a6bc
00000210: 9414 9dbf 76d7 36bf b045 d5bd edda 3fbf
00000220: 89b1 33be 4e76 49bf c1b8 3fbf 65bf 58be
00000230: 8f3d a2be a10f 19bf ec74 41be 577f 2cbf
00000240: 5697 4ebf 5b5f 07bf 4ae1 a9be 68ad 2dbd
00000250: 8539 e5bd f11e 4fbf a253 30bf e024 4a3e
00000260: 1326 09bf 788d fcbe 8b16 27bf 3a81 d33e
00000270: ba87 27bf 21df 90bd 2849 90bf 58e5 73bf
00000280: 2386 04bf 75d7 36be c5e2 82bf 2f3a 84bf
00000290: 82bd bebe d452 ad3b f0de 54bf cab7 123f
000002a0: 1ed5 2fbf 3980 1dbf ef7a 4abf d96d 41bf
000002b0: 2ed0 c3be 2ee8 c9bd e701 4fbf 07a3 27bf
000002c0: 22bb 9dbe 3fec 39be ddc1 ae3d 81eb 4cbf
000002d0: 6cf6 7fbf 5e37 ffbe a4ba f8be a0b8 25be
000002e0: bd65 bfbe b634 2ebf 6537 d6bd 4281 e4be
000002f0: d01a a6be f204 adbd dc4f 7bbe 4e47 ddbd
00000300: b7ba d63c 036d 05bf 0caa a1be 178a 13bf
00000310: 1ded 82bf 92a5 a1bf 4c06 0bbf 45e3 413d
00000320: cebe 16bf fb75 9e3c 453b 1dbf 85a1 b4bb
00000330: a577 af3d 05e6 d2be 2dc7 82bf dd6f 4abf
00000340: 1798 6bbf c0ce b4bd 1fac 2ebe e72c d73e
00000350: b407 f4be 117b b8be 81ef 633d 260c 4ebf
00000360: f4b9 bfbd 4126 03be 6fa2 a1be 67c5 a33e
00000370: 388a 6ebf 1aa3 f1bd 5205 b1be 3c11 e8be
00000380: 5059 96be ee3f 64bd 6fdd 18bf 64ac 15bd
00000390: 09de ebbe 7eac 11bf 6028 c6be 3df9 f7be
000003a0: 83d5 c0be 51dd 023c d94d 49bf 3882 53be
000003b0: 356f 89be 114a 80be 0d05 6abf 4f01 4ebe
000003c0: f866 c6bd a305 21bf ddec 87bd 37b5 a9be
000003d0: f96c 67be 5777 d03a 2179 cb3e 87f5 8abf
000003e0: 0957 30be d6f5 87bc ef0c 11bf edc2 4abf
000003f0: 3d2d aebe a688 1bbf 1473 87be eee8 e1be
-0.99437153 -0.85888135 0.020821976 -0.29148626 -0.2182184 -0.105436966 -0.7871633 -0.0036370796
-1.19786 -0.075544246 0.2249935 -0.46209067 -0.043414585 -0.24822462 -0.6356187 -0.12635127
-0.14147836 -0.5216242 -0.33138034 -0.11907418 -0.09107192 -0.40431517 0.013989044 -0.015650518
-0.20504978 0.080451496 -0.53851914 -0.13420877 -0.56662357 -0.1999382 -0.0311912 -0.71057457
-0.094875336 0.012725865 -0.3804915 -0.3999151 -0.10379682 -0.0062471423 -0.024499876 -0.20043692
-0.56856126 -0.24167572 0.13232704 -0.50945604 -0.22829606 -0.44696248 -0.23738681 -0.44895756
0.18329886 -0.16562173 -0.19547202 0.2343526 -0.96840805 -0.75428593 -0.24903809 0.08319878
-0.12700613 -0.049621552 -0.026345303 -0.43937823 -0.7309055 -0.2749871 -0.5214332 -0.836369
-0.13064851 -1.21536 -0.43817595 -0.34067428 0.025453428 -0.49685538 -0.17926191 -0.26402262
-0.04513757 -0.16364098 -0.27673408 -0.27775466 -0.16315393 -0.10848989 -0.6601477 0.15849403
-0.15349655 -0.6400071 -0.2416333 -0.6201349 0.08784441 -0.4705387 -0.4728212 -0.2882029
-0.18100743 -0.21519177 -0.10080162 -0.2996855 -0.6205889 -0.5790342 -0.071403116 -0.559275
-0.13424478 -1.4626273 -0.9205283 0.06748429 -0.54659694 -0.040834136 -0.1578445 -0.5430662
-0.03734063 0.021851474 -0.12758172 -0.12498812 -0.84154546 -0.63000834 -0.22755206 -0.2515781
0.4579765 -0.83425784 -0.28450468 -1.0211473 -0.1924448 -0.18268242 -0.04145675 -0.49221912
-0.39499515 -0.6186941 -1.141995 -0.68890864 0.3441982 -0.42266673 -0.014377621 -0.15376343
0.26363513 -0.5449015 -0.3153343 -0.020291911 -1.2271905 -0.7142252 -0.104136825 -0.7494343
-0.17548193 -0.78696144 -0.7489129 -0.21166761 -0.3168759 -0.5978947 -0.18892258 -0.67381805
-0.8069967 -0.52879876 -0.33179694 -0.0424017 -0.111926116 -0.8090659 -0.68877614 0.19740629
-0.5357372 -0.49326682 -0.6526877 0.4130953 -0.6544148 -0.070738085 -1.1272326 -0.95271826
-0.51767176 -0.17855628 -1.0225455 -1.0330256 -0.37253958 0.005289415 -0.83152676 0.5731169
-0.68684566 -0.6152378 -0.7909383 -0.7555824 -0.38244766 -0.09858738 -0.8086228 -0.65483135
-0.30806834 -0.18156527 0.0853307 -0.8004685 -0.99985385 -0.4984693 -0.48579895 -0.1618371
-0.37382308 -0.6804918 -0.104597844 -0.44629866 -0.3244233 -0.08448209 -0.24542183 -0.10804616
0.02621208 -0.52119464 -0.31575048 -0.57632583 -1.0228611 -1.2628653 -0.54306483 0.04733588
-0.58884895 0.019343367 -0.61418563 -0.0055124187 0.08567742 -0.41191116 -1.0217034 -0.7907694
-0.92028946 -0.08828497 -0.17057846 0.42026445 -0.47662127 -0.36031392 0.05564833 -0.8048729
-0.093616396 -0.12807561 -0.3156924 0.31986544 -0.93179655 -0.11798687 -0.34574372 -0.4532565
-0.29365015 -0.05572503 -0.5971288 -0.036541358 -0.46067837 -0.5690383 -0.3870268 -0.4843234
-0.37662897 0.007987336 -0.7863441 -0.20655143 -0.26842657 -0.25056508 -0.91413957 -0.20117687
-0.096876085 -0.62899226 -0.06636975 -0.33146068 -0.22600164 0.0015904707 0.39740852 -1.0856179
-0.17220701 -0.016596716 -0.5666036 -0.79203683 -0.3401889 -0.60755384 -0.26454985 -0.44123024

fc2.bias f4 [128]
00000000: 715e c8be 8072 663f 779b 073e 682e b8bd
00000010: 398d bf3f e412 19be f5ff 7ebd 23a5 7abf
00000020: de7d 32be 6918 4cbe 0534 33bf 3ce0 b2bd
00000030: 3c3c 0e3f 5c10 1dbe 82d2 1ebe 745b dbbd
00000040: be71 c2be 0598 05be fe73 043f c0e9 c8be
00000050: b67f 653e 1614 b7bf eaf9 d9bd ff15 86bf
00000060: 6683 a7bf 6452 d8bd 9e00 423f d25b a9bd
00000070: cb7d 15be c81c f8bd f8b9 e3bd 82c7 8abf
00000080: b4a1 f6bd c838 09be c5aa 28be 9ebc 1540
00000090: 715e a3bd 4bf0 27bf 23cf b7be ad79 63bf
000000a0: 0343 dfbd 2df7 97bd c3db 17be a294 bf3e
000000b0: 8481 7dbf af0e 2e3f 52bd c7bd ad1e cabf
000000c0: c272 a8bd b230 25be c032 38be a461 bebd
000000d0: f1c7 05bf c555 31bd d7d5 0ebf 349e cabd
000000e0: 993f 72bf e823 87bd 7fc5 8b3e 1329 f9bd
000000f0: 9871 7bbf 6921 fbbd 8d63 0dbf 1d3f 59bd
00000100: a67f 503f 6432 b7bd 21cd 1cbe a65b 09be
00000110: 38e9 84be 220f cabd f08a 1b3e 9060 20bf
00000120: a750 52be d91d ffbd ac25 f83f 0f57 78be
00000130: 9c8c a1bd 7ecd ddbd a50b 653b 2244 b8bd
00000140: 08c1 29be 46e5 09bf bbc3 023e 1855 68bd
00000150: e73e 803f e5ed d0be b799 dabe b96d 48be
00000160: aefb 0cbf 62c2 e5bd 2b8f 3740 546d fcbd
00000170: 64bb 20be ef82 3e40 dfca 0140 a0ce 1abe
00000180: 081f c0be 588c a4be a3ac e1bd 4336 1bbf
00000190: e762 32be b565 cebf 6c92 c2bd ecf1 23bd
000001a0: 9912 58bf 797d c3bf 3a5c 81bf dc62 9cbd
000001b0: 457e 18be 8569 303f d179 49be d713 cdbe
000001c0: 9b2d 883e f21d 99bf 0e9b e83f ab48 0cbe
000001d0: 24de f1be b2a6 1cbe 2e4d cebd b6d4 bf3f
000001e0: 437d d2bd b052 b1bf ce43 d0bf e052 873e
000001f0: f552 c33f 559b 16be 66e6 6cbe 9073 5bbe
-0.39134553 0.90018463 0.13242899 -0.08993226 1.4964973 -0.14948612 -0.06225582 -0.9790823
-0.17430827 -0.19931187 -0.7000125 -0.087341756 0.5556066 -0.15338272 -0.1550999 -0.10710803
-0.37977403 -0.13046272 0.5173949 -0.39240837 0.22411999 -1.4303005 -0.106433704 -1.0475463
-1.3086975 -0.1056259 0.7578219 -0.082694665 -0.14598767 -0.121148646 -0.11119455 -1.0842135
-0.12042561 -0.13400567 -0.16471393 2.3396373 -0.07976998 -0.6560103 -0.3590022 -0.8885754
-0.10901453 -0.07420192 -0.14829926 0.37418085 -0.9902575 0.67991155 -0.09752907 -1.5790612
-0.08225013 -0.16131857 -0.1798811 -0.09295967 -0.5225821 -0.043294687 -0.55795044 -0.09893456
-0.9462829 -0.065986454 0.27299115 -0.121660374 -0.98220205 -0.12262232 -0.5523003 -0.053038705
0.81444776 -0.08945158 -0.15312625 -0.13413867 -0.25959182 -0.098661676 0.15189719 -0.6264734
-0.20538579 -0.12456865 1.9386497 -0.2425196 -0.07888147 -0.1083021 0.0034949568 -0.0899737
-0.16577542 -0.5386547 0.12769978 -0.056721777 1.0019196 -0.408065 -0.426954 -0.19573106
-0.5507153 -0.11218716 2.8681133 -0.1232554 -0.15696484 2.9767416 2.0280073 -0.15117884
-0.37523675 -0.32138324 -0.11019256 -0.6062967 -0.17420541 -1.6124789 -0.09500584 -0.040025637
-0.8440338 -1.5272666 -1.010627 -0.076360434 -0.14891918 0.6891101 -0.19675376 -0.400542
0.26597294 -1.1962264 1.8172319 -0.13699596 -0.47239792 -0.15297964 -0.100733146 1.4986789
-0.10277798 -1.3853359 -1.6270692 0.26430416 1.5259691 -0.14707692 -0.23134765 -0.21430802

fc3.weight f4 [1, 128]
00000000: 7cf3 cfbf bc41 c13c 177f 71bf 1b79 353b
00000010: b912 473d a39f b2bb 70a7 b33c 45d1 83bc
00000020: b6f1 6bbc 2be6 3b3c 4145 0a3d 3e75 853b
00000030: 68e5 1b3d 2d4b 0c3c 9766 cfbe 2328 ee3b
00000040: 304b 1e3d 9f75 913c 65cc 513d bb80 013d
00000050: 7b5c 373d 3f97 79bd 5b44 9f3c e6c1 7a3d
00000060: 0b33 a23c 0dc6 e4bc 4af5 f13c 108c f13a
00000070: 3eaf 973c 3b06 17bc e683 18bc c8ee fd3c
00000080: 64d6 1fbd 52dd 6dbc 0c89 903c 68a2 713d
00000090: 89d6 94bc 7fd5 cdbc c68f 253d 1204 2dbd
000000a0: 5add 39bc 945e 713c 216c 613c a92f 3dbe
000000b0: 0ce7 123d 925b 473d 2811 94bc f133 913d
000000c0: 8d90 f7bb d1bb 97bb ba74 973a 66df ba3c
000000d0: 7bf2 31bf 4214 a63b aa65 223d fd92 a53c
000000e0: 0314 083d baa0 383c d276 ee3c 81b0 babc
000000f0: 8821 8cbe 2f41 353b a343 023d 0c32 eebc
00000100: 2fd0 fabd 03d6 5dbc 2fa8 323c 4579 61bc
00000110: ae9e 883d 71eb f3bb deef 433d 0159 3ebf
00000120: 79cd 893c f3e2 cc3b eac4 7d3d b145 cc3c
00000130: c076 003d 26ad d3bc 7d7e 81bf 14d1 87bc
00000140: 1ce2 a8bb 862d 223d 1117 77bf c514 343b
00000150: b200 513d 3925 853d 063f 1fbf 79ad ac3b
00000160: 7f04 df3c 555a 9c3b 8cb8 e83d e6a4 89bc
00000170: 7fe5 c13c 8e72 603e 1894 743d cb2c 313c
00000180: 4211 843d 024f da3c e91f 85bc bb0b ca3c
00000190: 669d 6abc 9a1c 073d 3207 e3bc fca1 6ebc
000001a0: 5c59 ed3c 171f d33c 241a 7b3d c6e1 263b
000001b0: 9632 eebe db56 f4bc 1597 0bbf fcf4 763d
000001c0: bbfa 2e3d eab9 343d 21a2 523d ff59 aabc
000001d0: dbdf eb3c 3444 183c bcbc f3bc 036f 723d
000001e0: 73b7 a13c ff47 bd3c b35d c13c ec81 4bbd
000001f0: 15c2 043d 5982 8bbc 5b11 94be 29d3 67bb
-1.624618 0.023590915 -0.9433455 0.0027690593 0.04860184 -0.005451159 0.021930426 -0.016090998
-0.01440089 0.011468451 0.033757452 0.0040728142 0.038060576 0.008562845 -0.40507957 0.0072679683
0.038645923 0.017756281 0.051220316 0.031616908 0.04476593 -0.060935255 0.019441774 0.061220072
0.01979973 -0.02792647 0.029535908 0.0018428583 0.01851618 -0.009217794 -0.009308791 0.030997649
-0.03902282 -0.014518099 0.017643474 0.058992773 -0.018168705 -0.025126217 0.040420316 -0.04224021
-0.011344278 0.014732022 0.01375869 -0.18475212 0.035864875 0.048671313 -0.018074587 0.07089985
-0.0075550736 -0.0046305438 0.0011555173 0.022811603 -0.6951062 0.005068333 0.039647736 0.020211691
0.03322221 0.011268789 0.029109392 -0.022789242 -0.27369332 0.002765726 0.031802785 -0.029076599
-0.12246739 -0.013539794 0.010904356 -0.013761823 0.06670891 -0.0074438383 0.047836177 -0.7435456
0.01682161 0.0062526404 0.06195537 0.024935575 0.03136325 -0.0258394 -1.0116726 -0.016579188
-0.0051539075 0.039594196 -0.9651957 0.00274782 0.051026054 0.0650124 -0.6220554 0.005269703
0.027223824 0.0047715106 0.113633245 -0.016802263 0.023669003 0.21918699 0.059711546 0.010813902
0.06448604 0.026649002 -0.016250568 0.024663797 -0.014319753 0.03298626 -0.027713392 -0.014564987
0.028973274 0.02577166 0.061304227 0.0025464161 -0.4652297 -0.029826572 -0.5452741 0.06029223
0.042719584 0.044122614 0.05142415 -0.020794867 0.028793266 0.009293605 -0.029753082 0.0591879
0.019740796 0.02310562 0.02360425 -0.04968445 0.032411654 -0.017029928 -0.2891949 -0.0035373664
